/home/azureuser/torch-mlir/build/bin/torch-mlir-opt: /home/azureuser/miniconda/lib/libtinfo.so.6: no version information available (required by /home/azureuser/torch-mlir/build/bin/torch-mlir-opt)
./scratch/dave.mlir:3:10: error: failed to legalize operation 'torch.operator'
    %0 = torch.operator "onnx.Constant"() {torch.onnx.value = dense_resource<_model.embed_tokens.weight> : tensor<32000x4096xf32>} : () -> !torch.vtensor<[32000,4096],f32>
         ^
./scratch/dave.mlir:3:10: note: diagnostic emitted with trace:
 #0 0x000055cf2a88a54d llvm::sys::PrintStackTrace(llvm::raw_ostream&, int) /home/azureuser/torch-mlir/externals/llvm-project/llvm/lib/Support/Unix/Signals.inc:723:11
 #1 0x000055cf2a66267e emitDiag(mlir::Location, mlir::DiagnosticSeverity, llvm::Twine const&) /home/azureuser/torch-mlir/externals/llvm-project/mlir/lib/IR/Diagnostics.cpp:319:5
 #2 0x000055cf2a6625a5 mlir::emitError(mlir::Location, llvm::Twine const&) /home/azureuser/torch-mlir/externals/llvm-project/mlir/lib/IR/Diagnostics.cpp:330:10
 #3 0x000055cf2a707da8 mlir::Operation::emitError(llvm::Twine const&) /home/azureuser/torch-mlir/externals/llvm-project/mlir/lib/IR/Operation.cpp:269:29
 #4 0x000055cf29171ead (anonymous namespace)::OperationConverter::convert(mlir::ConversionPatternRewriter&, mlir::Operation*) /home/azureuser/torch-mlir/externals/llvm-project/mlir/lib/Transforms/Utils/DialectConversion.cpp:2382:14
 #5 0x000055cf2916aebe (anonymous namespace)::OperationConverter::convertOperations(llvm::ArrayRef<mlir::Operation*>, llvm::function_ref<void (mlir::Diagnostic&)>) /home/azureuser/torch-mlir/externals/llvm-project/mlir/lib/Transforms/Utils/DialectConversion.cpp:2431:16
 #6 0x000055cf2916b187 mlir::applyFullConversion(llvm::ArrayRef<mlir::Operation*>, mlir::ConversionTarget const&, mlir::FrozenRewritePatternSet const&) /home/azureuser/torch-mlir/externals/llvm-project/mlir/lib/Transforms/Utils/DialectConversion.cpp:3418:22
 #7 0x000055cf2916b1e6 mlir::applyFullConversion(mlir::Operation*, mlir::ConversionTarget const&, mlir::FrozenRewritePatternSet const&) /home/azureuser/torch-mlir/externals/llvm-project/mlir/lib/Transforms/Utils/DialectConversion.cpp:3423:10
 #8 0x000055cf278dc350 (anonymous namespace)::FinalizingBackendTypeConversionPass::runOnOperation() /home/azureuser/torch-mlir/lib/Dialect/TorchConversion/Transforms/BackendTypeConversionPasses.cpp:152:16
 #9 0x000055cf292a9fab mlir::detail::OpToOpPassAdaptor::run(mlir::Pass*, mlir::Operation*, mlir::AnalysisManager, bool, unsigned int)::$_1::operator()() const /home/azureuser/torch-mlir/externals/llvm-project/mlir/lib/Pass/Pass.cpp:0:17
#10 0x000055cf292a9f45 void llvm::function_ref<void ()>::callback_fn<mlir::detail::OpToOpPassAdaptor::run(mlir::Pass*, mlir::Operation*, mlir::AnalysisManager, bool, unsigned int)::$_1>(long) /home/azureuser/torch-mlir/externals/llvm-project/llvm/include/llvm/ADT/STLFunctionalExtras.h:45:5
#11 0x000055cf26c66929 llvm::function_ref<void ()>::operator()() const /home/azureuser/torch-mlir/externals/llvm-project/llvm/include/llvm/ADT/STLFunctionalExtras.h:68:5
#12 0x000055cf292acce5 void mlir::MLIRContext::executeAction<mlir::PassExecutionAction, mlir::Pass&>(llvm::function_ref<void ()>, llvm::ArrayRef<mlir::IRUnit>, mlir::Pass&) /home/azureuser/torch-mlir/externals/llvm-project/mlir/include/mlir/IR/MLIRContext.h:276:3
#13 0x000055cf292a5703 mlir::detail::OpToOpPassAdaptor::run(mlir::Pass*, mlir::Operation*, mlir::AnalysisManager, bool, unsigned int) /home/azureuser/torch-mlir/externals/llvm-project/mlir/lib/Pass/Pass.cpp:525:17
#14 0x000055cf292a5c84 mlir::detail::OpToOpPassAdaptor::runPipeline(mlir::OpPassManager&, mlir::Operation*, mlir::AnalysisManager, bool, unsigned int, mlir::PassInstrumentor*, mlir::PassInstrumentation::PipelineParentInfo const*) /home/azureuser/torch-mlir/externals/llvm-project/mlir/lib/Pass/Pass.cpp:585:16
#15 0x000055cf292a6ade mlir::detail::OpToOpPassAdaptor::runOnOperationImpl(bool) /home/azureuser/torch-mlir/externals/llvm-project/mlir/lib/Pass/Pass.cpp:726:20
#16 0x000055cf292a638d mlir::detail::OpToOpPassAdaptor::runOnOperation(bool) /home/azureuser/torch-mlir/externals/llvm-project/mlir/lib/Pass/Pass.cpp:709:1
#17 0x000055cf292a9f96 mlir::detail::OpToOpPassAdaptor::run(mlir::Pass*, mlir::Operation*, mlir::AnalysisManager, bool, unsigned int)::$_1::operator()() const /home/azureuser/torch-mlir/externals/llvm-project/mlir/lib/Pass/Pass.cpp:517:11
#18 0x000055cf292a9f45 void llvm::function_ref<void ()>::callback_fn<mlir::detail::OpToOpPassAdaptor::run(mlir::Pass*, mlir::Operation*, mlir::AnalysisManager, bool, unsigned int)::$_1>(long) /home/azureuser/torch-mlir/externals/llvm-project/llvm/include/llvm/ADT/STLFunctionalExtras.h:45:5
#19 0x000055cf26c66929 llvm::function_ref<void ()>::operator()() const /home/azureuser/torch-mlir/externals/llvm-project/llvm/include/llvm/ADT/STLFunctionalExtras.h:68:5
#20 0x000055cf292acce5 void mlir::MLIRContext::executeAction<mlir::PassExecutionAction, mlir::Pass&>(llvm::function_ref<void ()>, llvm::ArrayRef<mlir::IRUnit>, mlir::Pass&) /home/azureuser/torch-mlir/externals/llvm-project/mlir/include/mlir/IR/MLIRContext.h:276:3
#21 0x000055cf292a5703 mlir::detail::OpToOpPassAdaptor::run(mlir::Pass*, mlir::Operation*, mlir::AnalysisManager, bool, unsigned int) /home/azureuser/torch-mlir/externals/llvm-project/mlir/lib/Pass/Pass.cpp:525:17
#22 0x000055cf292a5c84 mlir::detail::OpToOpPassAdaptor::runPipeline(mlir::OpPassManager&, mlir::Operation*, mlir::AnalysisManager, bool, unsigned int, mlir::PassInstrumentor*, mlir::PassInstrumentation::PipelineParentInfo const*) /home/azureuser/torch-mlir/externals/llvm-project/mlir/lib/Pass/Pass.cpp:585:16
#23 0x000055cf292a76c8 mlir::PassManager::runPasses(mlir::Operation*, mlir::AnalysisManager) /home/azureuser/torch-mlir/externals/llvm-project/mlir/lib/Pass/Pass.cpp:896:10
#24 0x000055cf292a75f2 mlir::PassManager::run(mlir::Operation*) /home/azureuser/torch-mlir/externals/llvm-project/mlir/lib/Pass/Pass.cpp:876:60
#25 0x000055cf26beac32 performActions(llvm::raw_ostream&, std::shared_ptr<llvm::SourceMgr> const&, mlir::MLIRContext*, mlir::MlirOptMainConfig const&) /home/azureuser/torch-mlir/externals/llvm-project/mlir/lib/Tools/mlir-opt/MlirOptMain.cpp:394:17
#26 0x000055cf26bea868 processBuffer(llvm::raw_ostream&, std::unique_ptr<llvm::MemoryBuffer, std::default_delete<llvm::MemoryBuffer>>, mlir::MlirOptMainConfig const&, mlir::DialectRegistry&, llvm::ThreadPool*) /home/azureuser/torch-mlir/externals/llvm-project/mlir/lib/Tools/mlir-opt/MlirOptMain.cpp:459:12
#27 0x000055cf26bea64c mlir::MlirOptMain(llvm::raw_ostream&, std::unique_ptr<llvm::MemoryBuffer, std::default_delete<llvm::MemoryBuffer>>, mlir::DialectRegistry&, mlir::MlirOptMainConfig const&)::$_0::operator()(std::unique_ptr<llvm::MemoryBuffer, std::default_delete<llvm::MemoryBuffer>>, llvm::raw_ostream&) const /home/azureuser/torch-mlir/externals/llvm-project/mlir/lib/Tools/mlir-opt/MlirOptMain.cpp:530:12
#28 0x000055cf26bea5e6 mlir::LogicalResult llvm::function_ref<mlir::LogicalResult (std::unique_ptr<llvm::MemoryBuffer, std::default_delete<llvm::MemoryBuffer>>, llvm::raw_ostream&)>::callback_fn<mlir::MlirOptMain(llvm::raw_ostream&, std::unique_ptr<llvm::MemoryBuffer, std::default_delete<llvm::MemoryBuffer>>, mlir::DialectRegistry&, mlir::MlirOptMainConfig const&)::$_0>(long, std::unique_ptr<llvm::MemoryBuffer, std::default_delete<llvm::MemoryBuffer>>, llvm::raw_ostream&) /home/azureuser/torch-mlir/externals/llvm-project/llvm/include/llvm/ADT/STLFunctionalExtras.h:45:12
#29 0x000055cf2a776c02 llvm::function_ref<mlir::LogicalResult (std::unique_ptr<llvm::MemoryBuffer, std::default_delete<llvm::MemoryBuffer>>, llvm::raw_ostream&)>::operator()(std::unique_ptr<llvm::MemoryBuffer, std::default_delete<llvm::MemoryBuffer>>, llvm::raw_ostream&) const /home/azureuser/torch-mlir/externals/llvm-project/llvm/include/llvm/ADT/STLFunctionalExtras.h:68:12
#30 0x000055cf2a77621d mlir::splitAndProcessBuffer(std::unique_ptr<llvm::MemoryBuffer, std::default_delete<llvm::MemoryBuffer>>, llvm::function_ref<mlir::LogicalResult (std::unique_ptr<llvm::MemoryBuffer, std::default_delete<llvm::MemoryBuffer>>, llvm::raw_ostream&)>, llvm::raw_ostream&, bool, bool) /home/azureuser/torch-mlir/externals/llvm-project/mlir/lib/Support/ToolUtilities.cpp:28:12
#31 0x000055cf26be751b mlir::MlirOptMain(llvm::raw_ostream&, std::unique_ptr<llvm::MemoryBuffer, std::default_delete<llvm::MemoryBuffer>>, mlir::DialectRegistry&, mlir::MlirOptMainConfig const&) /home/azureuser/torch-mlir/externals/llvm-project/mlir/lib/Tools/mlir-opt/MlirOptMain.cpp:533:10
#32 0x000055cf26be77b5 mlir::MlirOptMain(int, char**, llvm::StringRef, llvm::StringRef, mlir::DialectRegistry&) /home/azureuser/torch-mlir/externals/llvm-project/mlir/lib/Tools/mlir-opt/MlirOptMain.cpp:568:14
#33 0x000055cf26be7988 mlir::MlirOptMain(int, char**, llvm::StringRef, mlir::DialectRegistry&) /home/azureuser/torch-mlir/externals/llvm-project/mlir/lib/Tools/mlir-opt/MlirOptMain.cpp:584:10
#34 0x000055cf26be2ea5 main /home/azureuser/torch-mlir/tools/torch-mlir-opt/torch-mlir-opt.cpp:43:33
#35 0x00007f1d4c023a90 (/lib/x86_64-linux-gnu/libc.so.6+0x23a90)
#36 0x00007f1d4c023b49 __libc_start_main (/lib/x86_64-linux-gnu/libc.so.6+0x23b49)
#37 0x000055cf26be2d35 _start (/home/azureuser/torch-mlir/build/bin/torch-mlir-opt+0x213d35)

./scratch/dave.mlir:3:10: note: see current operation: %3 = "torch.operator"() <{name = "onnx.Constant"}> {torch.onnx.value = dense_resource<_model.embed_tokens.weight> : tensor<32000x4096xf32>} : () -> !torch.vtensor<[32000,4096],f32> loc("./scratch/dave.mlir":3:10)
// -----// IR Dump After FinalizingBackendTypeConversion Failed (torch-finalizing-backend-type-conversion) ('func.func' operation: @main_graph) //----- //
#loc3 = loc("./scratch/dave.mlir":2:25)
module {
  ml_program.global private mutable @global_seed(dense<0> : tensor<i64>) : tensor<i64> loc(#loc1)
  func.func @main_graph(%arg0: tensor<1x8xi64> loc("./scratch/dave.mlir":2:25)) -> (tensor<1x8x32000xf32>, tensor<1x32x8x128xf32>, tensor<1x32x8x128xf32>, tensor<1x32x8x128xf32>, tensor<1x32x8x128xf32>, tensor<1x32x8x128xf32>, tensor<1x32x8x128xf32>, tensor<1x32x8x128xf32>, tensor<1x32x8x128xf32>, tensor<1x32x8x128xf32>, tensor<1x32x8x128xf32>, tensor<1x32x8x128xf32>, tensor<1x32x8x128xf32>, tensor<1x32x8x128xf32>, tensor<1x32x8x128xf32>, tensor<1x32x8x128xf32>, tensor<1x32x8x128xf32>, tensor<1x32x8x128xf32>, tensor<1x32x8x128xf32>, tensor<1x32x8x128xf32>, tensor<1x32x8x128xf32>, tensor<1x32x8x128xf32>, tensor<1x32x8x128xf32>, tensor<1x32x8x128xf32>, tensor<1x32x8x128xf32>, tensor<1x32x8x128xf32>, tensor<1x32x8x128xf32>, tensor<1x32x8x128xf32>, tensor<1x32x8x128xf32>, tensor<1x32x8x128xf32>, tensor<1x32x8x128xf32>, tensor<1x32x8x128xf32>, tensor<1x32x8x128xf32>, tensor<1x32x8x128xf32>, tensor<1x32x8x128xf32>, tensor<1x32x8x128xf32>, tensor<1x32x8x128xf32>, tensor<1x32x8x128xf32>, tensor<1x32x8x128xf32>, tensor<1x32x8x128xf32>, tensor<1x32x8x128xf32>, tensor<1x32x8x128xf32>, tensor<1x32x8x128xf32>, tensor<1x32x8x128xf32>, tensor<1x32x8x128xf32>, tensor<1x32x8x128xf32>, tensor<1x32x8x128xf32>, tensor<1x32x8x128xf32>, tensor<1x32x8x128xf32>, tensor<1x32x8x128xf32>, tensor<1x32x8x128xf32>, tensor<1x32x8x128xf32>, tensor<1x32x8x128xf32>, tensor<1x32x8x128xf32>, tensor<1x32x8x128xf32>, tensor<1x32x8x128xf32>, tensor<1x32x8x128xf32>, tensor<1x32x8x128xf32>, tensor<1x32x8x128xf32>, tensor<1x32x8x128xf32>, tensor<1x32x8x128xf32>, tensor<1x32x8x128xf32>, tensor<1x32x8x128xf32>, tensor<1x32x8x128xf32>, tensor<1x32x8x128xf32>) attributes {torch.onnx_meta.ir_version = 8 : si64, torch.onnx_meta.opset_version = 17 : si64, torch.onnx_meta.producer_name = "pytorch", torch.onnx_meta.producer_version = "2.3.0"} {
    %cst = arith.constant dense<1> : tensor<4xi64> loc(#loc1)
    %0 = torch_c.from_builtin_tensor %arg0 : tensor<1x8xi64> -> !torch.vtensor<[1,8],si64> loc(#loc3)
    %1 = torch_c.from_builtin_tensor %cst : tensor<4xi64> -> !torch.vtensor<[4],si64> loc(#loc1)
    %2 = torch.operator "onnx.Constant"() {torch.onnx.value = dense_resource<_model.embed_tokens.weight> : tensor<32000x4096xf32>} : () -> !torch.vtensor<[32000,4096],f32> loc(#loc4)
    %3 = torch.operator "onnx.Constant"() {torch.onnx.value = dense_resource<_model.layers.0.input_layernorm.weight> : tensor<4096xf32>} : () -> !torch.vtensor<[4096],f32> loc(#loc5)
    %4 = torch.operator "onnx.Constant"() {torch.onnx.value = dense_resource<_model.layers.0.post_attention_layernorm.weight> : tensor<4096xf32>} : () -> !torch.vtensor<[4096],f32> loc(#loc6)
    %5 = torch.operator "onnx.Constant"() {torch.onnx.value = dense_resource<_model.layers.1.input_layernorm.weight> : tensor<4096xf32>} : () -> !torch.vtensor<[4096],f32> loc(#loc7)
    %6 = torch.operator "onnx.Constant"() {torch.onnx.value = dense_resource<_model.layers.1.post_attention_layernorm.weight> : tensor<4096xf32>} : () -> !torch.vtensor<[4096],f32> loc(#loc8)
    %7 = torch.operator "onnx.Constant"() {torch.onnx.value = dense_resource<_model.layers.2.input_layernorm.weight> : tensor<4096xf32>} : () -> !torch.vtensor<[4096],f32> loc(#loc9)
    %8 = torch.operator "onnx.Constant"() {torch.onnx.value = dense_resource<_model.layers.2.post_attention_layernorm.weight> : tensor<4096xf32>} : () -> !torch.vtensor<[4096],f32> loc(#loc10)
    %9 = torch.operator "onnx.Constant"() {torch.onnx.value = dense_resource<_model.layers.3.input_layernorm.weight> : tensor<4096xf32>} : () -> !torch.vtensor<[4096],f32> loc(#loc11)
    %10 = torch.operator "onnx.Constant"() {torch.onnx.value = dense_resource<_model.layers.3.post_attention_layernorm.weight> : tensor<4096xf32>} : () -> !torch.vtensor<[4096],f32> loc(#loc12)
    %11 = torch.operator "onnx.Constant"() {torch.onnx.value = dense_resource<_model.layers.4.input_layernorm.weight> : tensor<4096xf32>} : () -> !torch.vtensor<[4096],f32> loc(#loc13)
    %12 = torch.operator "onnx.Constant"() {torch.onnx.value = dense_resource<_model.layers.4.post_attention_layernorm.weight> : tensor<4096xf32>} : () -> !torch.vtensor<[4096],f32> loc(#loc14)
    %13 = torch.operator "onnx.Constant"() {torch.onnx.value = dense_resource<_model.layers.5.input_layernorm.weight> : tensor<4096xf32>} : () -> !torch.vtensor<[4096],f32> loc(#loc15)
    %14 = torch.operator "onnx.Constant"() {torch.onnx.value = dense_resource<_model.layers.5.post_attention_layernorm.weight> : tensor<4096xf32>} : () -> !torch.vtensor<[4096],f32> loc(#loc16)
    %15 = torch.operator "onnx.Constant"() {torch.onnx.value = dense_resource<_model.layers.6.input_layernorm.weight> : tensor<4096xf32>} : () -> !torch.vtensor<[4096],f32> loc(#loc17)
    %16 = torch.operator "onnx.Constant"() {torch.onnx.value = dense_resource<_model.layers.6.post_attention_layernorm.weight> : tensor<4096xf32>} : () -> !torch.vtensor<[4096],f32> loc(#loc18)
    %17 = torch.operator "onnx.Constant"() {torch.onnx.value = dense_resource<_model.layers.7.input_layernorm.weight> : tensor<4096xf32>} : () -> !torch.vtensor<[4096],f32> loc(#loc19)
    %18 = torch.operator "onnx.Constant"() {torch.onnx.value = dense_resource<_model.layers.7.post_attention_layernorm.weight> : tensor<4096xf32>} : () -> !torch.vtensor<[4096],f32> loc(#loc20)
    %19 = torch.operator "onnx.Constant"() {torch.onnx.value = dense_resource<_model.layers.8.input_layernorm.weight> : tensor<4096xf32>} : () -> !torch.vtensor<[4096],f32> loc(#loc21)
    %20 = torch.operator "onnx.Constant"() {torch.onnx.value = dense_resource<_model.layers.8.post_attention_layernorm.weight> : tensor<4096xf32>} : () -> !torch.vtensor<[4096],f32> loc(#loc22)
    %21 = torch.operator "onnx.Constant"() {torch.onnx.value = dense_resource<_model.layers.9.input_layernorm.weight> : tensor<4096xf32>} : () -> !torch.vtensor<[4096],f32> loc(#loc23)
    %22 = torch.operator "onnx.Constant"() {torch.onnx.value = dense_resource<_model.layers.9.post_attention_layernorm.weight> : tensor<4096xf32>} : () -> !torch.vtensor<[4096],f32> loc(#loc24)
    %23 = torch.operator "onnx.Constant"() {torch.onnx.value = dense_resource<_model.layers.10.input_layernorm.weight> : tensor<4096xf32>} : () -> !torch.vtensor<[4096],f32> loc(#loc25)
    %24 = torch.operator "onnx.Constant"() {torch.onnx.value = dense_resource<_model.layers.10.post_attention_layernorm.weight> : tensor<4096xf32>} : () -> !torch.vtensor<[4096],f32> loc(#loc26)
    %25 = torch.operator "onnx.Constant"() {torch.onnx.value = dense_resource<_model.layers.11.input_layernorm.weight> : tensor<4096xf32>} : () -> !torch.vtensor<[4096],f32> loc(#loc27)
    %26 = torch.operator "onnx.Constant"() {torch.onnx.value = dense_resource<_model.layers.11.post_attention_layernorm.weight> : tensor<4096xf32>} : () -> !torch.vtensor<[4096],f32> loc(#loc28)
    %27 = torch.operator "onnx.Constant"() {torch.onnx.value = dense_resource<_model.layers.12.input_layernorm.weight> : tensor<4096xf32>} : () -> !torch.vtensor<[4096],f32> loc(#loc29)
    %28 = torch.operator "onnx.Constant"() {torch.onnx.value = dense_resource<_model.layers.12.post_attention_layernorm.weight> : tensor<4096xf32>} : () -> !torch.vtensor<[4096],f32> loc(#loc30)
    %29 = torch.operator "onnx.Constant"() {torch.onnx.value = dense_resource<_model.layers.13.input_layernorm.weight> : tensor<4096xf32>} : () -> !torch.vtensor<[4096],f32> loc(#loc31)
    %30 = torch.operator "onnx.Constant"() {torch.onnx.value = dense_resource<_model.layers.13.post_attention_layernorm.weight> : tensor<4096xf32>} : () -> !torch.vtensor<[4096],f32> loc(#loc32)
    %31 = torch.operator "onnx.Constant"() {torch.onnx.value = dense_resource<_model.layers.14.input_layernorm.weight> : tensor<4096xf32>} : () -> !torch.vtensor<[4096],f32> loc(#loc33)
    %32 = torch.operator "onnx.Constant"() {torch.onnx.value = dense_resource<_model.layers.14.post_attention_layernorm.weight> : tensor<4096xf32>} : () -> !torch.vtensor<[4096],f32> loc(#loc34)
    %33 = torch.operator "onnx.Constant"() {torch.onnx.value = dense_resource<_model.layers.15.input_layernorm.weight> : tensor<4096xf32>} : () -> !torch.vtensor<[4096],f32> loc(#loc35)
    %34 = torch.operator "onnx.Constant"() {torch.onnx.value = dense_resource<_model.layers.15.post_attention_layernorm.weight> : tensor<4096xf32>} : () -> !torch.vtensor<[4096],f32> loc(#loc36)
    %35 = torch.operator "onnx.Constant"() {torch.onnx.value = dense_resource<_model.layers.16.input_layernorm.weight> : tensor<4096xf32>} : () -> !torch.vtensor<[4096],f32> loc(#loc37)
    %36 = torch.operator "onnx.Constant"() {torch.onnx.value = dense_resource<_model.layers.16.post_attention_layernorm.weight> : tensor<4096xf32>} : () -> !torch.vtensor<[4096],f32> loc(#loc38)
    %37 = torch.operator "onnx.Constant"() {torch.onnx.value = dense_resource<_model.layers.17.input_layernorm.weight> : tensor<4096xf32>} : () -> !torch.vtensor<[4096],f32> loc(#loc39)
    %38 = torch.operator "onnx.Constant"() {torch.onnx.value = dense_resource<_model.layers.17.post_attention_layernorm.weight> : tensor<4096xf32>} : () -> !torch.vtensor<[4096],f32> loc(#loc40)
    %39 = torch.operator "onnx.Constant"() {torch.onnx.value = dense_resource<_model.layers.18.input_layernorm.weight> : tensor<4096xf32>} : () -> !torch.vtensor<[4096],f32> loc(#loc41)
    %40 = torch.operator "onnx.Constant"() {torch.onnx.value = dense_resource<_model.layers.18.post_attention_layernorm.weight> : tensor<4096xf32>} : () -> !torch.vtensor<[4096],f32> loc(#loc42)
    %41 = torch.operator "onnx.Constant"() {torch.onnx.value = dense_resource<_model.layers.19.input_layernorm.weight> : tensor<4096xf32>} : () -> !torch.vtensor<[4096],f32> loc(#loc43)
    %42 = torch.operator "onnx.Constant"() {torch.onnx.value = dense_resource<_model.layers.19.post_attention_layernorm.weight> : tensor<4096xf32>} : () -> !torch.vtensor<[4096],f32> loc(#loc44)
    %43 = torch.operator "onnx.Constant"() {torch.onnx.value = dense_resource<_model.layers.20.input_layernorm.weight> : tensor<4096xf32>} : () -> !torch.vtensor<[4096],f32> loc(#loc45)
    %44 = torch.operator "onnx.Constant"() {torch.onnx.value = dense_resource<_model.layers.20.post_attention_layernorm.weight> : tensor<4096xf32>} : () -> !torch.vtensor<[4096],f32> loc(#loc46)
    %45 = torch.operator "onnx.Constant"() {torch.onnx.value = dense_resource<_model.layers.21.input_layernorm.weight> : tensor<4096xf32>} : () -> !torch.vtensor<[4096],f32> loc(#loc47)
    %46 = torch.operator "onnx.Constant"() {torch.onnx.value = dense_resource<_model.layers.21.post_attention_layernorm.weight> : tensor<4096xf32>} : () -> !torch.vtensor<[4096],f32> loc(#loc48)
    %47 = torch.operator "onnx.Constant"() {torch.onnx.value = dense_resource<_model.layers.22.input_layernorm.weight> : tensor<4096xf32>} : () -> !torch.vtensor<[4096],f32> loc(#loc49)
    %48 = torch.operator "onnx.Constant"() {torch.onnx.value = dense_resource<_model.layers.22.post_attention_layernorm.weight> : tensor<4096xf32>} : () -> !torch.vtensor<[4096],f32> loc(#loc50)
    %49 = torch.operator "onnx.Constant"() {torch.onnx.value = dense_resource<_model.layers.23.input_layernorm.weight> : tensor<4096xf32>} : () -> !torch.vtensor<[4096],f32> loc(#loc51)
    %50 = torch.operator "onnx.Constant"() {torch.onnx.value = dense_resource<_model.layers.23.post_attention_layernorm.weight> : tensor<4096xf32>} : () -> !torch.vtensor<[4096],f32> loc(#loc52)
    %51 = torch.operator "onnx.Constant"() {torch.onnx.value = dense_resource<_model.layers.24.input_layernorm.weight> : tensor<4096xf32>} : () -> !torch.vtensor<[4096],f32> loc(#loc53)
    %52 = torch.operator "onnx.Constant"() {torch.onnx.value = dense_resource<_model.layers.24.post_attention_layernorm.weight> : tensor<4096xf32>} : () -> !torch.vtensor<[4096],f32> loc(#loc54)
    %53 = torch.operator "onnx.Constant"() {torch.onnx.value = dense_resource<_model.layers.25.input_layernorm.weight> : tensor<4096xf32>} : () -> !torch.vtensor<[4096],f32> loc(#loc55)
    %54 = torch.operator "onnx.Constant"() {torch.onnx.value = dense_resource<_model.layers.25.post_attention_layernorm.weight> : tensor<4096xf32>} : () -> !torch.vtensor<[4096],f32> loc(#loc56)
    %55 = torch.operator "onnx.Constant"() {torch.onnx.value = dense_resource<_model.layers.26.input_layernorm.weight> : tensor<4096xf32>} : () -> !torch.vtensor<[4096],f32> loc(#loc57)
    %56 = torch.operator "onnx.Constant"() {torch.onnx.value = dense_resource<_model.layers.26.post_attention_layernorm.weight> : tensor<4096xf32>} : () -> !torch.vtensor<[4096],f32> loc(#loc58)
    %57 = torch.operator "onnx.Constant"() {torch.onnx.value = dense_resource<_model.layers.27.input_layernorm.weight> : tensor<4096xf32>} : () -> !torch.vtensor<[4096],f32> loc(#loc59)
    %58 = torch.operator "onnx.Constant"() {torch.onnx.value = dense_resource<_model.layers.27.post_attention_layernorm.weight> : tensor<4096xf32>} : () -> !torch.vtensor<[4096],f32> loc(#loc60)
    %59 = torch.operator "onnx.Constant"() {torch.onnx.value = dense_resource<_model.layers.28.input_layernorm.weight> : tensor<4096xf32>} : () -> !torch.vtensor<[4096],f32> loc(#loc61)
    %60 = torch.operator "onnx.Constant"() {torch.onnx.value = dense_resource<_model.layers.28.post_attention_layernorm.weight> : tensor<4096xf32>} : () -> !torch.vtensor<[4096],f32> loc(#loc62)
    %61 = torch.operator "onnx.Constant"() {torch.onnx.value = dense_resource<_model.layers.29.input_layernorm.weight> : tensor<4096xf32>} : () -> !torch.vtensor<[4096],f32> loc(#loc63)
    %62 = torch.operator "onnx.Constant"() {torch.onnx.value = dense_resource<_model.layers.29.post_attention_layernorm.weight> : tensor<4096xf32>} : () -> !torch.vtensor<[4096],f32> loc(#loc64)
    %63 = torch.operator "onnx.Constant"() {torch.onnx.value = dense_resource<_model.layers.30.input_layernorm.weight> : tensor<4096xf32>} : () -> !torch.vtensor<[4096],f32> loc(#loc65)
    %64 = torch.operator "onnx.Constant"() {torch.onnx.value = dense_resource<_model.layers.30.post_attention_layernorm.weight> : tensor<4096xf32>} : () -> !torch.vtensor<[4096],f32> loc(#loc66)
    %65 = torch.operator "onnx.Constant"() {torch.onnx.value = dense_resource<_model.layers.31.input_layernorm.weight> : tensor<4096xf32>} : () -> !torch.vtensor<[4096],f32> loc(#loc67)
    %66 = torch.operator "onnx.Constant"() {torch.onnx.value = dense_resource<_model.layers.31.post_attention_layernorm.weight> : tensor<4096xf32>} : () -> !torch.vtensor<[4096],f32> loc(#loc68)
    %67 = torch.operator "onnx.Constant"() {torch.onnx.value = dense_resource<_model.norm.weight> : tensor<4096xf32>} : () -> !torch.vtensor<[4096],f32> loc(#loc69)
    %68 = torch.operator "onnx.Constant"() {torch.onnx.value = dense_resource<_onnx__MatMul_5237> : tensor<4096x4096xf32>} : () -> !torch.vtensor<[4096,4096],f32> loc(#loc70)
    %69 = torch.operator "onnx.Constant"() {torch.onnx.value = dense_resource<_onnx__MatMul_5238> : tensor<4096x4096xf32>} : () -> !torch.vtensor<[4096,4096],f32> loc(#loc71)
    %70 = torch.operator "onnx.Constant"() {torch.onnx.value = dense_resource<_onnx__MatMul_5239> : tensor<4096x4096xf32>} : () -> !torch.vtensor<[4096,4096],f32> loc(#loc72)
    %71 = torch.operator "onnx.Constant"() {torch.onnx.value = dense_resource<_onnx__MatMul_5275> : tensor<4096x4096xf32>} : () -> !torch.vtensor<[4096,4096],f32> loc(#loc73)
    %72 = torch.operator "onnx.Constant"() {torch.onnx.value = dense_resource<_onnx__MatMul_5276> : tensor<4096x11008xf32>} : () -> !torch.vtensor<[4096,11008],f32> loc(#loc74)
    %73 = torch.operator "onnx.Constant"() {torch.onnx.value = dense_resource<_onnx__MatMul_5277> : tensor<4096x11008xf32>} : () -> !torch.vtensor<[4096,11008],f32> loc(#loc75)
    %74 = torch.operator "onnx.Constant"() {torch.onnx.value = dense_resource<_onnx__MatMul_5278> : tensor<11008x4096xf32>} : () -> !torch.vtensor<[11008,4096],f32> loc(#loc76)
    %75 = torch.operator "onnx.Constant"() {torch.onnx.value = dense_resource<_onnx__MatMul_5279> : tensor<4096x4096xf32>} : () -> !torch.vtensor<[4096,4096],f32> loc(#loc77)
    %76 = torch.operator "onnx.Constant"() {torch.onnx.value = dense_resource<_onnx__MatMul_5280> : tensor<4096x4096xf32>} : () -> !torch.vtensor<[4096,4096],f32> loc(#loc78)
    %77 = torch.operator "onnx.Constant"() {torch.onnx.value = dense_resource<_onnx__MatMul_5281> : tensor<4096x4096xf32>} : () -> !torch.vtensor<[4096,4096],f32> loc(#loc79)
    %78 = torch.operator "onnx.Constant"() {torch.onnx.value = dense_resource<_onnx__MatMul_5317> : tensor<4096x4096xf32>} : () -> !torch.vtensor<[4096,4096],f32> loc(#loc80)
    %79 = torch.operator "onnx.Constant"() {torch.onnx.value = dense_resource<_onnx__MatMul_5318> : tensor<4096x11008xf32>} : () -> !torch.vtensor<[4096,11008],f32> loc(#loc81)
    %80 = torch.operator "onnx.Constant"() {torch.onnx.value = dense_resource<_onnx__MatMul_5319> : tensor<4096x11008xf32>} : () -> !torch.vtensor<[4096,11008],f32> loc(#loc82)
    %81 = torch.operator "onnx.Constant"() {torch.onnx.value = dense_resource<_onnx__MatMul_5320> : tensor<11008x4096xf32>} : () -> !torch.vtensor<[11008,4096],f32> loc(#loc83)
    %82 = torch.operator "onnx.Constant"() {torch.onnx.value = dense_resource<_onnx__MatMul_5321> : tensor<4096x4096xf32>} : () -> !torch.vtensor<[4096,4096],f32> loc(#loc84)
    %83 = torch.operator "onnx.Constant"() {torch.onnx.value = dense_resource<_onnx__MatMul_5322> : tensor<4096x4096xf32>} : () -> !torch.vtensor<[4096,4096],f32> loc(#loc85)
    %84 = torch.operator "onnx.Constant"() {torch.onnx.value = dense_resource<_onnx__MatMul_5323> : tensor<4096x4096xf32>} : () -> !torch.vtensor<[4096,4096],f32> loc(#loc86)
    %85 = torch.operator "onnx.Constant"() {torch.onnx.value = dense_resource<_onnx__MatMul_5359> : tensor<4096x4096xf32>} : () -> !torch.vtensor<[4096,4096],f32> loc(#loc87)
    %86 = torch.operator "onnx.Constant"() {torch.onnx.value = dense_resource<_onnx__MatMul_5360> : tensor<4096x11008xf32>} : () -> !torch.vtensor<[4096,11008],f32> loc(#loc88)
    %87 = torch.operator "onnx.Constant"() {torch.onnx.value = dense_resource<_onnx__MatMul_5361> : tensor<4096x11008xf32>} : () -> !torch.vtensor<[4096,11008],f32> loc(#loc89)
    %88 = torch.operator "onnx.Constant"() {torch.onnx.value = dense_resource<_onnx__MatMul_5362> : tensor<11008x4096xf32>} : () -> !torch.vtensor<[11008,4096],f32> loc(#loc90)
    %89 = torch.operator "onnx.Constant"() {torch.onnx.value = dense_resource<_onnx__MatMul_5363> : tensor<4096x4096xf32>} : () -> !torch.vtensor<[4096,4096],f32> loc(#loc91)
    %90 = torch.operator "onnx.Constant"() {torch.onnx.value = dense_resource<_onnx__MatMul_5364> : tensor<4096x4096xf32>} : () -> !torch.vtensor<[4096,4096],f32> loc(#loc92)
    %91 = torch.operator "onnx.Constant"() {torch.onnx.value = dense_resource<_onnx__MatMul_5365> : tensor<4096x4096xf32>} : () -> !torch.vtensor<[4096,4096],f32> loc(#loc93)
    %92 = torch.operator "onnx.Constant"() {torch.onnx.value = dense_resource<_onnx__MatMul_5401> : tensor<4096x4096xf32>} : () -> !torch.vtensor<[4096,4096],f32> loc(#loc94)
    %93 = torch.operator "onnx.Constant"() {torch.onnx.value = dense_resource<_onnx__MatMul_5402> : tensor<4096x11008xf32>} : () -> !torch.vtensor<[4096,11008],f32> loc(#loc95)
    %94 = torch.operator "onnx.Constant"() {torch.onnx.value = dense_resource<_onnx__MatMul_5403> : tensor<4096x11008xf32>} : () -> !torch.vtensor<[4096,11008],f32> loc(#loc96)
    %95 = torch.operator "onnx.Constant"() {torch.onnx.value = dense_resource<_onnx__MatMul_5404> : tensor<11008x4096xf32>} : () -> !torch.vtensor<[11008,4096],f32> loc(#loc97)
    %96 = torch.operator "onnx.Constant"() {torch.onnx.value = dense_resource<_onnx__MatMul_5405> : tensor<4096x4096xf32>} : () -> !torch.vtensor<[4096,4096],f32> loc(#loc98)
    %97 = torch.operator "onnx.Constant"() {torch.onnx.value = dense_resource<_onnx__MatMul_5406> : tensor<4096x4096xf32>} : () -> !torch.vtensor<[4096,4096],f32> loc(#loc99)
    %98 = torch.operator "onnx.Constant"() {torch.onnx.value = dense_resource<_onnx__MatMul_5407> : tensor<4096x4096xf32>} : () -> !torch.vtensor<[4096,4096],f32> loc(#loc100)
    %99 = torch.operator "onnx.Constant"() {torch.onnx.value = dense_resource<_onnx__MatMul_5443> : tensor<4096x4096xf32>} : () -> !torch.vtensor<[4096,4096],f32> loc(#loc101)
    %100 = torch.operator "onnx.Constant"() {torch.onnx.value = dense_resource<_onnx__MatMul_5444> : tensor<4096x11008xf32>} : () -> !torch.vtensor<[4096,11008],f32> loc(#loc102)
    %101 = torch.operator "onnx.Constant"() {torch.onnx.value = dense_resource<_onnx__MatMul_5445> : tensor<4096x11008xf32>} : () -> !torch.vtensor<[4096,11008],f32> loc(#loc103)
    %102 = torch.operator "onnx.Constant"() {torch.onnx.value = dense_resource<_onnx__MatMul_5446> : tensor<11008x4096xf32>} : () -> !torch.vtensor<[11008,4096],f32> loc(#loc104)
    %103 = torch.operator "onnx.Constant"() {torch.onnx.value = dense_resource<_onnx__MatMul_5447> : tensor<4096x4096xf32>} : () -> !torch.vtensor<[4096,4096],f32> loc(#loc105)
    %104 = torch.operator "onnx.Constant"() {torch.onnx.value = dense_resource<_onnx__MatMul_5448> : tensor<4096x4096xf32>} : () -> !torch.vtensor<[4096,4096],f32> loc(#loc106)
    %105 = torch.operator "onnx.Constant"() {torch.onnx.value = dense_resource<_onnx__MatMul_5449> : tensor<4096x4096xf32>} : () -> !torch.vtensor<[4096,4096],f32> loc(#loc107)
    %106 = torch.operator "onnx.Constant"() {torch.onnx.value = dense_resource<_onnx__MatMul_5485> : tensor<4096x4096xf32>} : () -> !torch.vtensor<[4096,4096],f32> loc(#loc108)
    %107 = torch.operator "onnx.Constant"() {torch.onnx.value = dense_resource<_onnx__MatMul_5486> : tensor<4096x11008xf32>} : () -> !torch.vtensor<[4096,11008],f32> loc(#loc109)
    %108 = torch.operator "onnx.Constant"() {torch.onnx.value = dense_resource<_onnx__MatMul_5487> : tensor<4096x11008xf32>} : () -> !torch.vtensor<[4096,11008],f32> loc(#loc110)
    %109 = torch.operator "onnx.Constant"() {torch.onnx.value = dense_resource<_onnx__MatMul_5488> : tensor<11008x4096xf32>} : () -> !torch.vtensor<[11008,4096],f32> loc(#loc111)
    %110 = torch.operator "onnx.Constant"() {torch.onnx.value = dense_resource<_onnx__MatMul_5489> : tensor<4096x4096xf32>} : () -> !torch.vtensor<[4096,4096],f32> loc(#loc112)
    %111 = torch.operator "onnx.Constant"() {torch.onnx.value = dense_resource<_onnx__MatMul_5490> : tensor<4096x4096xf32>} : () -> !torch.vtensor<[4096,4096],f32> loc(#loc113)
    %112 = torch.operator "onnx.Constant"() {torch.onnx.value = dense_resource<_onnx__MatMul_5491> : tensor<4096x4096xf32>} : () -> !torch.vtensor<[4096,4096],f32> loc(#loc114)
    %113 = torch.operator "onnx.Constant"() {torch.onnx.value = dense_resource<_onnx__MatMul_5527> : tensor<4096x4096xf32>} : () -> !torch.vtensor<[4096,4096],f32> loc(#loc115)
    %114 = torch.operator "onnx.Constant"() {torch.onnx.value = dense_resource<_onnx__MatMul_5528> : tensor<4096x11008xf32>} : () -> !torch.vtensor<[4096,11008],f32> loc(#loc116)
    %115 = torch.operator "onnx.Constant"() {torch.onnx.value = dense_resource<_onnx__MatMul_5529> : tensor<4096x11008xf32>} : () -> !torch.vtensor<[4096,11008],f32> loc(#loc117)
    %116 = torch.operator "onnx.Constant"() {torch.onnx.value = dense_resource<_onnx__MatMul_5530> : tensor<11008x4096xf32>} : () -> !torch.vtensor<[11008,4096],f32> loc(#loc118)
    %117 = torch.operator "onnx.Constant"() {torch.onnx.value = dense_resource<_onnx__MatMul_5531> : tensor<4096x4096xf32>} : () -> !torch.vtensor<[4096,4096],f32> loc(#loc119)
    %118 = torch.operator "onnx.Constant"() {torch.onnx.value = dense_resource<_onnx__MatMul_5532> : tensor<4096x4096xf32>} : () -> !torch.vtensor<[4096,4096],f32> loc(#loc120)
    %119 = torch.operator "onnx.Constant"() {torch.onnx.value = dense_resource<_onnx__MatMul_5533> : tensor<4096x4096xf32>} : () -> !torch.vtensor<[4096,4096],f32> loc(#loc121)
    %120 = torch.operator "onnx.Constant"() {torch.onnx.value = dense_resource<_onnx__MatMul_5569> : tensor<4096x4096xf32>} : () -> !torch.vtensor<[4096,4096],f32> loc(#loc122)
    %121 = torch.operator "onnx.Constant"() {torch.onnx.value = dense_resource<_onnx__MatMul_5570> : tensor<4096x11008xf32>} : () -> !torch.vtensor<[4096,11008],f32> loc(#loc123)
    %122 = torch.operator "onnx.Constant"() {torch.onnx.value = dense_resource<_onnx__MatMul_5571> : tensor<4096x11008xf32>} : () -> !torch.vtensor<[4096,11008],f32> loc(#loc124)
    %123 = torch.operator "onnx.Constant"() {torch.onnx.value = dense_resource<_onnx__MatMul_5572> : tensor<11008x4096xf32>} : () -> !torch.vtensor<[11008,4096],f32> loc(#loc125)
    %124 = torch.operator "onnx.Constant"() {torch.onnx.value = dense_resource<_onnx__MatMul_5573> : tensor<4096x4096xf32>} : () -> !torch.vtensor<[4096,4096],f32> loc(#loc126)
    %125 = torch.operator "onnx.Constant"() {torch.onnx.value = dense_resource<_onnx__MatMul_5574> : tensor<4096x4096xf32>} : () -> !torch.vtensor<[4096,4096],f32> loc(#loc127)
    %126 = torch.operator "onnx.Constant"() {torch.onnx.value = dense_resource<_onnx__MatMul_5575> : tensor<4096x4096xf32>} : () -> !torch.vtensor<[4096,4096],f32> loc(#loc128)
    %127 = torch.operator "onnx.Constant"() {torch.onnx.value = dense_resource<_onnx__MatMul_5611> : tensor<4096x4096xf32>} : () -> !torch.vtensor<[4096,4096],f32> loc(#loc129)
    %128 = torch.operator "onnx.Constant"() {torch.onnx.value = dense_resource<_onnx__MatMul_5612> : tensor<4096x11008xf32>} : () -> !torch.vtensor<[4096,11008],f32> loc(#loc130)
    %129 = torch.operator "onnx.Constant"() {torch.onnx.value = dense_resource<_onnx__MatMul_5613> : tensor<4096x11008xf32>} : () -> !torch.vtensor<[4096,11008],f32> loc(#loc131)
    %130 = torch.operator "onnx.Constant"() {torch.onnx.value = dense_resource<_onnx__MatMul_5614> : tensor<11008x4096xf32>} : () -> !torch.vtensor<[11008,4096],f32> loc(#loc132)
    %131 = torch.operator "onnx.Constant"() {torch.onnx.value = dense_resource<_onnx__MatMul_5615> : tensor<4096x4096xf32>} : () -> !torch.vtensor<[4096,4096],f32> loc(#loc133)
    %132 = torch.operator "onnx.Constant"() {torch.onnx.value = dense_resource<_onnx__MatMul_5616> : tensor<4096x4096xf32>} : () -> !torch.vtensor<[4096,4096],f32> loc(#loc134)
    %133 = torch.operator "onnx.Constant"() {torch.onnx.value = dense_resource<_onnx__MatMul_5617> : tensor<4096x4096xf32>} : () -> !torch.vtensor<[4096,4096],f32> loc(#loc135)
    %134 = torch.operator "onnx.Constant"() {torch.onnx.value = dense_resource<_onnx__MatMul_5653> : tensor<4096x4096xf32>} : () -> !torch.vtensor<[4096,4096],f32> loc(#loc136)
    %135 = torch.operator "onnx.Constant"() {torch.onnx.value = dense_resource<_onnx__MatMul_5654> : tensor<4096x11008xf32>} : () -> !torch.vtensor<[4096,11008],f32> loc(#loc137)
    %136 = torch.operator "onnx.Constant"() {torch.onnx.value = dense_resource<_onnx__MatMul_5655> : tensor<4096x11008xf32>} : () -> !torch.vtensor<[4096,11008],f32> loc(#loc138)
    %137 = torch.operator "onnx.Constant"() {torch.onnx.value = dense_resource<_onnx__MatMul_5656> : tensor<11008x4096xf32>} : () -> !torch.vtensor<[11008,4096],f32> loc(#loc139)
    %138 = torch.operator "onnx.Constant"() {torch.onnx.value = dense_resource<_onnx__MatMul_5657> : tensor<4096x4096xf32>} : () -> !torch.vtensor<[4096,4096],f32> loc(#loc140)
    %139 = torch.operator "onnx.Constant"() {torch.onnx.value = dense_resource<_onnx__MatMul_5658> : tensor<4096x4096xf32>} : () -> !torch.vtensor<[4096,4096],f32> loc(#loc141)
    %140 = torch.operator "onnx.Constant"() {torch.onnx.value = dense_resource<_onnx__MatMul_5659> : tensor<4096x4096xf32>} : () -> !torch.vtensor<[4096,4096],f32> loc(#loc142)
    %141 = torch.operator "onnx.Constant"() {torch.onnx.value = dense_resource<_onnx__MatMul_5695> : tensor<4096x4096xf32>} : () -> !torch.vtensor<[4096,4096],f32> loc(#loc143)
    %142 = torch.operator "onnx.Constant"() {torch.onnx.value = dense_resource<_onnx__MatMul_5696> : tensor<4096x11008xf32>} : () -> !torch.vtensor<[4096,11008],f32> loc(#loc144)
    %143 = torch.operator "onnx.Constant"() {torch.onnx.value = dense_resource<_onnx__MatMul_5697> : tensor<4096x11008xf32>} : () -> !torch.vtensor<[4096,11008],f32> loc(#loc145)
    %144 = torch.operator "onnx.Constant"() {torch.onnx.value = dense_resource<_onnx__MatMul_5698> : tensor<11008x4096xf32>} : () -> !torch.vtensor<[11008,4096],f32> loc(#loc146)
    %145 = torch.operator "onnx.Constant"() {torch.onnx.value = dense_resource<_onnx__MatMul_5699> : tensor<4096x4096xf32>} : () -> !torch.vtensor<[4096,4096],f32> loc(#loc147)
    %146 = torch.operator "onnx.Constant"() {torch.onnx.value = dense_resource<_onnx__MatMul_5700> : tensor<4096x4096xf32>} : () -> !torch.vtensor<[4096,4096],f32> loc(#loc148)
    %147 = torch.operator "onnx.Constant"() {torch.onnx.value = dense_resource<_onnx__MatMul_5701> : tensor<4096x4096xf32>} : () -> !torch.vtensor<[4096,4096],f32> loc(#loc149)
    %148 = torch.operator "onnx.Constant"() {torch.onnx.value = dense_resource<_onnx__MatMul_5737> : tensor<4096x4096xf32>} : () -> !torch.vtensor<[4096,4096],f32> loc(#loc150)
    %149 = torch.operator "onnx.Constant"() {torch.onnx.value = dense_resource<_onnx__MatMul_5738> : tensor<4096x11008xf32>} : () -> !torch.vtensor<[4096,11008],f32> loc(#loc151)
    %150 = torch.operator "onnx.Constant"() {torch.onnx.value = dense_resource<_onnx__MatMul_5739> : tensor<4096x11008xf32>} : () -> !torch.vtensor<[4096,11008],f32> loc(#loc152)
    %151 = torch.operator "onnx.Constant"() {torch.onnx.value = dense_resource<_onnx__MatMul_5740> : tensor<11008x4096xf32>} : () -> !torch.vtensor<[11008,4096],f32> loc(#loc153)
    %152 = torch.operator "onnx.Constant"() {torch.onnx.value = dense_resource<_onnx__MatMul_5741> : tensor<4096x4096xf32>} : () -> !torch.vtensor<[4096,4096],f32> loc(#loc154)
    %153 = torch.operator "onnx.Constant"() {torch.onnx.value = dense_resource<_onnx__MatMul_5742> : tensor<4096x4096xf32>} : () -> !torch.vtensor<[4096,4096],f32> loc(#loc155)
    %154 = torch.operator "onnx.Constant"() {torch.onnx.value = dense_resource<_onnx__MatMul_5743> : tensor<4096x4096xf32>} : () -> !torch.vtensor<[4096,4096],f32> loc(#loc156)
    %155 = torch.operator "onnx.Constant"() {torch.onnx.value = dense_resource<_onnx__MatMul_5779> : tensor<4096x4096xf32>} : () -> !torch.vtensor<[4096,4096],f32> loc(#loc157)
    %156 = torch.operator "onnx.Constant"() {torch.onnx.value = dense_resource<_onnx__MatMul_5780> : tensor<4096x11008xf32>} : () -> !torch.vtensor<[4096,11008],f32> loc(#loc158)
    %157 = torch.operator "onnx.Constant"() {torch.onnx.value = dense_resource<_onnx__MatMul_5781> : tensor<4096x11008xf32>} : () -> !torch.vtensor<[4096,11008],f32> loc(#loc159)
    %158 = torch.operator "onnx.Constant"() {torch.onnx.value = dense_resource<_onnx__MatMul_5782> : tensor<11008x4096xf32>} : () -> !torch.vtensor<[11008,4096],f32> loc(#loc160)
    %159 = torch.operator "onnx.Constant"() {torch.onnx.value = dense_resource<_onnx__MatMul_5783> : tensor<4096x4096xf32>} : () -> !torch.vtensor<[4096,4096],f32> loc(#loc161)
    %160 = torch.operator "onnx.Constant"() {torch.onnx.value = dense_resource<_onnx__MatMul_5784> : tensor<4096x4096xf32>} : () -> !torch.vtensor<[4096,4096],f32> loc(#loc162)
    %161 = torch.operator "onnx.Constant"() {torch.onnx.value = dense_resource<_onnx__MatMul_5785> : tensor<4096x4096xf32>} : () -> !torch.vtensor<[4096,4096],f32> loc(#loc163)
    %162 = torch.operator "onnx.Constant"() {torch.onnx.value = dense_resource<_onnx__MatMul_5821> : tensor<4096x4096xf32>} : () -> !torch.vtensor<[4096,4096],f32> loc(#loc164)
    %163 = torch.operator "onnx.Constant"() {torch.onnx.value = dense_resource<_onnx__MatMul_5822> : tensor<4096x11008xf32>} : () -> !torch.vtensor<[4096,11008],f32> loc(#loc165)
    %164 = torch.operator "onnx.Constant"() {torch.onnx.value = dense_resource<_onnx__MatMul_5823> : tensor<4096x11008xf32>} : () -> !torch.vtensor<[4096,11008],f32> loc(#loc166)
    %165 = torch.operator "onnx.Constant"() {torch.onnx.value = dense_resource<_onnx__MatMul_5824> : tensor<11008x4096xf32>} : () -> !torch.vtensor<[11008,4096],f32> loc(#loc167)
    %166 = torch.operator "onnx.Constant"() {torch.onnx.value = dense_resource<_onnx__MatMul_5825> : tensor<4096x4096xf32>} : () -> !torch.vtensor<[4096,4096],f32> loc(#loc168)
    %167 = torch.operator "onnx.Constant"() {torch.onnx.value = dense_resource<_onnx__MatMul_5826> : tensor<4096x4096xf32>} : () -> !torch.vtensor<[4096,4096],f32> loc(#loc169)
    %168 = torch.operator "onnx.Constant"() {torch.onnx.value = dense_resource<_onnx__MatMul_5827> : tensor<4096x4096xf32>} : () -> !torch.vtensor<[4096,4096],f32> loc(#loc170)
    %169 = torch.operator "onnx.Constant"() {torch.onnx.value = dense_resource<_onnx__MatMul_5863> : tensor<4096x4096xf32>} : () -> !torch.vtensor<[4096,4096],f32> loc(#loc171)
    %170 = torch.operator "onnx.Constant"() {torch.onnx.value = dense_resource<_onnx__MatMul_5864> : tensor<4096x11008xf32>} : () -> !torch.vtensor<[4096,11008],f32> loc(#loc172)
    %171 = torch.operator "onnx.Constant"() {torch.onnx.value = dense_resource<_onnx__MatMul_5865> : tensor<4096x11008xf32>} : () -> !torch.vtensor<[4096,11008],f32> loc(#loc173)
    %172 = torch.operator "onnx.Constant"() {torch.onnx.value = dense_resource<_onnx__MatMul_5866> : tensor<11008x4096xf32>} : () -> !torch.vtensor<[11008,4096],f32> loc(#loc174)
    %173 = torch.operator "onnx.Constant"() {torch.onnx.value = dense_resource<_onnx__MatMul_5867> : tensor<4096x4096xf32>} : () -> !torch.vtensor<[4096,4096],f32> loc(#loc175)
    %174 = torch.operator "onnx.Constant"() {torch.onnx.value = dense_resource<_onnx__MatMul_5868> : tensor<4096x4096xf32>} : () -> !torch.vtensor<[4096,4096],f32> loc(#loc176)
    %175 = torch.operator "onnx.Constant"() {torch.onnx.value = dense_resource<_onnx__MatMul_5869> : tensor<4096x4096xf32>} : () -> !torch.vtensor<[4096,4096],f32> loc(#loc177)
    %176 = torch.operator "onnx.Constant"() {torch.onnx.value = dense_resource<_onnx__MatMul_5905> : tensor<4096x4096xf32>} : () -> !torch.vtensor<[4096,4096],f32> loc(#loc178)
    %177 = torch.operator "onnx.Constant"() {torch.onnx.value = dense_resource<_onnx__MatMul_5906> : tensor<4096x11008xf32>} : () -> !torch.vtensor<[4096,11008],f32> loc(#loc179)
    %178 = torch.operator "onnx.Constant"() {torch.onnx.value = dense_resource<_onnx__MatMul_5907> : tensor<4096x11008xf32>} : () -> !torch.vtensor<[4096,11008],f32> loc(#loc180)
    %179 = torch.operator "onnx.Constant"() {torch.onnx.value = dense_resource<_onnx__MatMul_5908> : tensor<11008x4096xf32>} : () -> !torch.vtensor<[11008,4096],f32> loc(#loc181)
    %180 = torch.operator "onnx.Constant"() {torch.onnx.value = dense_resource<_onnx__MatMul_5909> : tensor<4096x4096xf32>} : () -> !torch.vtensor<[4096,4096],f32> loc(#loc182)
    %181 = torch.operator "onnx.Constant"() {torch.onnx.value = dense_resource<_onnx__MatMul_5910> : tensor<4096x4096xf32>} : () -> !torch.vtensor<[4096,4096],f32> loc(#loc183)
    %182 = torch.operator "onnx.Constant"() {torch.onnx.value = dense_resource<_onnx__MatMul_5911> : tensor<4096x4096xf32>} : () -> !torch.vtensor<[4096,4096],f32> loc(#loc184)
    %183 = torch.operator "onnx.Constant"() {torch.onnx.value = dense_resource<_onnx__MatMul_5947> : tensor<4096x4096xf32>} : () -> !torch.vtensor<[4096,4096],f32> loc(#loc185)
    %184 = torch.operator "onnx.Constant"() {torch.onnx.value = dense_resource<_onnx__MatMul_5948> : tensor<4096x11008xf32>} : () -> !torch.vtensor<[4096,11008],f32> loc(#loc186)
    %185 = torch.operator "onnx.Constant"() {torch.onnx.value = dense_resource<_onnx__MatMul_5949> : tensor<4096x11008xf32>} : () -> !torch.vtensor<[4096,11008],f32> loc(#loc187)
    %186 = torch.operator "onnx.Constant"() {torch.onnx.value = dense_resource<_onnx__MatMul_5950> : tensor<11008x4096xf32>} : () -> !torch.vtensor<[11008,4096],f32> loc(#loc188)
    %187 = torch.operator "onnx.Constant"() {torch.onnx.value = dense_resource<_onnx__MatMul_5951> : tensor<4096x4096xf32>} : () -> !torch.vtensor<[4096,4096],f32> loc(#loc189)
    %188 = torch.operator "onnx.Constant"() {torch.onnx.value = dense_resource<_onnx__MatMul_5952> : tensor<4096x4096xf32>} : () -> !torch.vtensor<[4096,4096],f32> loc(#loc190)
    %189 = torch.operator "onnx.Constant"() {torch.onnx.value = dense_resource<_onnx__MatMul_5953> : tensor<4096x4096xf32>} : () -> !torch.vtensor<[4096,4096],f32> loc(#loc191)
    %190 = torch.operator "onnx.Constant"() {torch.onnx.value = dense_resource<_onnx__MatMul_5989> : tensor<4096x4096xf32>} : () -> !torch.vtensor<[4096,4096],f32> loc(#loc192)
    %191 = torch.operator "onnx.Constant"() {torch.onnx.value = dense_resource<_onnx__MatMul_5990> : tensor<4096x11008xf32>} : () -> !torch.vtensor<[4096,11008],f32> loc(#loc193)
    %192 = torch.operator "onnx.Constant"() {torch.onnx.value = dense_resource<_onnx__MatMul_5991> : tensor<4096x11008xf32>} : () -> !torch.vtensor<[4096,11008],f32> loc(#loc194)
    %193 = torch.operator "onnx.Constant"() {torch.onnx.value = dense_resource<_onnx__MatMul_5992> : tensor<11008x4096xf32>} : () -> !torch.vtensor<[11008,4096],f32> loc(#loc195)
    %194 = torch.operator "onnx.Constant"() {torch.onnx.value = dense_resource<_onnx__MatMul_5993> : tensor<4096x4096xf32>} : () -> !torch.vtensor<[4096,4096],f32> loc(#loc196)
    %195 = torch.operator "onnx.Constant"() {torch.onnx.value = dense_resource<_onnx__MatMul_5994> : tensor<4096x4096xf32>} : () -> !torch.vtensor<[4096,4096],f32> loc(#loc197)
    %196 = torch.operator "onnx.Constant"() {torch.onnx.value = dense_resource<_onnx__MatMul_5995> : tensor<4096x4096xf32>} : () -> !torch.vtensor<[4096,4096],f32> loc(#loc198)
    %197 = torch.operator "onnx.Constant"() {torch.onnx.value = dense_resource<_onnx__MatMul_6031> : tensor<4096x4096xf32>} : () -> !torch.vtensor<[4096,4096],f32> loc(#loc199)
    %198 = torch.operator "onnx.Constant"() {torch.onnx.value = dense_resource<_onnx__MatMul_6032> : tensor<4096x11008xf32>} : () -> !torch.vtensor<[4096,11008],f32> loc(#loc200)
    %199 = torch.operator "onnx.Constant"() {torch.onnx.value = dense_resource<_onnx__MatMul_6033> : tensor<4096x11008xf32>} : () -> !torch.vtensor<[4096,11008],f32> loc(#loc201)
    %200 = torch.operator "onnx.Constant"() {torch.onnx.value = dense_resource<_onnx__MatMul_6034> : tensor<11008x4096xf32>} : () -> !torch.vtensor<[11008,4096],f32> loc(#loc202)
    %201 = torch.operator "onnx.Constant"() {torch.onnx.value = dense_resource<_onnx__MatMul_6035> : tensor<4096x4096xf32>} : () -> !torch.vtensor<[4096,4096],f32> loc(#loc203)
    %202 = torch.operator "onnx.Constant"() {torch.onnx.value = dense_resource<_onnx__MatMul_6036> : tensor<4096x4096xf32>} : () -> !torch.vtensor<[4096,4096],f32> loc(#loc204)
    %203 = torch.operator "onnx.Constant"() {torch.onnx.value = dense_resource<_onnx__MatMul_6037> : tensor<4096x4096xf32>} : () -> !torch.vtensor<[4096,4096],f32> loc(#loc205)
    %204 = torch.operator "onnx.Constant"() {torch.onnx.value = dense_resource<_onnx__MatMul_6073> : tensor<4096x4096xf32>} : () -> !torch.vtensor<[4096,4096],f32> loc(#loc206)
    %205 = torch.operator "onnx.Constant"() {torch.onnx.value = dense_resource<_onnx__MatMul_6074> : tensor<4096x11008xf32>} : () -> !torch.vtensor<[4096,11008],f32> loc(#loc207)
    %206 = torch.operator "onnx.Constant"() {torch.onnx.value = dense_resource<_onnx__MatMul_6075> : tensor<4096x11008xf32>} : () -> !torch.vtensor<[4096,11008],f32> loc(#loc208)
    %207 = torch.operator "onnx.Constant"() {torch.onnx.value = dense_resource<_onnx__MatMul_6076> : tensor<11008x4096xf32>} : () -> !torch.vtensor<[11008,4096],f32> loc(#loc209)
    %208 = torch.operator "onnx.Constant"() {torch.onnx.value = dense_resource<_onnx__MatMul_6077> : tensor<4096x4096xf32>} : () -> !torch.vtensor<[4096,4096],f32> loc(#loc210)
    %209 = torch.operator "onnx.Constant"() {torch.onnx.value = dense_resource<_onnx__MatMul_6078> : tensor<4096x4096xf32>} : () -> !torch.vtensor<[4096,4096],f32> loc(#loc211)
    %210 = torch.operator "onnx.Constant"() {torch.onnx.value = dense_resource<_onnx__MatMul_6079> : tensor<4096x4096xf32>} : () -> !torch.vtensor<[4096,4096],f32> loc(#loc212)
    %211 = torch.operator "onnx.Constant"() {torch.onnx.value = dense_resource<_onnx__MatMul_6115> : tensor<4096x4096xf32>} : () -> !torch.vtensor<[4096,4096],f32> loc(#loc213)
    %212 = torch.operator "onnx.Constant"() {torch.onnx.value = dense_resource<_onnx__MatMul_6116> : tensor<4096x11008xf32>} : () -> !torch.vtensor<[4096,11008],f32> loc(#loc214)
    %213 = torch.operator "onnx.Constant"() {torch.onnx.value = dense_resource<_onnx__MatMul_6117> : tensor<4096x11008xf32>} : () -> !torch.vtensor<[4096,11008],f32> loc(#loc215)
    %214 = torch.operator "onnx.Constant"() {torch.onnx.value = dense_resource<_onnx__MatMul_6118> : tensor<11008x4096xf32>} : () -> !torch.vtensor<[11008,4096],f32> loc(#loc216)
    %215 = torch.operator "onnx.Constant"() {torch.onnx.value = dense_resource<_onnx__MatMul_6119> : tensor<4096x4096xf32>} : () -> !torch.vtensor<[4096,4096],f32> loc(#loc217)
    %216 = torch.operator "onnx.Constant"() {torch.onnx.value = dense_resource<_onnx__MatMul_6120> : tensor<4096x4096xf32>} : () -> !torch.vtensor<[4096,4096],f32> loc(#loc218)
    %217 = torch.operator "onnx.Constant"() {torch.onnx.value = dense_resource<_onnx__MatMul_6121> : tensor<4096x4096xf32>} : () -> !torch.vtensor<[4096,4096],f32> loc(#loc219)
    %218 = torch.operator "onnx.Constant"() {torch.onnx.value = dense_resource<_onnx__MatMul_6157> : tensor<4096x4096xf32>} : () -> !torch.vtensor<[4096,4096],f32> loc(#loc220)
    %219 = torch.operator "onnx.Constant"() {torch.onnx.value = dense_resource<_onnx__MatMul_6158> : tensor<4096x11008xf32>} : () -> !torch.vtensor<[4096,11008],f32> loc(#loc221)
    %220 = torch.operator "onnx.Constant"() {torch.onnx.value = dense_resource<_onnx__MatMul_6159> : tensor<4096x11008xf32>} : () -> !torch.vtensor<[4096,11008],f32> loc(#loc222)
    %221 = torch.operator "onnx.Constant"() {torch.onnx.value = dense_resource<_onnx__MatMul_6160> : tensor<11008x4096xf32>} : () -> !torch.vtensor<[11008,4096],f32> loc(#loc223)
    %222 = torch.operator "onnx.Constant"() {torch.onnx.value = dense_resource<_onnx__MatMul_6161> : tensor<4096x4096xf32>} : () -> !torch.vtensor<[4096,4096],f32> loc(#loc224)
    %223 = torch.operator "onnx.Constant"() {torch.onnx.value = dense_resource<_onnx__MatMul_6162> : tensor<4096x4096xf32>} : () -> !torch.vtensor<[4096,4096],f32> loc(#loc225)
    %224 = torch.operator "onnx.Constant"() {torch.onnx.value = dense_resource<_onnx__MatMul_6163> : tensor<4096x4096xf32>} : () -> !torch.vtensor<[4096,4096],f32> loc(#loc226)
    %225 = torch.operator "onnx.Constant"() {torch.onnx.value = dense_resource<_onnx__MatMul_6199> : tensor<4096x4096xf32>} : () -> !torch.vtensor<[4096,4096],f32> loc(#loc227)
    %226 = torch.operator "onnx.Constant"() {torch.onnx.value = dense_resource<_onnx__MatMul_6200> : tensor<4096x11008xf32>} : () -> !torch.vtensor<[4096,11008],f32> loc(#loc228)
    %227 = torch.operator "onnx.Constant"() {torch.onnx.value = dense_resource<_onnx__MatMul_6201> : tensor<4096x11008xf32>} : () -> !torch.vtensor<[4096,11008],f32> loc(#loc229)
    %228 = torch.operator "onnx.Constant"() {torch.onnx.value = dense_resource<_onnx__MatMul_6202> : tensor<11008x4096xf32>} : () -> !torch.vtensor<[11008,4096],f32> loc(#loc230)
    %229 = torch.operator "onnx.Constant"() {torch.onnx.value = dense_resource<_onnx__MatMul_6203> : tensor<4096x4096xf32>} : () -> !torch.vtensor<[4096,4096],f32> loc(#loc231)
    %230 = torch.operator "onnx.Constant"() {torch.onnx.value = dense_resource<_onnx__MatMul_6204> : tensor<4096x4096xf32>} : () -> !torch.vtensor<[4096,4096],f32> loc(#loc232)
    %231 = torch.operator "onnx.Constant"() {torch.onnx.value = dense_resource<_onnx__MatMul_6205> : tensor<4096x4096xf32>} : () -> !torch.vtensor<[4096,4096],f32> loc(#loc233)
    %232 = torch.operator "onnx.Constant"() {torch.onnx.value = dense_resource<_onnx__MatMul_6241> : tensor<4096x4096xf32>} : () -> !torch.vtensor<[4096,4096],f32> loc(#loc234)
    %233 = torch.operator "onnx.Constant"() {torch.onnx.value = dense_resource<_onnx__MatMul_6242> : tensor<4096x11008xf32>} : () -> !torch.vtensor<[4096,11008],f32> loc(#loc235)
    %234 = torch.operator "onnx.Constant"() {torch.onnx.value = dense_resource<_onnx__MatMul_6243> : tensor<4096x11008xf32>} : () -> !torch.vtensor<[4096,11008],f32> loc(#loc236)
    %235 = torch.operator "onnx.Constant"() {torch.onnx.value = dense_resource<_onnx__MatMul_6244> : tensor<11008x4096xf32>} : () -> !torch.vtensor<[11008,4096],f32> loc(#loc237)
    %236 = torch.operator "onnx.Constant"() {torch.onnx.value = dense_resource<_onnx__MatMul_6245> : tensor<4096x4096xf32>} : () -> !torch.vtensor<[4096,4096],f32> loc(#loc238)
    %237 = torch.operator "onnx.Constant"() {torch.onnx.value = dense_resource<_onnx__MatMul_6246> : tensor<4096x4096xf32>} : () -> !torch.vtensor<[4096,4096],f32> loc(#loc239)
    %238 = torch.operator "onnx.Constant"() {torch.onnx.value = dense_resource<_onnx__MatMul_6247> : tensor<4096x4096xf32>} : () -> !torch.vtensor<[4096,4096],f32> loc(#loc240)
    %239 = torch.operator "onnx.Constant"() {torch.onnx.value = dense_resource<_onnx__MatMul_6283> : tensor<4096x4096xf32>} : () -> !torch.vtensor<[4096,4096],f32> loc(#loc241)
    %240 = torch.operator "onnx.Constant"() {torch.onnx.value = dense_resource<_onnx__MatMul_6284> : tensor<4096x11008xf32>} : () -> !torch.vtensor<[4096,11008],f32> loc(#loc242)
    %241 = torch.operator "onnx.Constant"() {torch.onnx.value = dense_resource<_onnx__MatMul_6285> : tensor<4096x11008xf32>} : () -> !torch.vtensor<[4096,11008],f32> loc(#loc243)
    %242 = torch.operator "onnx.Constant"() {torch.onnx.value = dense_resource<_onnx__MatMul_6286> : tensor<11008x4096xf32>} : () -> !torch.vtensor<[11008,4096],f32> loc(#loc244)
    %243 = torch.operator "onnx.Constant"() {torch.onnx.value = dense_resource<_onnx__MatMul_6287> : tensor<4096x4096xf32>} : () -> !torch.vtensor<[4096,4096],f32> loc(#loc245)
    %244 = torch.operator "onnx.Constant"() {torch.onnx.value = dense_resource<_onnx__MatMul_6288> : tensor<4096x4096xf32>} : () -> !torch.vtensor<[4096,4096],f32> loc(#loc246)
    %245 = torch.operator "onnx.Constant"() {torch.onnx.value = dense_resource<_onnx__MatMul_6289> : tensor<4096x4096xf32>} : () -> !torch.vtensor<[4096,4096],f32> loc(#loc247)
    %246 = torch.operator "onnx.Constant"() {torch.onnx.value = dense_resource<_onnx__MatMul_6325> : tensor<4096x4096xf32>} : () -> !torch.vtensor<[4096,4096],f32> loc(#loc248)
    %247 = torch.operator "onnx.Constant"() {torch.onnx.value = dense_resource<_onnx__MatMul_6326> : tensor<4096x11008xf32>} : () -> !torch.vtensor<[4096,11008],f32> loc(#loc249)
    %248 = torch.operator "onnx.Constant"() {torch.onnx.value = dense_resource<_onnx__MatMul_6327> : tensor<4096x11008xf32>} : () -> !torch.vtensor<[4096,11008],f32> loc(#loc250)
    %249 = torch.operator "onnx.Constant"() {torch.onnx.value = dense_resource<_onnx__MatMul_6328> : tensor<11008x4096xf32>} : () -> !torch.vtensor<[11008,4096],f32> loc(#loc251)
    %250 = torch.operator "onnx.Constant"() {torch.onnx.value = dense_resource<_onnx__MatMul_6329> : tensor<4096x4096xf32>} : () -> !torch.vtensor<[4096,4096],f32> loc(#loc252)
    %251 = torch.operator "onnx.Constant"() {torch.onnx.value = dense_resource<_onnx__MatMul_6330> : tensor<4096x4096xf32>} : () -> !torch.vtensor<[4096,4096],f32> loc(#loc253)
    %252 = torch.operator "onnx.Constant"() {torch.onnx.value = dense_resource<_onnx__MatMul_6331> : tensor<4096x4096xf32>} : () -> !torch.vtensor<[4096,4096],f32> loc(#loc254)
    %253 = torch.operator "onnx.Constant"() {torch.onnx.value = dense_resource<_onnx__MatMul_6367> : tensor<4096x4096xf32>} : () -> !torch.vtensor<[4096,4096],f32> loc(#loc255)
    %254 = torch.operator "onnx.Constant"() {torch.onnx.value = dense_resource<_onnx__MatMul_6368> : tensor<4096x11008xf32>} : () -> !torch.vtensor<[4096,11008],f32> loc(#loc256)
    %255 = torch.operator "onnx.Constant"() {torch.onnx.value = dense_resource<_onnx__MatMul_6369> : tensor<4096x11008xf32>} : () -> !torch.vtensor<[4096,11008],f32> loc(#loc257)
    %256 = torch.operator "onnx.Constant"() {torch.onnx.value = dense_resource<_onnx__MatMul_6370> : tensor<11008x4096xf32>} : () -> !torch.vtensor<[11008,4096],f32> loc(#loc258)
    %257 = torch.operator "onnx.Constant"() {torch.onnx.value = dense_resource<_onnx__MatMul_6371> : tensor<4096x4096xf32>} : () -> !torch.vtensor<[4096,4096],f32> loc(#loc259)
    %258 = torch.operator "onnx.Constant"() {torch.onnx.value = dense_resource<_onnx__MatMul_6372> : tensor<4096x4096xf32>} : () -> !torch.vtensor<[4096,4096],f32> loc(#loc260)
    %259 = torch.operator "onnx.Constant"() {torch.onnx.value = dense_resource<_onnx__MatMul_6373> : tensor<4096x4096xf32>} : () -> !torch.vtensor<[4096,4096],f32> loc(#loc261)
    %260 = torch.operator "onnx.Constant"() {torch.onnx.value = dense_resource<_onnx__MatMul_6409> : tensor<4096x4096xf32>} : () -> !torch.vtensor<[4096,4096],f32> loc(#loc262)
    %261 = torch.operator "onnx.Constant"() {torch.onnx.value = dense_resource<_onnx__MatMul_6410> : tensor<4096x11008xf32>} : () -> !torch.vtensor<[4096,11008],f32> loc(#loc263)
    %262 = torch.operator "onnx.Constant"() {torch.onnx.value = dense_resource<_onnx__MatMul_6411> : tensor<4096x11008xf32>} : () -> !torch.vtensor<[4096,11008],f32> loc(#loc264)
    %263 = torch.operator "onnx.Constant"() {torch.onnx.value = dense_resource<_onnx__MatMul_6412> : tensor<11008x4096xf32>} : () -> !torch.vtensor<[11008,4096],f32> loc(#loc265)
    %264 = torch.operator "onnx.Constant"() {torch.onnx.value = dense_resource<_onnx__MatMul_6413> : tensor<4096x4096xf32>} : () -> !torch.vtensor<[4096,4096],f32> loc(#loc266)
    %265 = torch.operator "onnx.Constant"() {torch.onnx.value = dense_resource<_onnx__MatMul_6414> : tensor<4096x4096xf32>} : () -> !torch.vtensor<[4096,4096],f32> loc(#loc267)
    %266 = torch.operator "onnx.Constant"() {torch.onnx.value = dense_resource<_onnx__MatMul_6415> : tensor<4096x4096xf32>} : () -> !torch.vtensor<[4096,4096],f32> loc(#loc268)
    %267 = torch.operator "onnx.Constant"() {torch.onnx.value = dense_resource<_onnx__MatMul_6451> : tensor<4096x4096xf32>} : () -> !torch.vtensor<[4096,4096],f32> loc(#loc269)
    %268 = torch.operator "onnx.Constant"() {torch.onnx.value = dense_resource<_onnx__MatMul_6452> : tensor<4096x11008xf32>} : () -> !torch.vtensor<[4096,11008],f32> loc(#loc270)
    %269 = torch.operator "onnx.Constant"() {torch.onnx.value = dense_resource<_onnx__MatMul_6453> : tensor<4096x11008xf32>} : () -> !torch.vtensor<[4096,11008],f32> loc(#loc271)
    %270 = torch.operator "onnx.Constant"() {torch.onnx.value = dense_resource<_onnx__MatMul_6454> : tensor<11008x4096xf32>} : () -> !torch.vtensor<[11008,4096],f32> loc(#loc272)
    %271 = torch.operator "onnx.Constant"() {torch.onnx.value = dense_resource<_onnx__MatMul_6455> : tensor<4096x4096xf32>} : () -> !torch.vtensor<[4096,4096],f32> loc(#loc273)
    %272 = torch.operator "onnx.Constant"() {torch.onnx.value = dense_resource<_onnx__MatMul_6456> : tensor<4096x4096xf32>} : () -> !torch.vtensor<[4096,4096],f32> loc(#loc274)
    %273 = torch.operator "onnx.Constant"() {torch.onnx.value = dense_resource<_onnx__MatMul_6457> : tensor<4096x4096xf32>} : () -> !torch.vtensor<[4096,4096],f32> loc(#loc275)
    %274 = torch.operator "onnx.Constant"() {torch.onnx.value = dense_resource<_onnx__MatMul_6493> : tensor<4096x4096xf32>} : () -> !torch.vtensor<[4096,4096],f32> loc(#loc276)
    %275 = torch.operator "onnx.Constant"() {torch.onnx.value = dense_resource<_onnx__MatMul_6494> : tensor<4096x11008xf32>} : () -> !torch.vtensor<[4096,11008],f32> loc(#loc277)
    %276 = torch.operator "onnx.Constant"() {torch.onnx.value = dense_resource<_onnx__MatMul_6495> : tensor<4096x11008xf32>} : () -> !torch.vtensor<[4096,11008],f32> loc(#loc278)
    %277 = torch.operator "onnx.Constant"() {torch.onnx.value = dense_resource<_onnx__MatMul_6496> : tensor<11008x4096xf32>} : () -> !torch.vtensor<[11008,4096],f32> loc(#loc279)
    %278 = torch.operator "onnx.Constant"() {torch.onnx.value = dense_resource<_onnx__MatMul_6497> : tensor<4096x4096xf32>} : () -> !torch.vtensor<[4096,4096],f32> loc(#loc280)
    %279 = torch.operator "onnx.Constant"() {torch.onnx.value = dense_resource<_onnx__MatMul_6498> : tensor<4096x4096xf32>} : () -> !torch.vtensor<[4096,4096],f32> loc(#loc281)
    %280 = torch.operator "onnx.Constant"() {torch.onnx.value = dense_resource<_onnx__MatMul_6499> : tensor<4096x4096xf32>} : () -> !torch.vtensor<[4096,4096],f32> loc(#loc282)
    %281 = torch.operator "onnx.Constant"() {torch.onnx.value = dense_resource<_onnx__MatMul_6535> : tensor<4096x4096xf32>} : () -> !torch.vtensor<[4096,4096],f32> loc(#loc283)
    %282 = torch.operator "onnx.Constant"() {torch.onnx.value = dense_resource<_onnx__MatMul_6536> : tensor<4096x11008xf32>} : () -> !torch.vtensor<[4096,11008],f32> loc(#loc284)
    %283 = torch.operator "onnx.Constant"() {torch.onnx.value = dense_resource<_onnx__MatMul_6537> : tensor<4096x11008xf32>} : () -> !torch.vtensor<[4096,11008],f32> loc(#loc285)
    %284 = torch.operator "onnx.Constant"() {torch.onnx.value = dense_resource<_onnx__MatMul_6538> : tensor<11008x4096xf32>} : () -> !torch.vtensor<[11008,4096],f32> loc(#loc286)
    %285 = torch.operator "onnx.Constant"() {torch.onnx.value = dense_resource<_onnx__MatMul_6539> : tensor<4096x4096xf32>} : () -> !torch.vtensor<[4096,4096],f32> loc(#loc287)
    %286 = torch.operator "onnx.Constant"() {torch.onnx.value = dense_resource<_onnx__MatMul_6540> : tensor<4096x4096xf32>} : () -> !torch.vtensor<[4096,4096],f32> loc(#loc288)
    %287 = torch.operator "onnx.Constant"() {torch.onnx.value = dense_resource<_onnx__MatMul_6541> : tensor<4096x4096xf32>} : () -> !torch.vtensor<[4096,4096],f32> loc(#loc289)
    %288 = torch.operator "onnx.Constant"() {torch.onnx.value = dense_resource<_onnx__MatMul_6577> : tensor<4096x4096xf32>} : () -> !torch.vtensor<[4096,4096],f32> loc(#loc290)
    %289 = torch.operator "onnx.Constant"() {torch.onnx.value = dense_resource<_onnx__MatMul_6578> : tensor<4096x11008xf32>} : () -> !torch.vtensor<[4096,11008],f32> loc(#loc291)
    %290 = torch.operator "onnx.Constant"() {torch.onnx.value = dense_resource<_onnx__MatMul_6579> : tensor<4096x11008xf32>} : () -> !torch.vtensor<[4096,11008],f32> loc(#loc292)
    %291 = torch.operator "onnx.Constant"() {torch.onnx.value = dense_resource<_onnx__MatMul_6580> : tensor<11008x4096xf32>} : () -> !torch.vtensor<[11008,4096],f32> loc(#loc293)
    %292 = torch.operator "onnx.Constant"() {torch.onnx.value = dense_resource<_onnx__MatMul_6581> : tensor<4096x32000xf32>} : () -> !torch.vtensor<[4096,32000],f32> loc(#loc294)
    %293 = torch.operator "onnx.Constant"() {torch.onnx.value = dense_resource<__model_Constant_attr__value> : tensor<1x8xsi64>} : () -> !torch.vtensor<[1,8],si64> loc(#loc295)
    %294 = torch.operator "onnx.Gather"(%2, %0) : (!torch.vtensor<[32000,4096],f32>, !torch.vtensor<[1,8],si64>) -> !torch.vtensor<[1,8,4096],f32> loc(#loc296)
    %295 = torch.operator "onnx.Constant"() {torch.onnx.value = dense_resource<__model_Constant_1_attr__value> : tensor<1x1x8x8xf32>} : () -> !torch.vtensor<[1,1,8,8],f32> loc(#loc297)
    %296 = torch.operator "onnx.Constant"() {torch.onnx.value = dense_resource<__model_Constant_2_attr__value> : tensor<4xsi64>} : () -> !torch.vtensor<[4],si64> loc(#loc298)
    %297 = torch.operator "onnx.Constant"() {torch.onnx.value = dense_resource<__model_Constant_3_attr__value> : tensor<1xsi64>} : () -> !torch.vtensor<[1],si64> loc(#loc299)
    %298 = torch.operator "onnx.Constant"() {torch.onnx.value = dense_resource<__model_Constant_4_attr__value> : tensor<si64>} : () -> !torch.vtensor<[],si64> loc(#loc300)
    %299 = torch.operator "onnx.Mul"(%1, %298) : (!torch.vtensor<[4],si64>, !torch.vtensor<[],si64>) -> !torch.vtensor<[4],si64> loc(#loc301)
    %300 = torch.operator "onnx.Equal"(%296, %299) : (!torch.vtensor<[4],si64>, !torch.vtensor<[4],si64>) -> !torch.vtensor<[4],i1> loc(#loc302)
    %301 = torch.operator "onnx.Where"(%300, %1, %296) : (!torch.vtensor<[4],i1>, !torch.vtensor<[4],si64>, !torch.vtensor<[4],si64>) -> !torch.vtensor<[4],si64> loc(#loc303)
    %302 = torch.operator "onnx.Expand"(%295, %301) : (!torch.vtensor<[1,1,8,8],f32>, !torch.vtensor<[4],si64>) -> !torch.vtensor<[?,?,8,8],f32> loc(#loc304)
    %303 = torch.operator "onnx.Cast"(%294) {torch.onnx.to = 1 : si64} : (!torch.vtensor<[1,8,4096],f32>) -> !torch.vtensor<[1,8,4096],f32> loc(#loc305)
    %304 = torch.operator "onnx.Constant"() {torch.onnx.value = dense_resource<__model_layers.0_input_layernorm_Constant_attr__value> : tensor<f32>} : () -> !torch.vtensor<[],f32> loc(#loc306)
    %305 = torch.operator "onnx.Pow"(%303, %304) : (!torch.vtensor<[1,8,4096],f32>, !torch.vtensor<[],f32>) -> !torch.vtensor<[1,8,4096],f32> loc(#loc307)
    %306 = torch.operator "onnx.ReduceMean"(%305) {torch.onnx.axes = [-1 : si64], torch.onnx.keepdims = 1 : si64} : (!torch.vtensor<[1,8,4096],f32>) -> !torch.vtensor<[1,8,1],f32> loc(#loc308)
    %307 = torch.operator "onnx.Constant"() {torch.onnx.value = dense_resource<__model_layers.0_input_layernorm_Constant_1_attr__value> : tensor<f32>} : () -> !torch.vtensor<[],f32> loc(#loc309)
    %308 = torch.operator "onnx.Add"(%306, %307) : (!torch.vtensor<[1,8,1],f32>, !torch.vtensor<[],f32>) -> !torch.vtensor<[1,8,1],f32> loc(#loc310)
    %309 = torch.operator "onnx.Sqrt"(%308) : (!torch.vtensor<[1,8,1],f32>) -> !torch.vtensor<[1,8,1],f32> loc(#loc311)
    %310 = torch.operator "onnx.Constant"() {torch.onnx.value = dense_resource<__model_layers.0_input_layernorm_Constant_2_attr__value> : tensor<f32>} : () -> !torch.vtensor<[],f32> loc(#loc312)
    %311 = torch.operator "onnx.Div"(%310, %309) : (!torch.vtensor<[],f32>, !torch.vtensor<[1,8,1],f32>) -> !torch.vtensor<[1,8,1],f32> loc(#loc313)
    %312 = torch.operator "onnx.Mul"(%303, %311) : (!torch.vtensor<[1,8,4096],f32>, !torch.vtensor<[1,8,1],f32>) -> !torch.vtensor<[1,8,4096],f32> loc(#loc314)
    %313 = torch.operator "onnx.Cast"(%312) {torch.onnx.to = 1 : si64} : (!torch.vtensor<[1,8,4096],f32>) -> !torch.vtensor<[1,8,4096],f32> loc(#loc315)
    %314 = torch.operator "onnx.Mul"(%3, %313) : (!torch.vtensor<[4096],f32>, !torch.vtensor<[1,8,4096],f32>) -> !torch.vtensor<[1,8,4096],f32> loc(#loc316)
    %315 = torch.operator "onnx.MatMul"(%314, %68) : (!torch.vtensor<[1,8,4096],f32>, !torch.vtensor<[4096,4096],f32>) -> !torch.vtensor<[1,8,4096],f32> loc(#loc317)
    %316 = torch.operator "onnx.MatMul"(%314, %69) : (!torch.vtensor<[1,8,4096],f32>, !torch.vtensor<[4096,4096],f32>) -> !torch.vtensor<[1,8,4096],f32> loc(#loc318)
    %317 = torch.operator "onnx.MatMul"(%314, %70) : (!torch.vtensor<[1,8,4096],f32>, !torch.vtensor<[4096,4096],f32>) -> !torch.vtensor<[1,8,4096],f32> loc(#loc319)
    %318 = torch.operator "onnx.Constant"() {torch.onnx.value = dense_resource<__model_layers.0_self_attn_Constant_attr__value> : tensor<4xsi64>} : () -> !torch.vtensor<[4],si64> loc(#loc320)
    %319 = torch.operator "onnx.Constant"() {torch.onnx.value = dense_resource<__model_layers.0_self_attn_Constant_1_attr__value> : tensor<4xsi64>} : () -> !torch.vtensor<[4],si64> loc(#loc321)
    %320 = torch.operator "onnx.Constant"() {torch.onnx.value = dense_resource<__model_layers.0_self_attn_Constant_2_attr__value> : tensor<4xsi64>} : () -> !torch.vtensor<[4],si64> loc(#loc322)
    %321 = torch.operator "onnx.Reshape"(%315, %318) {torch.onnx.allowzero = 0 : si64} : (!torch.vtensor<[1,8,4096],f32>, !torch.vtensor<[4],si64>) -> !torch.vtensor<[1,8,32,128],f32> loc(#loc323)
    %322 = torch.operator "onnx.Transpose"(%321) {torch.onnx.perm = [0 : si64, 2 : si64, 1 : si64, 3 : si64]} : (!torch.vtensor<[1,8,32,128],f32>) -> !torch.vtensor<[1,32,8,128],f32> loc(#loc324)
    %323 = torch.operator "onnx.Reshape"(%316, %319) {torch.onnx.allowzero = 0 : si64} : (!torch.vtensor<[1,8,4096],f32>, !torch.vtensor<[4],si64>) -> !torch.vtensor<[1,8,32,128],f32> loc(#loc325)
    %324 = torch.operator "onnx.Transpose"(%323) {torch.onnx.perm = [0 : si64, 2 : si64, 1 : si64, 3 : si64]} : (!torch.vtensor<[1,8,32,128],f32>) -> !torch.vtensor<[1,32,8,128],f32> loc(#loc326)
    %325 = torch.operator "onnx.Reshape"(%317, %320) {torch.onnx.allowzero = 0 : si64} : (!torch.vtensor<[1,8,4096],f32>, !torch.vtensor<[4],si64>) -> !torch.vtensor<[1,8,32,128],f32> loc(#loc327)
    %326 = torch.operator "onnx.Transpose"(%325) {torch.onnx.perm = [0 : si64, 2 : si64, 1 : si64, 3 : si64]} : (!torch.vtensor<[1,8,32,128],f32>) -> !torch.vtensor<[1,32,8,128],f32> loc(#loc328)
    %327 = torch_c.to_builtin_tensor %326 : !torch.vtensor<[1,32,8,128],f32> -> tensor<1x32x8x128xf32> loc(#loc329)
    %328 = torch.operator "onnx.Constant"() {torch.onnx.value = dense_resource<__model_layers.0_self_attn_rotary_emb_Constant_attr__value> : tensor<8x128xf32>} : () -> !torch.vtensor<[8,128],f32> loc(#loc330)
    %329 = torch.operator "onnx.Constant"() {torch.onnx.value = dense_resource<__model_layers.0_self_attn_rotary_emb_Constant_1_attr__value> : tensor<8x128xf32>} : () -> !torch.vtensor<[8,128],f32> loc(#loc331)
    %330 = torch.operator "onnx.Gather"(%328, %293) {torch.onnx.axis = 0 : si64} : (!torch.vtensor<[8,128],f32>, !torch.vtensor<[1,8],si64>) -> !torch.vtensor<[1,8,128],f32> loc(#loc332)
    %331 = torch.operator "onnx.Constant"() {torch.onnx.value = dense_resource<__model_layers.0_self_attn_Constant_3_attr__value> : tensor<1xsi64>} : () -> !torch.vtensor<[1],si64> loc(#loc333)
    %332 = torch.operator "onnx.Unsqueeze"(%330, %331) : (!torch.vtensor<[1,8,128],f32>, !torch.vtensor<[1],si64>) -> !torch.vtensor<[1,1,8,128],f32> loc(#loc334)
    %333 = torch.operator "onnx.Gather"(%329, %293) {torch.onnx.axis = 0 : si64} : (!torch.vtensor<[8,128],f32>, !torch.vtensor<[1,8],si64>) -> !torch.vtensor<[1,8,128],f32> loc(#loc335)
    %334 = torch.operator "onnx.Constant"() {torch.onnx.value = dense_resource<__model_layers.0_self_attn_Constant_4_attr__value> : tensor<1xsi64>} : () -> !torch.vtensor<[1],si64> loc(#loc336)
    %335 = torch.operator "onnx.Unsqueeze"(%333, %334) : (!torch.vtensor<[1,8,128],f32>, !torch.vtensor<[1],si64>) -> !torch.vtensor<[1,1,8,128],f32> loc(#loc337)
    %336 = torch.operator "onnx.Mul"(%322, %332) : (!torch.vtensor<[1,32,8,128],f32>, !torch.vtensor<[1,1,8,128],f32>) -> !torch.vtensor<[1,32,8,128],f32> loc(#loc338)
    %337 = torch.operator "onnx.Constant"() {torch.onnx.value = dense_resource<__model_layers.0_self_attn_Constant_5_attr__value> : tensor<1xsi64>} : () -> !torch.vtensor<[1],si64> loc(#loc339)
    %338 = torch.operator "onnx.Constant"() {torch.onnx.value = dense_resource<__model_layers.0_self_attn_Constant_6_attr__value> : tensor<1xsi64>} : () -> !torch.vtensor<[1],si64> loc(#loc340)
    %339 = torch.operator "onnx.Constant"() {torch.onnx.value = dense_resource<__model_layers.0_self_attn_Constant_7_attr__value> : tensor<1xsi64>} : () -> !torch.vtensor<[1],si64> loc(#loc341)
    %340 = torch.operator "onnx.Constant"() {torch.onnx.value = dense_resource<__model_layers.0_self_attn_Constant_8_attr__value> : tensor<1xsi64>} : () -> !torch.vtensor<[1],si64> loc(#loc342)
    %341 = torch.operator "onnx.Slice"(%322, %338, %339, %337, %340) : (!torch.vtensor<[1,32,8,128],f32>, !torch.vtensor<[1],si64>, !torch.vtensor<[1],si64>, !torch.vtensor<[1],si64>, !torch.vtensor<[1],si64>) -> !torch.vtensor<[1,32,8,64],f32> loc(#loc343)
    %342 = torch.operator "onnx.Constant"() {torch.onnx.value = dense_resource<__model_layers.0_self_attn_Constant_9_attr__value> : tensor<1xsi64>} : () -> !torch.vtensor<[1],si64> loc(#loc344)
    %343 = torch.operator "onnx.Constant"() {torch.onnx.value = dense_resource<__model_layers.0_self_attn_Constant_10_attr__value> : tensor<1xsi64>} : () -> !torch.vtensor<[1],si64> loc(#loc345)
    %344 = torch.operator "onnx.Constant"() {torch.onnx.value = dense_resource<__model_layers.0_self_attn_Constant_11_attr__value> : tensor<1xsi64>} : () -> !torch.vtensor<[1],si64> loc(#loc346)
    %345 = torch.operator "onnx.Constant"() {torch.onnx.value = dense_resource<__model_layers.0_self_attn_Constant_12_attr__value> : tensor<1xsi64>} : () -> !torch.vtensor<[1],si64> loc(#loc347)
    %346 = torch.operator "onnx.Slice"(%322, %343, %344, %342, %345) : (!torch.vtensor<[1,32,8,128],f32>, !torch.vtensor<[1],si64>, !torch.vtensor<[1],si64>, !torch.vtensor<[1],si64>, !torch.vtensor<[1],si64>) -> !torch.vtensor<[1,32,8,64],f32> loc(#loc348)
    %347 = torch.operator "onnx.Neg"(%346) : (!torch.vtensor<[1,32,8,64],f32>) -> !torch.vtensor<[1,32,8,64],f32> loc(#loc349)
    %348 = torch.operator "onnx.Concat"(%347, %341) {torch.onnx.axis = -1 : si64} : (!torch.vtensor<[1,32,8,64],f32>, !torch.vtensor<[1,32,8,64],f32>) -> !torch.vtensor<[1,32,8,128],f32> loc(#loc350)
    %349 = torch.operator "onnx.Mul"(%348, %335) : (!torch.vtensor<[1,32,8,128],f32>, !torch.vtensor<[1,1,8,128],f32>) -> !torch.vtensor<[1,32,8,128],f32> loc(#loc351)
    %350 = torch.operator "onnx.Add"(%336, %349) : (!torch.vtensor<[1,32,8,128],f32>, !torch.vtensor<[1,32,8,128],f32>) -> !torch.vtensor<[1,32,8,128],f32> loc(#loc352)
    %351 = torch.operator "onnx.Mul"(%324, %332) : (!torch.vtensor<[1,32,8,128],f32>, !torch.vtensor<[1,1,8,128],f32>) -> !torch.vtensor<[1,32,8,128],f32> loc(#loc353)
    %352 = torch.operator "onnx.Constant"() {torch.onnx.value = dense_resource<__model_layers.0_self_attn_Constant_13_attr__value> : tensor<1xsi64>} : () -> !torch.vtensor<[1],si64> loc(#loc354)
    %353 = torch.operator "onnx.Constant"() {torch.onnx.value = dense_resource<__model_layers.0_self_attn_Constant_14_attr__value> : tensor<1xsi64>} : () -> !torch.vtensor<[1],si64> loc(#loc355)
    %354 = torch.operator "onnx.Constant"() {torch.onnx.value = dense_resource<__model_layers.0_self_attn_Constant_15_attr__value> : tensor<1xsi64>} : () -> !torch.vtensor<[1],si64> loc(#loc356)
    %355 = torch.operator "onnx.Constant"() {torch.onnx.value = dense_resource<__model_layers.0_self_attn_Constant_16_attr__value> : tensor<1xsi64>} : () -> !torch.vtensor<[1],si64> loc(#loc357)
    %356 = torch.operator "onnx.Slice"(%324, %353, %354, %352, %355) : (!torch.vtensor<[1,32,8,128],f32>, !torch.vtensor<[1],si64>, !torch.vtensor<[1],si64>, !torch.vtensor<[1],si64>, !torch.vtensor<[1],si64>) -> !torch.vtensor<[1,32,8,64],f32> loc(#loc358)
    %357 = torch.operator "onnx.Constant"() {torch.onnx.value = dense_resource<__model_layers.0_self_attn_Constant_17_attr__value> : tensor<1xsi64>} : () -> !torch.vtensor<[1],si64> loc(#loc359)
    %358 = torch.operator "onnx.Constant"() {torch.onnx.value = dense_resource<__model_layers.0_self_attn_Constant_18_attr__value> : tensor<1xsi64>} : () -> !torch.vtensor<[1],si64> loc(#loc360)
    %359 = torch.operator "onnx.Constant"() {torch.onnx.value = dense_resource<__model_layers.0_self_attn_Constant_19_attr__value> : tensor<1xsi64>} : () -> !torch.vtensor<[1],si64> loc(#loc361)
    %360 = torch.operator "onnx.Constant"() {torch.onnx.value = dense_resource<__model_layers.0_self_attn_Constant_20_attr__value> : tensor<1xsi64>} : () -> !torch.vtensor<[1],si64> loc(#loc362)
    %361 = torch.operator "onnx.Slice"(%324, %358, %359, %357, %360) : (!torch.vtensor<[1,32,8,128],f32>, !torch.vtensor<[1],si64>, !torch.vtensor<[1],si64>, !torch.vtensor<[1],si64>, !torch.vtensor<[1],si64>) -> !torch.vtensor<[1,32,8,64],f32> loc(#loc363)
    %362 = torch.operator "onnx.Neg"(%361) : (!torch.vtensor<[1,32,8,64],f32>) -> !torch.vtensor<[1,32,8,64],f32> loc(#loc364)
    %363 = torch.operator "onnx.Concat"(%362, %356) {torch.onnx.axis = -1 : si64} : (!torch.vtensor<[1,32,8,64],f32>, !torch.vtensor<[1,32,8,64],f32>) -> !torch.vtensor<[1,32,8,128],f32> loc(#loc365)
    %364 = torch.operator "onnx.Mul"(%363, %335) : (!torch.vtensor<[1,32,8,128],f32>, !torch.vtensor<[1,1,8,128],f32>) -> !torch.vtensor<[1,32,8,128],f32> loc(#loc366)
    %365 = torch.operator "onnx.Add"(%351, %364) : (!torch.vtensor<[1,32,8,128],f32>, !torch.vtensor<[1,32,8,128],f32>) -> !torch.vtensor<[1,32,8,128],f32> loc(#loc367)
    %366 = torch_c.to_builtin_tensor %365 : !torch.vtensor<[1,32,8,128],f32> -> tensor<1x32x8x128xf32> loc(#loc329)
    %367 = torch.operator "onnx.Transpose"(%365) {torch.onnx.perm = [0 : si64, 1 : si64, 3 : si64, 2 : si64]} : (!torch.vtensor<[1,32,8,128],f32>) -> !torch.vtensor<[1,32,128,8],f32> loc(#loc368)
    %368 = torch.operator "onnx.MatMul"(%350, %367) : (!torch.vtensor<[1,32,8,128],f32>, !torch.vtensor<[1,32,128,8],f32>) -> !torch.vtensor<[1,32,8,8],f32> loc(#loc369)
    %369 = torch.operator "onnx.Constant"() {torch.onnx.value = dense_resource<__model_layers.0_self_attn_Constant_21_attr__value> : tensor<f32>} : () -> !torch.vtensor<[],f32> loc(#loc370)
    %370 = torch.operator "onnx.Div"(%368, %369) : (!torch.vtensor<[1,32,8,8],f32>, !torch.vtensor<[],f32>) -> !torch.vtensor<[1,32,8,8],f32> loc(#loc371)
    %371 = torch.operator "onnx.Add"(%370, %302) : (!torch.vtensor<[1,32,8,8],f32>, !torch.vtensor<[?,?,8,8],f32>) -> !torch.vtensor<[?,32,8,8],f32> loc(#loc372)
    %372 = torch.operator "onnx.Softmax"(%371) {torch.onnx.axis = -1 : si64} : (!torch.vtensor<[?,32,8,8],f32>) -> !torch.vtensor<[?,32,8,8],f32> loc(#loc373)
    %373 = torch.operator "onnx.Cast"(%372) {torch.onnx.to = 1 : si64} : (!torch.vtensor<[?,32,8,8],f32>) -> !torch.vtensor<[?,32,8,8],f32> loc(#loc374)
    %374 = torch.operator "onnx.Cast"(%373) {torch.onnx.to = 1 : si64} : (!torch.vtensor<[?,32,8,8],f32>) -> !torch.vtensor<[?,32,8,8],f32> loc(#loc375)
    %375 = torch.operator "onnx.MatMul"(%374, %326) : (!torch.vtensor<[?,32,8,8],f32>, !torch.vtensor<[1,32,8,128],f32>) -> !torch.vtensor<[?,32,8,128],f32> loc(#loc376)
    %376 = torch.operator "onnx.Transpose"(%375) {torch.onnx.perm = [0 : si64, 2 : si64, 1 : si64, 3 : si64]} : (!torch.vtensor<[?,32,8,128],f32>) -> !torch.vtensor<[?,8,32,128],f32> loc(#loc377)
    %377 = torch.operator "onnx.Constant"() {torch.onnx.value = dense_resource<__model_layers.0_self_attn_Constant_22_attr__value> : tensor<3xsi64>} : () -> !torch.vtensor<[3],si64> loc(#loc378)
    %378 = torch.operator "onnx.Reshape"(%376, %377) {torch.onnx.allowzero = 0 : si64} : (!torch.vtensor<[?,8,32,128],f32>, !torch.vtensor<[3],si64>) -> !torch.vtensor<[1,8,4096],f32> loc(#loc379)
    %379 = torch.operator "onnx.MatMul"(%378, %71) : (!torch.vtensor<[1,8,4096],f32>, !torch.vtensor<[4096,4096],f32>) -> !torch.vtensor<[1,8,4096],f32> loc(#loc380)
    %380 = torch.operator "onnx.Add"(%303, %379) : (!torch.vtensor<[1,8,4096],f32>, !torch.vtensor<[1,8,4096],f32>) -> !torch.vtensor<[1,8,4096],f32> loc(#loc381)
    %381 = torch.operator "onnx.Cast"(%380) {torch.onnx.to = 1 : si64} : (!torch.vtensor<[1,8,4096],f32>) -> !torch.vtensor<[1,8,4096],f32> loc(#loc382)
    %382 = torch.operator "onnx.Constant"() {torch.onnx.value = dense_resource<__model_layers.0_post_attention_layernorm_Constant_attr__value> : tensor<f32>} : () -> !torch.vtensor<[],f32> loc(#loc383)
    %383 = torch.operator "onnx.Pow"(%381, %382) : (!torch.vtensor<[1,8,4096],f32>, !torch.vtensor<[],f32>) -> !torch.vtensor<[1,8,4096],f32> loc(#loc384)
    %384 = torch.operator "onnx.ReduceMean"(%383) {torch.onnx.axes = [-1 : si64], torch.onnx.keepdims = 1 : si64} : (!torch.vtensor<[1,8,4096],f32>) -> !torch.vtensor<[1,8,1],f32> loc(#loc385)
    %385 = torch.operator "onnx.Constant"() {torch.onnx.value = dense_resource<__model_layers.0_post_attention_layernorm_Constant_1_attr__value> : tensor<f32>} : () -> !torch.vtensor<[],f32> loc(#loc386)
    %386 = torch.operator "onnx.Add"(%384, %385) : (!torch.vtensor<[1,8,1],f32>, !torch.vtensor<[],f32>) -> !torch.vtensor<[1,8,1],f32> loc(#loc387)
    %387 = torch.operator "onnx.Sqrt"(%386) : (!torch.vtensor<[1,8,1],f32>) -> !torch.vtensor<[1,8,1],f32> loc(#loc388)
    %388 = torch.operator "onnx.Constant"() {torch.onnx.value = dense_resource<__model_layers.0_post_attention_layernorm_Constant_2_attr__value> : tensor<f32>} : () -> !torch.vtensor<[],f32> loc(#loc389)
    %389 = torch.operator "onnx.Div"(%388, %387) : (!torch.vtensor<[],f32>, !torch.vtensor<[1,8,1],f32>) -> !torch.vtensor<[1,8,1],f32> loc(#loc390)
    %390 = torch.operator "onnx.Mul"(%381, %389) : (!torch.vtensor<[1,8,4096],f32>, !torch.vtensor<[1,8,1],f32>) -> !torch.vtensor<[1,8,4096],f32> loc(#loc391)
    %391 = torch.operator "onnx.Cast"(%390) {torch.onnx.to = 1 : si64} : (!torch.vtensor<[1,8,4096],f32>) -> !torch.vtensor<[1,8,4096],f32> loc(#loc392)
    %392 = torch.operator "onnx.Mul"(%4, %391) : (!torch.vtensor<[4096],f32>, !torch.vtensor<[1,8,4096],f32>) -> !torch.vtensor<[1,8,4096],f32> loc(#loc393)
    %393 = torch.operator "onnx.MatMul"(%392, %72) : (!torch.vtensor<[1,8,4096],f32>, !torch.vtensor<[4096,11008],f32>) -> !torch.vtensor<[1,8,11008],f32> loc(#loc394)
    %394 = torch.operator "onnx.Sigmoid"(%393) : (!torch.vtensor<[1,8,11008],f32>) -> !torch.vtensor<[1,8,11008],f32> loc(#loc395)
    %395 = torch.operator "onnx.Mul"(%393, %394) : (!torch.vtensor<[1,8,11008],f32>, !torch.vtensor<[1,8,11008],f32>) -> !torch.vtensor<[1,8,11008],f32> loc(#loc396)
    %396 = torch.operator "onnx.MatMul"(%392, %73) : (!torch.vtensor<[1,8,4096],f32>, !torch.vtensor<[4096,11008],f32>) -> !torch.vtensor<[1,8,11008],f32> loc(#loc397)
    %397 = torch.operator "onnx.Mul"(%395, %396) : (!torch.vtensor<[1,8,11008],f32>, !torch.vtensor<[1,8,11008],f32>) -> !torch.vtensor<[1,8,11008],f32> loc(#loc398)
    %398 = torch.operator "onnx.MatMul"(%397, %74) : (!torch.vtensor<[1,8,11008],f32>, !torch.vtensor<[11008,4096],f32>) -> !torch.vtensor<[1,8,4096],f32> loc(#loc399)
    %399 = torch.operator "onnx.Add"(%381, %398) : (!torch.vtensor<[1,8,4096],f32>, !torch.vtensor<[1,8,4096],f32>) -> !torch.vtensor<[1,8,4096],f32> loc(#loc400)
    %400 = torch.operator "onnx.Cast"(%399) {torch.onnx.to = 1 : si64} : (!torch.vtensor<[1,8,4096],f32>) -> !torch.vtensor<[1,8,4096],f32> loc(#loc401)
    %401 = torch.operator "onnx.Constant"() {torch.onnx.value = dense_resource<__model_layers.1_input_layernorm_Constant_attr__value> : tensor<f32>} : () -> !torch.vtensor<[],f32> loc(#loc402)
    %402 = torch.operator "onnx.Pow"(%400, %401) : (!torch.vtensor<[1,8,4096],f32>, !torch.vtensor<[],f32>) -> !torch.vtensor<[1,8,4096],f32> loc(#loc403)
    %403 = torch.operator "onnx.ReduceMean"(%402) {torch.onnx.axes = [-1 : si64], torch.onnx.keepdims = 1 : si64} : (!torch.vtensor<[1,8,4096],f32>) -> !torch.vtensor<[1,8,1],f32> loc(#loc404)
    %404 = torch.operator "onnx.Constant"() {torch.onnx.value = dense_resource<__model_layers.1_input_layernorm_Constant_1_attr__value> : tensor<f32>} : () -> !torch.vtensor<[],f32> loc(#loc405)
    %405 = torch.operator "onnx.Add"(%403, %404) : (!torch.vtensor<[1,8,1],f32>, !torch.vtensor<[],f32>) -> !torch.vtensor<[1,8,1],f32> loc(#loc406)
    %406 = torch.operator "onnx.Sqrt"(%405) : (!torch.vtensor<[1,8,1],f32>) -> !torch.vtensor<[1,8,1],f32> loc(#loc407)
    %407 = torch.operator "onnx.Constant"() {torch.onnx.value = dense_resource<__model_layers.1_input_layernorm_Constant_2_attr__value> : tensor<f32>} : () -> !torch.vtensor<[],f32> loc(#loc408)
    %408 = torch.operator "onnx.Div"(%407, %406) : (!torch.vtensor<[],f32>, !torch.vtensor<[1,8,1],f32>) -> !torch.vtensor<[1,8,1],f32> loc(#loc409)
    %409 = torch.operator "onnx.Mul"(%400, %408) : (!torch.vtensor<[1,8,4096],f32>, !torch.vtensor<[1,8,1],f32>) -> !torch.vtensor<[1,8,4096],f32> loc(#loc410)
    %410 = torch.operator "onnx.Cast"(%409) {torch.onnx.to = 1 : si64} : (!torch.vtensor<[1,8,4096],f32>) -> !torch.vtensor<[1,8,4096],f32> loc(#loc411)
    %411 = torch.operator "onnx.Mul"(%5, %410) : (!torch.vtensor<[4096],f32>, !torch.vtensor<[1,8,4096],f32>) -> !torch.vtensor<[1,8,4096],f32> loc(#loc412)
    %412 = torch.operator "onnx.MatMul"(%411, %75) : (!torch.vtensor<[1,8,4096],f32>, !torch.vtensor<[4096,4096],f32>) -> !torch.vtensor<[1,8,4096],f32> loc(#loc413)
    %413 = torch.operator "onnx.MatMul"(%411, %76) : (!torch.vtensor<[1,8,4096],f32>, !torch.vtensor<[4096,4096],f32>) -> !torch.vtensor<[1,8,4096],f32> loc(#loc414)
    %414 = torch.operator "onnx.MatMul"(%411, %77) : (!torch.vtensor<[1,8,4096],f32>, !torch.vtensor<[4096,4096],f32>) -> !torch.vtensor<[1,8,4096],f32> loc(#loc415)
    %415 = torch.operator "onnx.Constant"() {torch.onnx.value = dense_resource<__model_layers.1_self_attn_Constant_attr__value> : tensor<4xsi64>} : () -> !torch.vtensor<[4],si64> loc(#loc416)
    %416 = torch.operator "onnx.Constant"() {torch.onnx.value = dense_resource<__model_layers.1_self_attn_Constant_1_attr__value> : tensor<4xsi64>} : () -> !torch.vtensor<[4],si64> loc(#loc417)
    %417 = torch.operator "onnx.Constant"() {torch.onnx.value = dense_resource<__model_layers.1_self_attn_Constant_2_attr__value> : tensor<4xsi64>} : () -> !torch.vtensor<[4],si64> loc(#loc418)
    %418 = torch.operator "onnx.Reshape"(%412, %415) {torch.onnx.allowzero = 0 : si64} : (!torch.vtensor<[1,8,4096],f32>, !torch.vtensor<[4],si64>) -> !torch.vtensor<[1,8,32,128],f32> loc(#loc419)
    %419 = torch.operator "onnx.Transpose"(%418) {torch.onnx.perm = [0 : si64, 2 : si64, 1 : si64, 3 : si64]} : (!torch.vtensor<[1,8,32,128],f32>) -> !torch.vtensor<[1,32,8,128],f32> loc(#loc420)
    %420 = torch.operator "onnx.Reshape"(%413, %416) {torch.onnx.allowzero = 0 : si64} : (!torch.vtensor<[1,8,4096],f32>, !torch.vtensor<[4],si64>) -> !torch.vtensor<[1,8,32,128],f32> loc(#loc421)
    %421 = torch.operator "onnx.Transpose"(%420) {torch.onnx.perm = [0 : si64, 2 : si64, 1 : si64, 3 : si64]} : (!torch.vtensor<[1,8,32,128],f32>) -> !torch.vtensor<[1,32,8,128],f32> loc(#loc422)
    %422 = torch.operator "onnx.Reshape"(%414, %417) {torch.onnx.allowzero = 0 : si64} : (!torch.vtensor<[1,8,4096],f32>, !torch.vtensor<[4],si64>) -> !torch.vtensor<[1,8,32,128],f32> loc(#loc423)
    %423 = torch.operator "onnx.Transpose"(%422) {torch.onnx.perm = [0 : si64, 2 : si64, 1 : si64, 3 : si64]} : (!torch.vtensor<[1,8,32,128],f32>) -> !torch.vtensor<[1,32,8,128],f32> loc(#loc424)
    %424 = torch_c.to_builtin_tensor %423 : !torch.vtensor<[1,32,8,128],f32> -> tensor<1x32x8x128xf32> loc(#loc329)
    %425 = torch.operator "onnx.Constant"() {torch.onnx.value = dense_resource<__model_layers.1_self_attn_rotary_emb_Constant_attr__value> : tensor<8x128xf32>} : () -> !torch.vtensor<[8,128],f32> loc(#loc425)
    %426 = torch.operator "onnx.Constant"() {torch.onnx.value = dense_resource<__model_layers.1_self_attn_rotary_emb_Constant_1_attr__value> : tensor<8x128xf32>} : () -> !torch.vtensor<[8,128],f32> loc(#loc426)
    %427 = torch.operator "onnx.Gather"(%425, %293) {torch.onnx.axis = 0 : si64} : (!torch.vtensor<[8,128],f32>, !torch.vtensor<[1,8],si64>) -> !torch.vtensor<[1,8,128],f32> loc(#loc427)
    %428 = torch.operator "onnx.Constant"() {torch.onnx.value = dense_resource<__model_layers.1_self_attn_Constant_3_attr__value> : tensor<1xsi64>} : () -> !torch.vtensor<[1],si64> loc(#loc428)
    %429 = torch.operator "onnx.Unsqueeze"(%427, %428) : (!torch.vtensor<[1,8,128],f32>, !torch.vtensor<[1],si64>) -> !torch.vtensor<[1,1,8,128],f32> loc(#loc429)
    %430 = torch.operator "onnx.Gather"(%426, %293) {torch.onnx.axis = 0 : si64} : (!torch.vtensor<[8,128],f32>, !torch.vtensor<[1,8],si64>) -> !torch.vtensor<[1,8,128],f32> loc(#loc430)
    %431 = torch.operator "onnx.Constant"() {torch.onnx.value = dense_resource<__model_layers.1_self_attn_Constant_4_attr__value> : tensor<1xsi64>} : () -> !torch.vtensor<[1],si64> loc(#loc431)
    %432 = torch.operator "onnx.Unsqueeze"(%430, %431) : (!torch.vtensor<[1,8,128],f32>, !torch.vtensor<[1],si64>) -> !torch.vtensor<[1,1,8,128],f32> loc(#loc432)
    %433 = torch.operator "onnx.Mul"(%419, %429) : (!torch.vtensor<[1,32,8,128],f32>, !torch.vtensor<[1,1,8,128],f32>) -> !torch.vtensor<[1,32,8,128],f32> loc(#loc433)
    %434 = torch.operator "onnx.Constant"() {torch.onnx.value = dense_resource<__model_layers.1_self_attn_Constant_5_attr__value> : tensor<1xsi64>} : () -> !torch.vtensor<[1],si64> loc(#loc434)
    %435 = torch.operator "onnx.Constant"() {torch.onnx.value = dense_resource<__model_layers.1_self_attn_Constant_6_attr__value> : tensor<1xsi64>} : () -> !torch.vtensor<[1],si64> loc(#loc435)
    %436 = torch.operator "onnx.Constant"() {torch.onnx.value = dense_resource<__model_layers.1_self_attn_Constant_7_attr__value> : tensor<1xsi64>} : () -> !torch.vtensor<[1],si64> loc(#loc436)
    %437 = torch.operator "onnx.Constant"() {torch.onnx.value = dense_resource<__model_layers.1_self_attn_Constant_8_attr__value> : tensor<1xsi64>} : () -> !torch.vtensor<[1],si64> loc(#loc437)
    %438 = torch.operator "onnx.Slice"(%419, %435, %436, %434, %437) : (!torch.vtensor<[1,32,8,128],f32>, !torch.vtensor<[1],si64>, !torch.vtensor<[1],si64>, !torch.vtensor<[1],si64>, !torch.vtensor<[1],si64>) -> !torch.vtensor<[1,32,8,64],f32> loc(#loc438)
    %439 = torch.operator "onnx.Constant"() {torch.onnx.value = dense_resource<__model_layers.1_self_attn_Constant_9_attr__value> : tensor<1xsi64>} : () -> !torch.vtensor<[1],si64> loc(#loc439)
    %440 = torch.operator "onnx.Constant"() {torch.onnx.value = dense_resource<__model_layers.1_self_attn_Constant_10_attr__value> : tensor<1xsi64>} : () -> !torch.vtensor<[1],si64> loc(#loc440)
    %441 = torch.operator "onnx.Constant"() {torch.onnx.value = dense_resource<__model_layers.1_self_attn_Constant_11_attr__value> : tensor<1xsi64>} : () -> !torch.vtensor<[1],si64> loc(#loc441)
    %442 = torch.operator "onnx.Constant"() {torch.onnx.value = dense_resource<__model_layers.1_self_attn_Constant_12_attr__value> : tensor<1xsi64>} : () -> !torch.vtensor<[1],si64> loc(#loc442)
    %443 = torch.operator "onnx.Slice"(%419, %440, %441, %439, %442) : (!torch.vtensor<[1,32,8,128],f32>, !torch.vtensor<[1],si64>, !torch.vtensor<[1],si64>, !torch.vtensor<[1],si64>, !torch.vtensor<[1],si64>) -> !torch.vtensor<[1,32,8,64],f32> loc(#loc443)
    %444 = torch.operator "onnx.Neg"(%443) : (!torch.vtensor<[1,32,8,64],f32>) -> !torch.vtensor<[1,32,8,64],f32> loc(#loc444)
    %445 = torch.operator "onnx.Concat"(%444, %438) {torch.onnx.axis = -1 : si64} : (!torch.vtensor<[1,32,8,64],f32>, !torch.vtensor<[1,32,8,64],f32>) -> !torch.vtensor<[1,32,8,128],f32> loc(#loc445)
    %446 = torch.operator "onnx.Mul"(%445, %432) : (!torch.vtensor<[1,32,8,128],f32>, !torch.vtensor<[1,1,8,128],f32>) -> !torch.vtensor<[1,32,8,128],f32> loc(#loc446)
    %447 = torch.operator "onnx.Add"(%433, %446) : (!torch.vtensor<[1,32,8,128],f32>, !torch.vtensor<[1,32,8,128],f32>) -> !torch.vtensor<[1,32,8,128],f32> loc(#loc447)
    %448 = torch.operator "onnx.Mul"(%421, %429) : (!torch.vtensor<[1,32,8,128],f32>, !torch.vtensor<[1,1,8,128],f32>) -> !torch.vtensor<[1,32,8,128],f32> loc(#loc448)
    %449 = torch.operator "onnx.Constant"() {torch.onnx.value = dense_resource<__model_layers.1_self_attn_Constant_13_attr__value> : tensor<1xsi64>} : () -> !torch.vtensor<[1],si64> loc(#loc449)
    %450 = torch.operator "onnx.Constant"() {torch.onnx.value = dense_resource<__model_layers.1_self_attn_Constant_14_attr__value> : tensor<1xsi64>} : () -> !torch.vtensor<[1],si64> loc(#loc450)
    %451 = torch.operator "onnx.Constant"() {torch.onnx.value = dense_resource<__model_layers.1_self_attn_Constant_15_attr__value> : tensor<1xsi64>} : () -> !torch.vtensor<[1],si64> loc(#loc451)
    %452 = torch.operator "onnx.Constant"() {torch.onnx.value = dense_resource<__model_layers.1_self_attn_Constant_16_attr__value> : tensor<1xsi64>} : () -> !torch.vtensor<[1],si64> loc(#loc452)
    %453 = torch.operator "onnx.Slice"(%421, %450, %451, %449, %452) : (!torch.vtensor<[1,32,8,128],f32>, !torch.vtensor<[1],si64>, !torch.vtensor<[1],si64>, !torch.vtensor<[1],si64>, !torch.vtensor<[1],si64>) -> !torch.vtensor<[1,32,8,64],f32> loc(#loc453)
    %454 = torch.operator "onnx.Constant"() {torch.onnx.value = dense_resource<__model_layers.1_self_attn_Constant_17_attr__value> : tensor<1xsi64>} : () -> !torch.vtensor<[1],si64> loc(#loc454)
    %455 = torch.operator "onnx.Constant"() {torch.onnx.value = dense_resource<__model_layers.1_self_attn_Constant_18_attr__value> : tensor<1xsi64>} : () -> !torch.vtensor<[1],si64> loc(#loc455)
    %456 = torch.operator "onnx.Constant"() {torch.onnx.value = dense_resource<__model_layers.1_self_attn_Constant_19_attr__value> : tensor<1xsi64>} : () -> !torch.vtensor<[1],si64> loc(#loc456)
    %457 = torch.operator "onnx.Constant"() {torch.onnx.value = dense_resource<__model_layers.1_self_attn_Constant_20_attr__value> : tensor<1xsi64>} : () -> !torch.vtensor<[1],si64> loc(#loc457)
    %458 = torch.operator "onnx.Slice"(%421, %455, %456, %454, %457) : (!torch.vtensor<[1,32,8,128],f32>, !torch.vtensor<[1],si64>, !torch.vtensor<[1],si64>, !torch.vtensor<[1],si64>, !torch.vtensor<[1],si64>) -> !torch.vtensor<[1,32,8,64],f32> loc(#loc458)
    %459 = torch.operator "onnx.Neg"(%458) : (!torch.vtensor<[1,32,8,64],f32>) -> !torch.vtensor<[1,32,8,64],f32> loc(#loc459)
    %460 = torch.operator "onnx.Concat"(%459, %453) {torch.onnx.axis = -1 : si64} : (!torch.vtensor<[1,32,8,64],f32>, !torch.vtensor<[1,32,8,64],f32>) -> !torch.vtensor<[1,32,8,128],f32> loc(#loc460)
    %461 = torch.operator "onnx.Mul"(%460, %432) : (!torch.vtensor<[1,32,8,128],f32>, !torch.vtensor<[1,1,8,128],f32>) -> !torch.vtensor<[1,32,8,128],f32> loc(#loc461)
    %462 = torch.operator "onnx.Add"(%448, %461) : (!torch.vtensor<[1,32,8,128],f32>, !torch.vtensor<[1,32,8,128],f32>) -> !torch.vtensor<[1,32,8,128],f32> loc(#loc462)
    %463 = torch_c.to_builtin_tensor %462 : !torch.vtensor<[1,32,8,128],f32> -> tensor<1x32x8x128xf32> loc(#loc329)
    %464 = torch.operator "onnx.Transpose"(%462) {torch.onnx.perm = [0 : si64, 1 : si64, 3 : si64, 2 : si64]} : (!torch.vtensor<[1,32,8,128],f32>) -> !torch.vtensor<[1,32,128,8],f32> loc(#loc463)
    %465 = torch.operator "onnx.MatMul"(%447, %464) : (!torch.vtensor<[1,32,8,128],f32>, !torch.vtensor<[1,32,128,8],f32>) -> !torch.vtensor<[1,32,8,8],f32> loc(#loc464)
    %466 = torch.operator "onnx.Constant"() {torch.onnx.value = dense_resource<__model_layers.1_self_attn_Constant_21_attr__value> : tensor<f32>} : () -> !torch.vtensor<[],f32> loc(#loc465)
    %467 = torch.operator "onnx.Div"(%465, %466) : (!torch.vtensor<[1,32,8,8],f32>, !torch.vtensor<[],f32>) -> !torch.vtensor<[1,32,8,8],f32> loc(#loc466)
    %468 = torch.operator "onnx.Add"(%467, %302) : (!torch.vtensor<[1,32,8,8],f32>, !torch.vtensor<[?,?,8,8],f32>) -> !torch.vtensor<[?,32,8,8],f32> loc(#loc467)
    %469 = torch.operator "onnx.Softmax"(%468) {torch.onnx.axis = -1 : si64} : (!torch.vtensor<[?,32,8,8],f32>) -> !torch.vtensor<[?,32,8,8],f32> loc(#loc468)
    %470 = torch.operator "onnx.Cast"(%469) {torch.onnx.to = 1 : si64} : (!torch.vtensor<[?,32,8,8],f32>) -> !torch.vtensor<[?,32,8,8],f32> loc(#loc469)
    %471 = torch.operator "onnx.Cast"(%470) {torch.onnx.to = 1 : si64} : (!torch.vtensor<[?,32,8,8],f32>) -> !torch.vtensor<[?,32,8,8],f32> loc(#loc470)
    %472 = torch.operator "onnx.MatMul"(%471, %423) : (!torch.vtensor<[?,32,8,8],f32>, !torch.vtensor<[1,32,8,128],f32>) -> !torch.vtensor<[?,32,8,128],f32> loc(#loc471)
    %473 = torch.operator "onnx.Transpose"(%472) {torch.onnx.perm = [0 : si64, 2 : si64, 1 : si64, 3 : si64]} : (!torch.vtensor<[?,32,8,128],f32>) -> !torch.vtensor<[?,8,32,128],f32> loc(#loc472)
    %474 = torch.operator "onnx.Constant"() {torch.onnx.value = dense_resource<__model_layers.1_self_attn_Constant_22_attr__value> : tensor<3xsi64>} : () -> !torch.vtensor<[3],si64> loc(#loc473)
    %475 = torch.operator "onnx.Reshape"(%473, %474) {torch.onnx.allowzero = 0 : si64} : (!torch.vtensor<[?,8,32,128],f32>, !torch.vtensor<[3],si64>) -> !torch.vtensor<[1,8,4096],f32> loc(#loc474)
    %476 = torch.operator "onnx.MatMul"(%475, %78) : (!torch.vtensor<[1,8,4096],f32>, !torch.vtensor<[4096,4096],f32>) -> !torch.vtensor<[1,8,4096],f32> loc(#loc475)
    %477 = torch.operator "onnx.Add"(%400, %476) : (!torch.vtensor<[1,8,4096],f32>, !torch.vtensor<[1,8,4096],f32>) -> !torch.vtensor<[1,8,4096],f32> loc(#loc476)
    %478 = torch.operator "onnx.Cast"(%477) {torch.onnx.to = 1 : si64} : (!torch.vtensor<[1,8,4096],f32>) -> !torch.vtensor<[1,8,4096],f32> loc(#loc477)
    %479 = torch.operator "onnx.Constant"() {torch.onnx.value = dense_resource<__model_layers.1_post_attention_layernorm_Constant_attr__value> : tensor<f32>} : () -> !torch.vtensor<[],f32> loc(#loc478)
    %480 = torch.operator "onnx.Pow"(%478, %479) : (!torch.vtensor<[1,8,4096],f32>, !torch.vtensor<[],f32>) -> !torch.vtensor<[1,8,4096],f32> loc(#loc479)
    %481 = torch.operator "onnx.ReduceMean"(%480) {torch.onnx.axes = [-1 : si64], torch.onnx.keepdims = 1 : si64} : (!torch.vtensor<[1,8,4096],f32>) -> !torch.vtensor<[1,8,1],f32> loc(#loc480)
    %482 = torch.operator "onnx.Constant"() {torch.onnx.value = dense_resource<__model_layers.1_post_attention_layernorm_Constant_1_attr__value> : tensor<f32>} : () -> !torch.vtensor<[],f32> loc(#loc481)
    %483 = torch.operator "onnx.Add"(%481, %482) : (!torch.vtensor<[1,8,1],f32>, !torch.vtensor<[],f32>) -> !torch.vtensor<[1,8,1],f32> loc(#loc482)
    %484 = torch.operator "onnx.Sqrt"(%483) : (!torch.vtensor<[1,8,1],f32>) -> !torch.vtensor<[1,8,1],f32> loc(#loc483)
    %485 = torch.operator "onnx.Constant"() {torch.onnx.value = dense_resource<__model_layers.1_post_attention_layernorm_Constant_2_attr__value> : tensor<f32>} : () -> !torch.vtensor<[],f32> loc(#loc484)
    %486 = torch.operator "onnx.Div"(%485, %484) : (!torch.vtensor<[],f32>, !torch.vtensor<[1,8,1],f32>) -> !torch.vtensor<[1,8,1],f32> loc(#loc485)
    %487 = torch.operator "onnx.Mul"(%478, %486) : (!torch.vtensor<[1,8,4096],f32>, !torch.vtensor<[1,8,1],f32>) -> !torch.vtensor<[1,8,4096],f32> loc(#loc486)
    %488 = torch.operator "onnx.Cast"(%487) {torch.onnx.to = 1 : si64} : (!torch.vtensor<[1,8,4096],f32>) -> !torch.vtensor<[1,8,4096],f32> loc(#loc487)
    %489 = torch.operator "onnx.Mul"(%6, %488) : (!torch.vtensor<[4096],f32>, !torch.vtensor<[1,8,4096],f32>) -> !torch.vtensor<[1,8,4096],f32> loc(#loc488)
    %490 = torch.operator "onnx.MatMul"(%489, %79) : (!torch.vtensor<[1,8,4096],f32>, !torch.vtensor<[4096,11008],f32>) -> !torch.vtensor<[1,8,11008],f32> loc(#loc489)
    %491 = torch.operator "onnx.Sigmoid"(%490) : (!torch.vtensor<[1,8,11008],f32>) -> !torch.vtensor<[1,8,11008],f32> loc(#loc490)
    %492 = torch.operator "onnx.Mul"(%490, %491) : (!torch.vtensor<[1,8,11008],f32>, !torch.vtensor<[1,8,11008],f32>) -> !torch.vtensor<[1,8,11008],f32> loc(#loc491)
    %493 = torch.operator "onnx.MatMul"(%489, %80) : (!torch.vtensor<[1,8,4096],f32>, !torch.vtensor<[4096,11008],f32>) -> !torch.vtensor<[1,8,11008],f32> loc(#loc492)
    %494 = torch.operator "onnx.Mul"(%492, %493) : (!torch.vtensor<[1,8,11008],f32>, !torch.vtensor<[1,8,11008],f32>) -> !torch.vtensor<[1,8,11008],f32> loc(#loc493)
    %495 = torch.operator "onnx.MatMul"(%494, %81) : (!torch.vtensor<[1,8,11008],f32>, !torch.vtensor<[11008,4096],f32>) -> !torch.vtensor<[1,8,4096],f32> loc(#loc494)
    %496 = torch.operator "onnx.Add"(%478, %495) : (!torch.vtensor<[1,8,4096],f32>, !torch.vtensor<[1,8,4096],f32>) -> !torch.vtensor<[1,8,4096],f32> loc(#loc495)
    %497 = torch.operator "onnx.Cast"(%496) {torch.onnx.to = 1 : si64} : (!torch.vtensor<[1,8,4096],f32>) -> !torch.vtensor<[1,8,4096],f32> loc(#loc496)
    %498 = torch.operator "onnx.Constant"() {torch.onnx.value = dense_resource<__model_layers.2_input_layernorm_Constant_attr__value> : tensor<f32>} : () -> !torch.vtensor<[],f32> loc(#loc497)
    %499 = torch.operator "onnx.Pow"(%497, %498) : (!torch.vtensor<[1,8,4096],f32>, !torch.vtensor<[],f32>) -> !torch.vtensor<[1,8,4096],f32> loc(#loc498)
    %500 = torch.operator "onnx.ReduceMean"(%499) {torch.onnx.axes = [-1 : si64], torch.onnx.keepdims = 1 : si64} : (!torch.vtensor<[1,8,4096],f32>) -> !torch.vtensor<[1,8,1],f32> loc(#loc499)
    %501 = torch.operator "onnx.Constant"() {torch.onnx.value = dense_resource<__model_layers.2_input_layernorm_Constant_1_attr__value> : tensor<f32>} : () -> !torch.vtensor<[],f32> loc(#loc500)
    %502 = torch.operator "onnx.Add"(%500, %501) : (!torch.vtensor<[1,8,1],f32>, !torch.vtensor<[],f32>) -> !torch.vtensor<[1,8,1],f32> loc(#loc501)
    %503 = torch.operator "onnx.Sqrt"(%502) : (!torch.vtensor<[1,8,1],f32>) -> !torch.vtensor<[1,8,1],f32> loc(#loc502)
    %504 = torch.operator "onnx.Constant"() {torch.onnx.value = dense_resource<__model_layers.2_input_layernorm_Constant_2_attr__value> : tensor<f32>} : () -> !torch.vtensor<[],f32> loc(#loc503)
    %505 = torch.operator "onnx.Div"(%504, %503) : (!torch.vtensor<[],f32>, !torch.vtensor<[1,8,1],f32>) -> !torch.vtensor<[1,8,1],f32> loc(#loc504)
    %506 = torch.operator "onnx.Mul"(%497, %505) : (!torch.vtensor<[1,8,4096],f32>, !torch.vtensor<[1,8,1],f32>) -> !torch.vtensor<[1,8,4096],f32> loc(#loc505)
    %507 = torch.operator "onnx.Cast"(%506) {torch.onnx.to = 1 : si64} : (!torch.vtensor<[1,8,4096],f32>) -> !torch.vtensor<[1,8,4096],f32> loc(#loc506)
    %508 = torch.operator "onnx.Mul"(%7, %507) : (!torch.vtensor<[4096],f32>, !torch.vtensor<[1,8,4096],f32>) -> !torch.vtensor<[1,8,4096],f32> loc(#loc507)
    %509 = torch.operator "onnx.MatMul"(%508, %82) : (!torch.vtensor<[1,8,4096],f32>, !torch.vtensor<[4096,4096],f32>) -> !torch.vtensor<[1,8,4096],f32> loc(#loc508)
    %510 = torch.operator "onnx.MatMul"(%508, %83) : (!torch.vtensor<[1,8,4096],f32>, !torch.vtensor<[4096,4096],f32>) -> !torch.vtensor<[1,8,4096],f32> loc(#loc509)
    %511 = torch.operator "onnx.MatMul"(%508, %84) : (!torch.vtensor<[1,8,4096],f32>, !torch.vtensor<[4096,4096],f32>) -> !torch.vtensor<[1,8,4096],f32> loc(#loc510)
    %512 = torch.operator "onnx.Constant"() {torch.onnx.value = dense_resource<__model_layers.2_self_attn_Constant_attr__value> : tensor<4xsi64>} : () -> !torch.vtensor<[4],si64> loc(#loc511)
    %513 = torch.operator "onnx.Constant"() {torch.onnx.value = dense_resource<__model_layers.2_self_attn_Constant_1_attr__value> : tensor<4xsi64>} : () -> !torch.vtensor<[4],si64> loc(#loc512)
    %514 = torch.operator "onnx.Constant"() {torch.onnx.value = dense_resource<__model_layers.2_self_attn_Constant_2_attr__value> : tensor<4xsi64>} : () -> !torch.vtensor<[4],si64> loc(#loc513)
    %515 = torch.operator "onnx.Reshape"(%509, %512) {torch.onnx.allowzero = 0 : si64} : (!torch.vtensor<[1,8,4096],f32>, !torch.vtensor<[4],si64>) -> !torch.vtensor<[1,8,32,128],f32> loc(#loc514)
    %516 = torch.operator "onnx.Transpose"(%515) {torch.onnx.perm = [0 : si64, 2 : si64, 1 : si64, 3 : si64]} : (!torch.vtensor<[1,8,32,128],f32>) -> !torch.vtensor<[1,32,8,128],f32> loc(#loc515)
    %517 = torch.operator "onnx.Reshape"(%510, %513) {torch.onnx.allowzero = 0 : si64} : (!torch.vtensor<[1,8,4096],f32>, !torch.vtensor<[4],si64>) -> !torch.vtensor<[1,8,32,128],f32> loc(#loc516)
    %518 = torch.operator "onnx.Transpose"(%517) {torch.onnx.perm = [0 : si64, 2 : si64, 1 : si64, 3 : si64]} : (!torch.vtensor<[1,8,32,128],f32>) -> !torch.vtensor<[1,32,8,128],f32> loc(#loc517)
    %519 = torch.operator "onnx.Reshape"(%511, %514) {torch.onnx.allowzero = 0 : si64} : (!torch.vtensor<[1,8,4096],f32>, !torch.vtensor<[4],si64>) -> !torch.vtensor<[1,8,32,128],f32> loc(#loc518)
    %520 = torch.operator "onnx.Transpose"(%519) {torch.onnx.perm = [0 : si64, 2 : si64, 1 : si64, 3 : si64]} : (!torch.vtensor<[1,8,32,128],f32>) -> !torch.vtensor<[1,32,8,128],f32> loc(#loc519)
    %521 = torch_c.to_builtin_tensor %520 : !torch.vtensor<[1,32,8,128],f32> -> tensor<1x32x8x128xf32> loc(#loc329)
    %522 = torch.operator "onnx.Constant"() {torch.onnx.value = dense_resource<__model_layers.2_self_attn_rotary_emb_Constant_attr__value> : tensor<8x128xf32>} : () -> !torch.vtensor<[8,128],f32> loc(#loc520)
    %523 = torch.operator "onnx.Constant"() {torch.onnx.value = dense_resource<__model_layers.2_self_attn_rotary_emb_Constant_1_attr__value> : tensor<8x128xf32>} : () -> !torch.vtensor<[8,128],f32> loc(#loc521)
    %524 = torch.operator "onnx.Gather"(%522, %293) {torch.onnx.axis = 0 : si64} : (!torch.vtensor<[8,128],f32>, !torch.vtensor<[1,8],si64>) -> !torch.vtensor<[1,8,128],f32> loc(#loc522)
    %525 = torch.operator "onnx.Constant"() {torch.onnx.value = dense_resource<__model_layers.2_self_attn_Constant_3_attr__value> : tensor<1xsi64>} : () -> !torch.vtensor<[1],si64> loc(#loc523)
    %526 = torch.operator "onnx.Unsqueeze"(%524, %525) : (!torch.vtensor<[1,8,128],f32>, !torch.vtensor<[1],si64>) -> !torch.vtensor<[1,1,8,128],f32> loc(#loc524)
    %527 = torch.operator "onnx.Gather"(%523, %293) {torch.onnx.axis = 0 : si64} : (!torch.vtensor<[8,128],f32>, !torch.vtensor<[1,8],si64>) -> !torch.vtensor<[1,8,128],f32> loc(#loc525)
    %528 = torch.operator "onnx.Constant"() {torch.onnx.value = dense_resource<__model_layers.2_self_attn_Constant_4_attr__value> : tensor<1xsi64>} : () -> !torch.vtensor<[1],si64> loc(#loc526)
    %529 = torch.operator "onnx.Unsqueeze"(%527, %528) : (!torch.vtensor<[1,8,128],f32>, !torch.vtensor<[1],si64>) -> !torch.vtensor<[1,1,8,128],f32> loc(#loc527)
    %530 = torch.operator "onnx.Mul"(%516, %526) : (!torch.vtensor<[1,32,8,128],f32>, !torch.vtensor<[1,1,8,128],f32>) -> !torch.vtensor<[1,32,8,128],f32> loc(#loc528)
    %531 = torch.operator "onnx.Constant"() {torch.onnx.value = dense_resource<__model_layers.2_self_attn_Constant_5_attr__value> : tensor<1xsi64>} : () -> !torch.vtensor<[1],si64> loc(#loc529)
    %532 = torch.operator "onnx.Constant"() {torch.onnx.value = dense_resource<__model_layers.2_self_attn_Constant_6_attr__value> : tensor<1xsi64>} : () -> !torch.vtensor<[1],si64> loc(#loc530)
    %533 = torch.operator "onnx.Constant"() {torch.onnx.value = dense_resource<__model_layers.2_self_attn_Constant_7_attr__value> : tensor<1xsi64>} : () -> !torch.vtensor<[1],si64> loc(#loc531)
    %534 = torch.operator "onnx.Constant"() {torch.onnx.value = dense_resource<__model_layers.2_self_attn_Constant_8_attr__value> : tensor<1xsi64>} : () -> !torch.vtensor<[1],si64> loc(#loc532)
    %535 = torch.operator "onnx.Slice"(%516, %532, %533, %531, %534) : (!torch.vtensor<[1,32,8,128],f32>, !torch.vtensor<[1],si64>, !torch.vtensor<[1],si64>, !torch.vtensor<[1],si64>, !torch.vtensor<[1],si64>) -> !torch.vtensor<[1,32,8,64],f32> loc(#loc533)
    %536 = torch.operator "onnx.Constant"() {torch.onnx.value = dense_resource<__model_layers.2_self_attn_Constant_9_attr__value> : tensor<1xsi64>} : () -> !torch.vtensor<[1],si64> loc(#loc534)
    %537 = torch.operator "onnx.Constant"() {torch.onnx.value = dense_resource<__model_layers.2_self_attn_Constant_10_attr__value> : tensor<1xsi64>} : () -> !torch.vtensor<[1],si64> loc(#loc535)
    %538 = torch.operator "onnx.Constant"() {torch.onnx.value = dense_resource<__model_layers.2_self_attn_Constant_11_attr__value> : tensor<1xsi64>} : () -> !torch.vtensor<[1],si64> loc(#loc536)
    %539 = torch.operator "onnx.Constant"() {torch.onnx.value = dense_resource<__model_layers.2_self_attn_Constant_12_attr__value> : tensor<1xsi64>} : () -> !torch.vtensor<[1],si64> loc(#loc537)
    %540 = torch.operator "onnx.Slice"(%516, %537, %538, %536, %539) : (!torch.vtensor<[1,32,8,128],f32>, !torch.vtensor<[1],si64>, !torch.vtensor<[1],si64>, !torch.vtensor<[1],si64>, !torch.vtensor<[1],si64>) -> !torch.vtensor<[1,32,8,64],f32> loc(#loc538)
    %541 = torch.operator "onnx.Neg"(%540) : (!torch.vtensor<[1,32,8,64],f32>) -> !torch.vtensor<[1,32,8,64],f32> loc(#loc539)
    %542 = torch.operator "onnx.Concat"(%541, %535) {torch.onnx.axis = -1 : si64} : (!torch.vtensor<[1,32,8,64],f32>, !torch.vtensor<[1,32,8,64],f32>) -> !torch.vtensor<[1,32,8,128],f32> loc(#loc540)
    %543 = torch.operator "onnx.Mul"(%542, %529) : (!torch.vtensor<[1,32,8,128],f32>, !torch.vtensor<[1,1,8,128],f32>) -> !torch.vtensor<[1,32,8,128],f32> loc(#loc541)
    %544 = torch.operator "onnx.Add"(%530, %543) : (!torch.vtensor<[1,32,8,128],f32>, !torch.vtensor<[1,32,8,128],f32>) -> !torch.vtensor<[1,32,8,128],f32> loc(#loc542)
    %545 = torch.operator "onnx.Mul"(%518, %526) : (!torch.vtensor<[1,32,8,128],f32>, !torch.vtensor<[1,1,8,128],f32>) -> !torch.vtensor<[1,32,8,128],f32> loc(#loc543)
    %546 = torch.operator "onnx.Constant"() {torch.onnx.value = dense_resource<__model_layers.2_self_attn_Constant_13_attr__value> : tensor<1xsi64>} : () -> !torch.vtensor<[1],si64> loc(#loc544)
    %547 = torch.operator "onnx.Constant"() {torch.onnx.value = dense_resource<__model_layers.2_self_attn_Constant_14_attr__value> : tensor<1xsi64>} : () -> !torch.vtensor<[1],si64> loc(#loc545)
    %548 = torch.operator "onnx.Constant"() {torch.onnx.value = dense_resource<__model_layers.2_self_attn_Constant_15_attr__value> : tensor<1xsi64>} : () -> !torch.vtensor<[1],si64> loc(#loc546)
    %549 = torch.operator "onnx.Constant"() {torch.onnx.value = dense_resource<__model_layers.2_self_attn_Constant_16_attr__value> : tensor<1xsi64>} : () -> !torch.vtensor<[1],si64> loc(#loc547)
    %550 = torch.operator "onnx.Slice"(%518, %547, %548, %546, %549) : (!torch.vtensor<[1,32,8,128],f32>, !torch.vtensor<[1],si64>, !torch.vtensor<[1],si64>, !torch.vtensor<[1],si64>, !torch.vtensor<[1],si64>) -> !torch.vtensor<[1,32,8,64],f32> loc(#loc548)
    %551 = torch.operator "onnx.Constant"() {torch.onnx.value = dense_resource<__model_layers.2_self_attn_Constant_17_attr__value> : tensor<1xsi64>} : () -> !torch.vtensor<[1],si64> loc(#loc549)
    %552 = torch.operator "onnx.Constant"() {torch.onnx.value = dense_resource<__model_layers.2_self_attn_Constant_18_attr__value> : tensor<1xsi64>} : () -> !torch.vtensor<[1],si64> loc(#loc550)
    %553 = torch.operator "onnx.Constant"() {torch.onnx.value = dense_resource<__model_layers.2_self_attn_Constant_19_attr__value> : tensor<1xsi64>} : () -> !torch.vtensor<[1],si64> loc(#loc551)
    %554 = torch.operator "onnx.Constant"() {torch.onnx.value = dense_resource<__model_layers.2_self_attn_Constant_20_attr__value> : tensor<1xsi64>} : () -> !torch.vtensor<[1],si64> loc(#loc552)
    %555 = torch.operator "onnx.Slice"(%518, %552, %553, %551, %554) : (!torch.vtensor<[1,32,8,128],f32>, !torch.vtensor<[1],si64>, !torch.vtensor<[1],si64>, !torch.vtensor<[1],si64>, !torch.vtensor<[1],si64>) -> !torch.vtensor<[1,32,8,64],f32> loc(#loc553)
    %556 = torch.operator "onnx.Neg"(%555) : (!torch.vtensor<[1,32,8,64],f32>) -> !torch.vtensor<[1,32,8,64],f32> loc(#loc554)
    %557 = torch.operator "onnx.Concat"(%556, %550) {torch.onnx.axis = -1 : si64} : (!torch.vtensor<[1,32,8,64],f32>, !torch.vtensor<[1,32,8,64],f32>) -> !torch.vtensor<[1,32,8,128],f32> loc(#loc555)
    %558 = torch.operator "onnx.Mul"(%557, %529) : (!torch.vtensor<[1,32,8,128],f32>, !torch.vtensor<[1,1,8,128],f32>) -> !torch.vtensor<[1,32,8,128],f32> loc(#loc556)
    %559 = torch.operator "onnx.Add"(%545, %558) : (!torch.vtensor<[1,32,8,128],f32>, !torch.vtensor<[1,32,8,128],f32>) -> !torch.vtensor<[1,32,8,128],f32> loc(#loc557)
    %560 = torch_c.to_builtin_tensor %559 : !torch.vtensor<[1,32,8,128],f32> -> tensor<1x32x8x128xf32> loc(#loc329)
    %561 = torch.operator "onnx.Transpose"(%559) {torch.onnx.perm = [0 : si64, 1 : si64, 3 : si64, 2 : si64]} : (!torch.vtensor<[1,32,8,128],f32>) -> !torch.vtensor<[1,32,128,8],f32> loc(#loc558)
    %562 = torch.operator "onnx.MatMul"(%544, %561) : (!torch.vtensor<[1,32,8,128],f32>, !torch.vtensor<[1,32,128,8],f32>) -> !torch.vtensor<[1,32,8,8],f32> loc(#loc559)
    %563 = torch.operator "onnx.Constant"() {torch.onnx.value = dense_resource<__model_layers.2_self_attn_Constant_21_attr__value> : tensor<f32>} : () -> !torch.vtensor<[],f32> loc(#loc560)
    %564 = torch.operator "onnx.Div"(%562, %563) : (!torch.vtensor<[1,32,8,8],f32>, !torch.vtensor<[],f32>) -> !torch.vtensor<[1,32,8,8],f32> loc(#loc561)
    %565 = torch.operator "onnx.Add"(%564, %302) : (!torch.vtensor<[1,32,8,8],f32>, !torch.vtensor<[?,?,8,8],f32>) -> !torch.vtensor<[?,32,8,8],f32> loc(#loc562)
    %566 = torch.operator "onnx.Softmax"(%565) {torch.onnx.axis = -1 : si64} : (!torch.vtensor<[?,32,8,8],f32>) -> !torch.vtensor<[?,32,8,8],f32> loc(#loc563)
    %567 = torch.operator "onnx.Cast"(%566) {torch.onnx.to = 1 : si64} : (!torch.vtensor<[?,32,8,8],f32>) -> !torch.vtensor<[?,32,8,8],f32> loc(#loc564)
    %568 = torch.operator "onnx.Cast"(%567) {torch.onnx.to = 1 : si64} : (!torch.vtensor<[?,32,8,8],f32>) -> !torch.vtensor<[?,32,8,8],f32> loc(#loc565)
    %569 = torch.operator "onnx.MatMul"(%568, %520) : (!torch.vtensor<[?,32,8,8],f32>, !torch.vtensor<[1,32,8,128],f32>) -> !torch.vtensor<[?,32,8,128],f32> loc(#loc566)
    %570 = torch.operator "onnx.Transpose"(%569) {torch.onnx.perm = [0 : si64, 2 : si64, 1 : si64, 3 : si64]} : (!torch.vtensor<[?,32,8,128],f32>) -> !torch.vtensor<[?,8,32,128],f32> loc(#loc567)
    %571 = torch.operator "onnx.Constant"() {torch.onnx.value = dense_resource<__model_layers.2_self_attn_Constant_22_attr__value> : tensor<3xsi64>} : () -> !torch.vtensor<[3],si64> loc(#loc568)
    %572 = torch.operator "onnx.Reshape"(%570, %571) {torch.onnx.allowzero = 0 : si64} : (!torch.vtensor<[?,8,32,128],f32>, !torch.vtensor<[3],si64>) -> !torch.vtensor<[1,8,4096],f32> loc(#loc569)
    %573 = torch.operator "onnx.MatMul"(%572, %85) : (!torch.vtensor<[1,8,4096],f32>, !torch.vtensor<[4096,4096],f32>) -> !torch.vtensor<[1,8,4096],f32> loc(#loc570)
    %574 = torch.operator "onnx.Add"(%497, %573) : (!torch.vtensor<[1,8,4096],f32>, !torch.vtensor<[1,8,4096],f32>) -> !torch.vtensor<[1,8,4096],f32> loc(#loc571)
    %575 = torch.operator "onnx.Cast"(%574) {torch.onnx.to = 1 : si64} : (!torch.vtensor<[1,8,4096],f32>) -> !torch.vtensor<[1,8,4096],f32> loc(#loc572)
    %576 = torch.operator "onnx.Constant"() {torch.onnx.value = dense_resource<__model_layers.2_post_attention_layernorm_Constant_attr__value> : tensor<f32>} : () -> !torch.vtensor<[],f32> loc(#loc573)
    %577 = torch.operator "onnx.Pow"(%575, %576) : (!torch.vtensor<[1,8,4096],f32>, !torch.vtensor<[],f32>) -> !torch.vtensor<[1,8,4096],f32> loc(#loc574)
    %578 = torch.operator "onnx.ReduceMean"(%577) {torch.onnx.axes = [-1 : si64], torch.onnx.keepdims = 1 : si64} : (!torch.vtensor<[1,8,4096],f32>) -> !torch.vtensor<[1,8,1],f32> loc(#loc575)
    %579 = torch.operator "onnx.Constant"() {torch.onnx.value = dense_resource<__model_layers.2_post_attention_layernorm_Constant_1_attr__value> : tensor<f32>} : () -> !torch.vtensor<[],f32> loc(#loc576)
    %580 = torch.operator "onnx.Add"(%578, %579) : (!torch.vtensor<[1,8,1],f32>, !torch.vtensor<[],f32>) -> !torch.vtensor<[1,8,1],f32> loc(#loc577)
    %581 = torch.operator "onnx.Sqrt"(%580) : (!torch.vtensor<[1,8,1],f32>) -> !torch.vtensor<[1,8,1],f32> loc(#loc578)
    %582 = torch.operator "onnx.Constant"() {torch.onnx.value = dense_resource<__model_layers.2_post_attention_layernorm_Constant_2_attr__value> : tensor<f32>} : () -> !torch.vtensor<[],f32> loc(#loc579)
    %583 = torch.operator "onnx.Div"(%582, %581) : (!torch.vtensor<[],f32>, !torch.vtensor<[1,8,1],f32>) -> !torch.vtensor<[1,8,1],f32> loc(#loc580)
    %584 = torch.operator "onnx.Mul"(%575, %583) : (!torch.vtensor<[1,8,4096],f32>, !torch.vtensor<[1,8,1],f32>) -> !torch.vtensor<[1,8,4096],f32> loc(#loc581)
    %585 = torch.operator "onnx.Cast"(%584) {torch.onnx.to = 1 : si64} : (!torch.vtensor<[1,8,4096],f32>) -> !torch.vtensor<[1,8,4096],f32> loc(#loc582)
    %586 = torch.operator "onnx.Mul"(%8, %585) : (!torch.vtensor<[4096],f32>, !torch.vtensor<[1,8,4096],f32>) -> !torch.vtensor<[1,8,4096],f32> loc(#loc583)
    %587 = torch.operator "onnx.MatMul"(%586, %86) : (!torch.vtensor<[1,8,4096],f32>, !torch.vtensor<[4096,11008],f32>) -> !torch.vtensor<[1,8,11008],f32> loc(#loc584)
    %588 = torch.operator "onnx.Sigmoid"(%587) : (!torch.vtensor<[1,8,11008],f32>) -> !torch.vtensor<[1,8,11008],f32> loc(#loc585)
    %589 = torch.operator "onnx.Mul"(%587, %588) : (!torch.vtensor<[1,8,11008],f32>, !torch.vtensor<[1,8,11008],f32>) -> !torch.vtensor<[1,8,11008],f32> loc(#loc586)
    %590 = torch.operator "onnx.MatMul"(%586, %87) : (!torch.vtensor<[1,8,4096],f32>, !torch.vtensor<[4096,11008],f32>) -> !torch.vtensor<[1,8,11008],f32> loc(#loc587)
    %591 = torch.operator "onnx.Mul"(%589, %590) : (!torch.vtensor<[1,8,11008],f32>, !torch.vtensor<[1,8,11008],f32>) -> !torch.vtensor<[1,8,11008],f32> loc(#loc588)
    %592 = torch.operator "onnx.MatMul"(%591, %88) : (!torch.vtensor<[1,8,11008],f32>, !torch.vtensor<[11008,4096],f32>) -> !torch.vtensor<[1,8,4096],f32> loc(#loc589)
    %593 = torch.operator "onnx.Add"(%575, %592) : (!torch.vtensor<[1,8,4096],f32>, !torch.vtensor<[1,8,4096],f32>) -> !torch.vtensor<[1,8,4096],f32> loc(#loc590)
    %594 = torch.operator "onnx.Cast"(%593) {torch.onnx.to = 1 : si64} : (!torch.vtensor<[1,8,4096],f32>) -> !torch.vtensor<[1,8,4096],f32> loc(#loc591)
    %595 = torch.operator "onnx.Constant"() {torch.onnx.value = dense_resource<__model_layers.3_input_layernorm_Constant_attr__value> : tensor<f32>} : () -> !torch.vtensor<[],f32> loc(#loc592)
    %596 = torch.operator "onnx.Pow"(%594, %595) : (!torch.vtensor<[1,8,4096],f32>, !torch.vtensor<[],f32>) -> !torch.vtensor<[1,8,4096],f32> loc(#loc593)
    %597 = torch.operator "onnx.ReduceMean"(%596) {torch.onnx.axes = [-1 : si64], torch.onnx.keepdims = 1 : si64} : (!torch.vtensor<[1,8,4096],f32>) -> !torch.vtensor<[1,8,1],f32> loc(#loc594)
    %598 = torch.operator "onnx.Constant"() {torch.onnx.value = dense_resource<__model_layers.3_input_layernorm_Constant_1_attr__value> : tensor<f32>} : () -> !torch.vtensor<[],f32> loc(#loc595)
    %599 = torch.operator "onnx.Add"(%597, %598) : (!torch.vtensor<[1,8,1],f32>, !torch.vtensor<[],f32>) -> !torch.vtensor<[1,8,1],f32> loc(#loc596)
    %600 = torch.operator "onnx.Sqrt"(%599) : (!torch.vtensor<[1,8,1],f32>) -> !torch.vtensor<[1,8,1],f32> loc(#loc597)
    %601 = torch.operator "onnx.Constant"() {torch.onnx.value = dense_resource<__model_layers.3_input_layernorm_Constant_2_attr__value> : tensor<f32>} : () -> !torch.vtensor<[],f32> loc(#loc598)
    %602 = torch.operator "onnx.Div"(%601, %600) : (!torch.vtensor<[],f32>, !torch.vtensor<[1,8,1],f32>) -> !torch.vtensor<[1,8,1],f32> loc(#loc599)
    %603 = torch.operator "onnx.Mul"(%594, %602) : (!torch.vtensor<[1,8,4096],f32>, !torch.vtensor<[1,8,1],f32>) -> !torch.vtensor<[1,8,4096],f32> loc(#loc600)
    %604 = torch.operator "onnx.Cast"(%603) {torch.onnx.to = 1 : si64} : (!torch.vtensor<[1,8,4096],f32>) -> !torch.vtensor<[1,8,4096],f32> loc(#loc601)
    %605 = torch.operator "onnx.Mul"(%9, %604) : (!torch.vtensor<[4096],f32>, !torch.vtensor<[1,8,4096],f32>) -> !torch.vtensor<[1,8,4096],f32> loc(#loc602)
    %606 = torch.operator "onnx.MatMul"(%605, %89) : (!torch.vtensor<[1,8,4096],f32>, !torch.vtensor<[4096,4096],f32>) -> !torch.vtensor<[1,8,4096],f32> loc(#loc603)
    %607 = torch.operator "onnx.MatMul"(%605, %90) : (!torch.vtensor<[1,8,4096],f32>, !torch.vtensor<[4096,4096],f32>) -> !torch.vtensor<[1,8,4096],f32> loc(#loc604)
    %608 = torch.operator "onnx.MatMul"(%605, %91) : (!torch.vtensor<[1,8,4096],f32>, !torch.vtensor<[4096,4096],f32>) -> !torch.vtensor<[1,8,4096],f32> loc(#loc605)
    %609 = torch.operator "onnx.Constant"() {torch.onnx.value = dense_resource<__model_layers.3_self_attn_Constant_attr__value> : tensor<4xsi64>} : () -> !torch.vtensor<[4],si64> loc(#loc606)
    %610 = torch.operator "onnx.Constant"() {torch.onnx.value = dense_resource<__model_layers.3_self_attn_Constant_1_attr__value> : tensor<4xsi64>} : () -> !torch.vtensor<[4],si64> loc(#loc607)
    %611 = torch.operator "onnx.Constant"() {torch.onnx.value = dense_resource<__model_layers.3_self_attn_Constant_2_attr__value> : tensor<4xsi64>} : () -> !torch.vtensor<[4],si64> loc(#loc608)
    %612 = torch.operator "onnx.Reshape"(%606, %609) {torch.onnx.allowzero = 0 : si64} : (!torch.vtensor<[1,8,4096],f32>, !torch.vtensor<[4],si64>) -> !torch.vtensor<[1,8,32,128],f32> loc(#loc609)
    %613 = torch.operator "onnx.Transpose"(%612) {torch.onnx.perm = [0 : si64, 2 : si64, 1 : si64, 3 : si64]} : (!torch.vtensor<[1,8,32,128],f32>) -> !torch.vtensor<[1,32,8,128],f32> loc(#loc610)
    %614 = torch.operator "onnx.Reshape"(%607, %610) {torch.onnx.allowzero = 0 : si64} : (!torch.vtensor<[1,8,4096],f32>, !torch.vtensor<[4],si64>) -> !torch.vtensor<[1,8,32,128],f32> loc(#loc611)
    %615 = torch.operator "onnx.Transpose"(%614) {torch.onnx.perm = [0 : si64, 2 : si64, 1 : si64, 3 : si64]} : (!torch.vtensor<[1,8,32,128],f32>) -> !torch.vtensor<[1,32,8,128],f32> loc(#loc612)
    %616 = torch.operator "onnx.Reshape"(%608, %611) {torch.onnx.allowzero = 0 : si64} : (!torch.vtensor<[1,8,4096],f32>, !torch.vtensor<[4],si64>) -> !torch.vtensor<[1,8,32,128],f32> loc(#loc613)
    %617 = torch.operator "onnx.Transpose"(%616) {torch.onnx.perm = [0 : si64, 2 : si64, 1 : si64, 3 : si64]} : (!torch.vtensor<[1,8,32,128],f32>) -> !torch.vtensor<[1,32,8,128],f32> loc(#loc614)
    %618 = torch_c.to_builtin_tensor %617 : !torch.vtensor<[1,32,8,128],f32> -> tensor<1x32x8x128xf32> loc(#loc329)
    %619 = torch.operator "onnx.Constant"() {torch.onnx.value = dense_resource<__model_layers.3_self_attn_rotary_emb_Constant_attr__value> : tensor<8x128xf32>} : () -> !torch.vtensor<[8,128],f32> loc(#loc615)
    %620 = torch.operator "onnx.Constant"() {torch.onnx.value = dense_resource<__model_layers.3_self_attn_rotary_emb_Constant_1_attr__value> : tensor<8x128xf32>} : () -> !torch.vtensor<[8,128],f32> loc(#loc616)
    %621 = torch.operator "onnx.Gather"(%619, %293) {torch.onnx.axis = 0 : si64} : (!torch.vtensor<[8,128],f32>, !torch.vtensor<[1,8],si64>) -> !torch.vtensor<[1,8,128],f32> loc(#loc617)
    %622 = torch.operator "onnx.Constant"() {torch.onnx.value = dense_resource<__model_layers.3_self_attn_Constant_3_attr__value> : tensor<1xsi64>} : () -> !torch.vtensor<[1],si64> loc(#loc618)
    %623 = torch.operator "onnx.Unsqueeze"(%621, %622) : (!torch.vtensor<[1,8,128],f32>, !torch.vtensor<[1],si64>) -> !torch.vtensor<[1,1,8,128],f32> loc(#loc619)
    %624 = torch.operator "onnx.Gather"(%620, %293) {torch.onnx.axis = 0 : si64} : (!torch.vtensor<[8,128],f32>, !torch.vtensor<[1,8],si64>) -> !torch.vtensor<[1,8,128],f32> loc(#loc620)
    %625 = torch.operator "onnx.Constant"() {torch.onnx.value = dense_resource<__model_layers.3_self_attn_Constant_4_attr__value> : tensor<1xsi64>} : () -> !torch.vtensor<[1],si64> loc(#loc621)
    %626 = torch.operator "onnx.Unsqueeze"(%624, %625) : (!torch.vtensor<[1,8,128],f32>, !torch.vtensor<[1],si64>) -> !torch.vtensor<[1,1,8,128],f32> loc(#loc622)
    %627 = torch.operator "onnx.Mul"(%613, %623) : (!torch.vtensor<[1,32,8,128],f32>, !torch.vtensor<[1,1,8,128],f32>) -> !torch.vtensor<[1,32,8,128],f32> loc(#loc623)
    %628 = torch.operator "onnx.Constant"() {torch.onnx.value = dense_resource<__model_layers.3_self_attn_Constant_5_attr__value> : tensor<1xsi64>} : () -> !torch.vtensor<[1],si64> loc(#loc624)
    %629 = torch.operator "onnx.Constant"() {torch.onnx.value = dense_resource<__model_layers.3_self_attn_Constant_6_attr__value> : tensor<1xsi64>} : () -> !torch.vtensor<[1],si64> loc(#loc625)
    %630 = torch.operator "onnx.Constant"() {torch.onnx.value = dense_resource<__model_layers.3_self_attn_Constant_7_attr__value> : tensor<1xsi64>} : () -> !torch.vtensor<[1],si64> loc(#loc626)
    %631 = torch.operator "onnx.Constant"() {torch.onnx.value = dense_resource<__model_layers.3_self_attn_Constant_8_attr__value> : tensor<1xsi64>} : () -> !torch.vtensor<[1],si64> loc(#loc627)
    %632 = torch.operator "onnx.Slice"(%613, %629, %630, %628, %631) : (!torch.vtensor<[1,32,8,128],f32>, !torch.vtensor<[1],si64>, !torch.vtensor<[1],si64>, !torch.vtensor<[1],si64>, !torch.vtensor<[1],si64>) -> !torch.vtensor<[1,32,8,64],f32> loc(#loc628)
    %633 = torch.operator "onnx.Constant"() {torch.onnx.value = dense_resource<__model_layers.3_self_attn_Constant_9_attr__value> : tensor<1xsi64>} : () -> !torch.vtensor<[1],si64> loc(#loc629)
    %634 = torch.operator "onnx.Constant"() {torch.onnx.value = dense_resource<__model_layers.3_self_attn_Constant_10_attr__value> : tensor<1xsi64>} : () -> !torch.vtensor<[1],si64> loc(#loc630)
    %635 = torch.operator "onnx.Constant"() {torch.onnx.value = dense_resource<__model_layers.3_self_attn_Constant_11_attr__value> : tensor<1xsi64>} : () -> !torch.vtensor<[1],si64> loc(#loc631)
    %636 = torch.operator "onnx.Constant"() {torch.onnx.value = dense_resource<__model_layers.3_self_attn_Constant_12_attr__value> : tensor<1xsi64>} : () -> !torch.vtensor<[1],si64> loc(#loc632)
    %637 = torch.operator "onnx.Slice"(%613, %634, %635, %633, %636) : (!torch.vtensor<[1,32,8,128],f32>, !torch.vtensor<[1],si64>, !torch.vtensor<[1],si64>, !torch.vtensor<[1],si64>, !torch.vtensor<[1],si64>) -> !torch.vtensor<[1,32,8,64],f32> loc(#loc633)
    %638 = torch.operator "onnx.Neg"(%637) : (!torch.vtensor<[1,32,8,64],f32>) -> !torch.vtensor<[1,32,8,64],f32> loc(#loc634)
    %639 = torch.operator "onnx.Concat"(%638, %632) {torch.onnx.axis = -1 : si64} : (!torch.vtensor<[1,32,8,64],f32>, !torch.vtensor<[1,32,8,64],f32>) -> !torch.vtensor<[1,32,8,128],f32> loc(#loc635)
    %640 = torch.operator "onnx.Mul"(%639, %626) : (!torch.vtensor<[1,32,8,128],f32>, !torch.vtensor<[1,1,8,128],f32>) -> !torch.vtensor<[1,32,8,128],f32> loc(#loc636)
    %641 = torch.operator "onnx.Add"(%627, %640) : (!torch.vtensor<[1,32,8,128],f32>, !torch.vtensor<[1,32,8,128],f32>) -> !torch.vtensor<[1,32,8,128],f32> loc(#loc637)
    %642 = torch.operator "onnx.Mul"(%615, %623) : (!torch.vtensor<[1,32,8,128],f32>, !torch.vtensor<[1,1,8,128],f32>) -> !torch.vtensor<[1,32,8,128],f32> loc(#loc638)
    %643 = torch.operator "onnx.Constant"() {torch.onnx.value = dense_resource<__model_layers.3_self_attn_Constant_13_attr__value> : tensor<1xsi64>} : () -> !torch.vtensor<[1],si64> loc(#loc639)
    %644 = torch.operator "onnx.Constant"() {torch.onnx.value = dense_resource<__model_layers.3_self_attn_Constant_14_attr__value> : tensor<1xsi64>} : () -> !torch.vtensor<[1],si64> loc(#loc640)
    %645 = torch.operator "onnx.Constant"() {torch.onnx.value = dense_resource<__model_layers.3_self_attn_Constant_15_attr__value> : tensor<1xsi64>} : () -> !torch.vtensor<[1],si64> loc(#loc641)
    %646 = torch.operator "onnx.Constant"() {torch.onnx.value = dense_resource<__model_layers.3_self_attn_Constant_16_attr__value> : tensor<1xsi64>} : () -> !torch.vtensor<[1],si64> loc(#loc642)
    %647 = torch.operator "onnx.Slice"(%615, %644, %645, %643, %646) : (!torch.vtensor<[1,32,8,128],f32>, !torch.vtensor<[1],si64>, !torch.vtensor<[1],si64>, !torch.vtensor<[1],si64>, !torch.vtensor<[1],si64>) -> !torch.vtensor<[1,32,8,64],f32> loc(#loc643)
    %648 = torch.operator "onnx.Constant"() {torch.onnx.value = dense_resource<__model_layers.3_self_attn_Constant_17_attr__value> : tensor<1xsi64>} : () -> !torch.vtensor<[1],si64> loc(#loc644)
    %649 = torch.operator "onnx.Constant"() {torch.onnx.value = dense_resource<__model_layers.3_self_attn_Constant_18_attr__value> : tensor<1xsi64>} : () -> !torch.vtensor<[1],si64> loc(#loc645)
    %650 = torch.operator "onnx.Constant"() {torch.onnx.value = dense_resource<__model_layers.3_self_attn_Constant_19_attr__value> : tensor<1xsi64>} : () -> !torch.vtensor<[1],si64> loc(#loc646)
    %651 = torch.operator "onnx.Constant"() {torch.onnx.value = dense_resource<__model_layers.3_self_attn_Constant_20_attr__value> : tensor<1xsi64>} : () -> !torch.vtensor<[1],si64> loc(#loc647)
    %652 = torch.operator "onnx.Slice"(%615, %649, %650, %648, %651) : (!torch.vtensor<[1,32,8,128],f32>, !torch.vtensor<[1],si64>, !torch.vtensor<[1],si64>, !torch.vtensor<[1],si64>, !torch.vtensor<[1],si64>) -> !torch.vtensor<[1,32,8,64],f32> loc(#loc648)
    %653 = torch.operator "onnx.Neg"(%652) : (!torch.vtensor<[1,32,8,64],f32>) -> !torch.vtensor<[1,32,8,64],f32> loc(#loc649)
    %654 = torch.operator "onnx.Concat"(%653, %647) {torch.onnx.axis = -1 : si64} : (!torch.vtensor<[1,32,8,64],f32>, !torch.vtensor<[1,32,8,64],f32>) -> !torch.vtensor<[1,32,8,128],f32> loc(#loc650)
    %655 = torch.operator "onnx.Mul"(%654, %626) : (!torch.vtensor<[1,32,8,128],f32>, !torch.vtensor<[1,1,8,128],f32>) -> !torch.vtensor<[1,32,8,128],f32> loc(#loc651)
    %656 = torch.operator "onnx.Add"(%642, %655) : (!torch.vtensor<[1,32,8,128],f32>, !torch.vtensor<[1,32,8,128],f32>) -> !torch.vtensor<[1,32,8,128],f32> loc(#loc652)
    %657 = torch_c.to_builtin_tensor %656 : !torch.vtensor<[1,32,8,128],f32> -> tensor<1x32x8x128xf32> loc(#loc329)
    %658 = torch.operator "onnx.Transpose"(%656) {torch.onnx.perm = [0 : si64, 1 : si64, 3 : si64, 2 : si64]} : (!torch.vtensor<[1,32,8,128],f32>) -> !torch.vtensor<[1,32,128,8],f32> loc(#loc653)
    %659 = torch.operator "onnx.MatMul"(%641, %658) : (!torch.vtensor<[1,32,8,128],f32>, !torch.vtensor<[1,32,128,8],f32>) -> !torch.vtensor<[1,32,8,8],f32> loc(#loc654)
    %660 = torch.operator "onnx.Constant"() {torch.onnx.value = dense_resource<__model_layers.3_self_attn_Constant_21_attr__value> : tensor<f32>} : () -> !torch.vtensor<[],f32> loc(#loc655)
    %661 = torch.operator "onnx.Div"(%659, %660) : (!torch.vtensor<[1,32,8,8],f32>, !torch.vtensor<[],f32>) -> !torch.vtensor<[1,32,8,8],f32> loc(#loc656)
    %662 = torch.operator "onnx.Add"(%661, %302) : (!torch.vtensor<[1,32,8,8],f32>, !torch.vtensor<[?,?,8,8],f32>) -> !torch.vtensor<[?,32,8,8],f32> loc(#loc657)
    %663 = torch.operator "onnx.Softmax"(%662) {torch.onnx.axis = -1 : si64} : (!torch.vtensor<[?,32,8,8],f32>) -> !torch.vtensor<[?,32,8,8],f32> loc(#loc658)
    %664 = torch.operator "onnx.Cast"(%663) {torch.onnx.to = 1 : si64} : (!torch.vtensor<[?,32,8,8],f32>) -> !torch.vtensor<[?,32,8,8],f32> loc(#loc659)
    %665 = torch.operator "onnx.Cast"(%664) {torch.onnx.to = 1 : si64} : (!torch.vtensor<[?,32,8,8],f32>) -> !torch.vtensor<[?,32,8,8],f32> loc(#loc660)
    %666 = torch.operator "onnx.MatMul"(%665, %617) : (!torch.vtensor<[?,32,8,8],f32>, !torch.vtensor<[1,32,8,128],f32>) -> !torch.vtensor<[?,32,8,128],f32> loc(#loc661)
    %667 = torch.operator "onnx.Transpose"(%666) {torch.onnx.perm = [0 : si64, 2 : si64, 1 : si64, 3 : si64]} : (!torch.vtensor<[?,32,8,128],f32>) -> !torch.vtensor<[?,8,32,128],f32> loc(#loc662)
    %668 = torch.operator "onnx.Constant"() {torch.onnx.value = dense_resource<__model_layers.3_self_attn_Constant_22_attr__value> : tensor<3xsi64>} : () -> !torch.vtensor<[3],si64> loc(#loc663)
    %669 = torch.operator "onnx.Reshape"(%667, %668) {torch.onnx.allowzero = 0 : si64} : (!torch.vtensor<[?,8,32,128],f32>, !torch.vtensor<[3],si64>) -> !torch.vtensor<[1,8,4096],f32> loc(#loc664)
    %670 = torch.operator "onnx.MatMul"(%669, %92) : (!torch.vtensor<[1,8,4096],f32>, !torch.vtensor<[4096,4096],f32>) -> !torch.vtensor<[1,8,4096],f32> loc(#loc665)
    %671 = torch.operator "onnx.Add"(%594, %670) : (!torch.vtensor<[1,8,4096],f32>, !torch.vtensor<[1,8,4096],f32>) -> !torch.vtensor<[1,8,4096],f32> loc(#loc666)
    %672 = torch.operator "onnx.Cast"(%671) {torch.onnx.to = 1 : si64} : (!torch.vtensor<[1,8,4096],f32>) -> !torch.vtensor<[1,8,4096],f32> loc(#loc667)
    %673 = torch.operator "onnx.Constant"() {torch.onnx.value = dense_resource<__model_layers.3_post_attention_layernorm_Constant_attr__value> : tensor<f32>} : () -> !torch.vtensor<[],f32> loc(#loc668)
    %674 = torch.operator "onnx.Pow"(%672, %673) : (!torch.vtensor<[1,8,4096],f32>, !torch.vtensor<[],f32>) -> !torch.vtensor<[1,8,4096],f32> loc(#loc669)
    %675 = torch.operator "onnx.ReduceMean"(%674) {torch.onnx.axes = [-1 : si64], torch.onnx.keepdims = 1 : si64} : (!torch.vtensor<[1,8,4096],f32>) -> !torch.vtensor<[1,8,1],f32> loc(#loc670)
    %676 = torch.operator "onnx.Constant"() {torch.onnx.value = dense_resource<__model_layers.3_post_attention_layernorm_Constant_1_attr__value> : tensor<f32>} : () -> !torch.vtensor<[],f32> loc(#loc671)
    %677 = torch.operator "onnx.Add"(%675, %676) : (!torch.vtensor<[1,8,1],f32>, !torch.vtensor<[],f32>) -> !torch.vtensor<[1,8,1],f32> loc(#loc672)
    %678 = torch.operator "onnx.Sqrt"(%677) : (!torch.vtensor<[1,8,1],f32>) -> !torch.vtensor<[1,8,1],f32> loc(#loc673)
    %679 = torch.operator "onnx.Constant"() {torch.onnx.value = dense_resource<__model_layers.3_post_attention_layernorm_Constant_2_attr__value> : tensor<f32>} : () -> !torch.vtensor<[],f32> loc(#loc674)
    %680 = torch.operator "onnx.Div"(%679, %678) : (!torch.vtensor<[],f32>, !torch.vtensor<[1,8,1],f32>) -> !torch.vtensor<[1,8,1],f32> loc(#loc675)
    %681 = torch.operator "onnx.Mul"(%672, %680) : (!torch.vtensor<[1,8,4096],f32>, !torch.vtensor<[1,8,1],f32>) -> !torch.vtensor<[1,8,4096],f32> loc(#loc676)
    %682 = torch.operator "onnx.Cast"(%681) {torch.onnx.to = 1 : si64} : (!torch.vtensor<[1,8,4096],f32>) -> !torch.vtensor<[1,8,4096],f32> loc(#loc677)
    %683 = torch.operator "onnx.Mul"(%10, %682) : (!torch.vtensor<[4096],f32>, !torch.vtensor<[1,8,4096],f32>) -> !torch.vtensor<[1,8,4096],f32> loc(#loc678)
    %684 = torch.operator "onnx.MatMul"(%683, %93) : (!torch.vtensor<[1,8,4096],f32>, !torch.vtensor<[4096,11008],f32>) -> !torch.vtensor<[1,8,11008],f32> loc(#loc679)
    %685 = torch.operator "onnx.Sigmoid"(%684) : (!torch.vtensor<[1,8,11008],f32>) -> !torch.vtensor<[1,8,11008],f32> loc(#loc680)
    %686 = torch.operator "onnx.Mul"(%684, %685) : (!torch.vtensor<[1,8,11008],f32>, !torch.vtensor<[1,8,11008],f32>) -> !torch.vtensor<[1,8,11008],f32> loc(#loc681)
    %687 = torch.operator "onnx.MatMul"(%683, %94) : (!torch.vtensor<[1,8,4096],f32>, !torch.vtensor<[4096,11008],f32>) -> !torch.vtensor<[1,8,11008],f32> loc(#loc682)
    %688 = torch.operator "onnx.Mul"(%686, %687) : (!torch.vtensor<[1,8,11008],f32>, !torch.vtensor<[1,8,11008],f32>) -> !torch.vtensor<[1,8,11008],f32> loc(#loc683)
    %689 = torch.operator "onnx.MatMul"(%688, %95) : (!torch.vtensor<[1,8,11008],f32>, !torch.vtensor<[11008,4096],f32>) -> !torch.vtensor<[1,8,4096],f32> loc(#loc684)
    %690 = torch.operator "onnx.Add"(%672, %689) : (!torch.vtensor<[1,8,4096],f32>, !torch.vtensor<[1,8,4096],f32>) -> !torch.vtensor<[1,8,4096],f32> loc(#loc685)
    %691 = torch.operator "onnx.Cast"(%690) {torch.onnx.to = 1 : si64} : (!torch.vtensor<[1,8,4096],f32>) -> !torch.vtensor<[1,8,4096],f32> loc(#loc686)
    %692 = torch.operator "onnx.Constant"() {torch.onnx.value = dense_resource<__model_layers.4_input_layernorm_Constant_attr__value> : tensor<f32>} : () -> !torch.vtensor<[],f32> loc(#loc687)
    %693 = torch.operator "onnx.Pow"(%691, %692) : (!torch.vtensor<[1,8,4096],f32>, !torch.vtensor<[],f32>) -> !torch.vtensor<[1,8,4096],f32> loc(#loc688)
    %694 = torch.operator "onnx.ReduceMean"(%693) {torch.onnx.axes = [-1 : si64], torch.onnx.keepdims = 1 : si64} : (!torch.vtensor<[1,8,4096],f32>) -> !torch.vtensor<[1,8,1],f32> loc(#loc689)
    %695 = torch.operator "onnx.Constant"() {torch.onnx.value = dense_resource<__model_layers.4_input_layernorm_Constant_1_attr__value> : tensor<f32>} : () -> !torch.vtensor<[],f32> loc(#loc690)
    %696 = torch.operator "onnx.Add"(%694, %695) : (!torch.vtensor<[1,8,1],f32>, !torch.vtensor<[],f32>) -> !torch.vtensor<[1,8,1],f32> loc(#loc691)
    %697 = torch.operator "onnx.Sqrt"(%696) : (!torch.vtensor<[1,8,1],f32>) -> !torch.vtensor<[1,8,1],f32> loc(#loc692)
    %698 = torch.operator "onnx.Constant"() {torch.onnx.value = dense_resource<__model_layers.4_input_layernorm_Constant_2_attr__value> : tensor<f32>} : () -> !torch.vtensor<[],f32> loc(#loc693)
    %699 = torch.operator "onnx.Div"(%698, %697) : (!torch.vtensor<[],f32>, !torch.vtensor<[1,8,1],f32>) -> !torch.vtensor<[1,8,1],f32> loc(#loc694)
    %700 = torch.operator "onnx.Mul"(%691, %699) : (!torch.vtensor<[1,8,4096],f32>, !torch.vtensor<[1,8,1],f32>) -> !torch.vtensor<[1,8,4096],f32> loc(#loc695)
    %701 = torch.operator "onnx.Cast"(%700) {torch.onnx.to = 1 : si64} : (!torch.vtensor<[1,8,4096],f32>) -> !torch.vtensor<[1,8,4096],f32> loc(#loc696)
    %702 = torch.operator "onnx.Mul"(%11, %701) : (!torch.vtensor<[4096],f32>, !torch.vtensor<[1,8,4096],f32>) -> !torch.vtensor<[1,8,4096],f32> loc(#loc697)
    %703 = torch.operator "onnx.MatMul"(%702, %96) : (!torch.vtensor<[1,8,4096],f32>, !torch.vtensor<[4096,4096],f32>) -> !torch.vtensor<[1,8,4096],f32> loc(#loc698)
    %704 = torch.operator "onnx.MatMul"(%702, %97) : (!torch.vtensor<[1,8,4096],f32>, !torch.vtensor<[4096,4096],f32>) -> !torch.vtensor<[1,8,4096],f32> loc(#loc699)
    %705 = torch.operator "onnx.MatMul"(%702, %98) : (!torch.vtensor<[1,8,4096],f32>, !torch.vtensor<[4096,4096],f32>) -> !torch.vtensor<[1,8,4096],f32> loc(#loc700)
    %706 = torch.operator "onnx.Constant"() {torch.onnx.value = dense_resource<__model_layers.4_self_attn_Constant_attr__value> : tensor<4xsi64>} : () -> !torch.vtensor<[4],si64> loc(#loc701)
    %707 = torch.operator "onnx.Constant"() {torch.onnx.value = dense_resource<__model_layers.4_self_attn_Constant_1_attr__value> : tensor<4xsi64>} : () -> !torch.vtensor<[4],si64> loc(#loc702)
    %708 = torch.operator "onnx.Constant"() {torch.onnx.value = dense_resource<__model_layers.4_self_attn_Constant_2_attr__value> : tensor<4xsi64>} : () -> !torch.vtensor<[4],si64> loc(#loc703)
    %709 = torch.operator "onnx.Reshape"(%703, %706) {torch.onnx.allowzero = 0 : si64} : (!torch.vtensor<[1,8,4096],f32>, !torch.vtensor<[4],si64>) -> !torch.vtensor<[1,8,32,128],f32> loc(#loc704)
    %710 = torch.operator "onnx.Transpose"(%709) {torch.onnx.perm = [0 : si64, 2 : si64, 1 : si64, 3 : si64]} : (!torch.vtensor<[1,8,32,128],f32>) -> !torch.vtensor<[1,32,8,128],f32> loc(#loc705)
    %711 = torch.operator "onnx.Reshape"(%704, %707) {torch.onnx.allowzero = 0 : si64} : (!torch.vtensor<[1,8,4096],f32>, !torch.vtensor<[4],si64>) -> !torch.vtensor<[1,8,32,128],f32> loc(#loc706)
    %712 = torch.operator "onnx.Transpose"(%711) {torch.onnx.perm = [0 : si64, 2 : si64, 1 : si64, 3 : si64]} : (!torch.vtensor<[1,8,32,128],f32>) -> !torch.vtensor<[1,32,8,128],f32> loc(#loc707)
    %713 = torch.operator "onnx.Reshape"(%705, %708) {torch.onnx.allowzero = 0 : si64} : (!torch.vtensor<[1,8,4096],f32>, !torch.vtensor<[4],si64>) -> !torch.vtensor<[1,8,32,128],f32> loc(#loc708)
    %714 = torch.operator "onnx.Transpose"(%713) {torch.onnx.perm = [0 : si64, 2 : si64, 1 : si64, 3 : si64]} : (!torch.vtensor<[1,8,32,128],f32>) -> !torch.vtensor<[1,32,8,128],f32> loc(#loc709)
    %715 = torch_c.to_builtin_tensor %714 : !torch.vtensor<[1,32,8,128],f32> -> tensor<1x32x8x128xf32> loc(#loc329)
    %716 = torch.operator "onnx.Constant"() {torch.onnx.value = dense_resource<__model_layers.4_self_attn_rotary_emb_Constant_attr__value> : tensor<8x128xf32>} : () -> !torch.vtensor<[8,128],f32> loc(#loc710)
    %717 = torch.operator "onnx.Constant"() {torch.onnx.value = dense_resource<__model_layers.4_self_attn_rotary_emb_Constant_1_attr__value> : tensor<8x128xf32>} : () -> !torch.vtensor<[8,128],f32> loc(#loc711)
    %718 = torch.operator "onnx.Gather"(%716, %293) {torch.onnx.axis = 0 : si64} : (!torch.vtensor<[8,128],f32>, !torch.vtensor<[1,8],si64>) -> !torch.vtensor<[1,8,128],f32> loc(#loc712)
    %719 = torch.operator "onnx.Constant"() {torch.onnx.value = dense_resource<__model_layers.4_self_attn_Constant_3_attr__value> : tensor<1xsi64>} : () -> !torch.vtensor<[1],si64> loc(#loc713)
    %720 = torch.operator "onnx.Unsqueeze"(%718, %719) : (!torch.vtensor<[1,8,128],f32>, !torch.vtensor<[1],si64>) -> !torch.vtensor<[1,1,8,128],f32> loc(#loc714)
    %721 = torch.operator "onnx.Gather"(%717, %293) {torch.onnx.axis = 0 : si64} : (!torch.vtensor<[8,128],f32>, !torch.vtensor<[1,8],si64>) -> !torch.vtensor<[1,8,128],f32> loc(#loc715)
    %722 = torch.operator "onnx.Constant"() {torch.onnx.value = dense_resource<__model_layers.4_self_attn_Constant_4_attr__value> : tensor<1xsi64>} : () -> !torch.vtensor<[1],si64> loc(#loc716)
    %723 = torch.operator "onnx.Unsqueeze"(%721, %722) : (!torch.vtensor<[1,8,128],f32>, !torch.vtensor<[1],si64>) -> !torch.vtensor<[1,1,8,128],f32> loc(#loc717)
    %724 = torch.operator "onnx.Mul"(%710, %720) : (!torch.vtensor<[1,32,8,128],f32>, !torch.vtensor<[1,1,8,128],f32>) -> !torch.vtensor<[1,32,8,128],f32> loc(#loc718)
    %725 = torch.operator "onnx.Constant"() {torch.onnx.value = dense_resource<__model_layers.4_self_attn_Constant_5_attr__value> : tensor<1xsi64>} : () -> !torch.vtensor<[1],si64> loc(#loc719)
    %726 = torch.operator "onnx.Constant"() {torch.onnx.value = dense_resource<__model_layers.4_self_attn_Constant_6_attr__value> : tensor<1xsi64>} : () -> !torch.vtensor<[1],si64> loc(#loc720)
    %727 = torch.operator "onnx.Constant"() {torch.onnx.value = dense_resource<__model_layers.4_self_attn_Constant_7_attr__value> : tensor<1xsi64>} : () -> !torch.vtensor<[1],si64> loc(#loc721)
    %728 = torch.operator "onnx.Constant"() {torch.onnx.value = dense_resource<__model_layers.4_self_attn_Constant_8_attr__value> : tensor<1xsi64>} : () -> !torch.vtensor<[1],si64> loc(#loc722)
    %729 = torch.operator "onnx.Slice"(%710, %726, %727, %725, %728) : (!torch.vtensor<[1,32,8,128],f32>, !torch.vtensor<[1],si64>, !torch.vtensor<[1],si64>, !torch.vtensor<[1],si64>, !torch.vtensor<[1],si64>) -> !torch.vtensor<[1,32,8,64],f32> loc(#loc723)
    %730 = torch.operator "onnx.Constant"() {torch.onnx.value = dense_resource<__model_layers.4_self_attn_Constant_9_attr__value> : tensor<1xsi64>} : () -> !torch.vtensor<[1],si64> loc(#loc724)
    %731 = torch.operator "onnx.Constant"() {torch.onnx.value = dense_resource<__model_layers.4_self_attn_Constant_10_attr__value> : tensor<1xsi64>} : () -> !torch.vtensor<[1],si64> loc(#loc725)
    %732 = torch.operator "onnx.Constant"() {torch.onnx.value = dense_resource<__model_layers.4_self_attn_Constant_11_attr__value> : tensor<1xsi64>} : () -> !torch.vtensor<[1],si64> loc(#loc726)
    %733 = torch.operator "onnx.Constant"() {torch.onnx.value = dense_resource<__model_layers.4_self_attn_Constant_12_attr__value> : tensor<1xsi64>} : () -> !torch.vtensor<[1],si64> loc(#loc727)
    %734 = torch.operator "onnx.Slice"(%710, %731, %732, %730, %733) : (!torch.vtensor<[1,32,8,128],f32>, !torch.vtensor<[1],si64>, !torch.vtensor<[1],si64>, !torch.vtensor<[1],si64>, !torch.vtensor<[1],si64>) -> !torch.vtensor<[1,32,8,64],f32> loc(#loc728)
    %735 = torch.operator "onnx.Neg"(%734) : (!torch.vtensor<[1,32,8,64],f32>) -> !torch.vtensor<[1,32,8,64],f32> loc(#loc729)
    %736 = torch.operator "onnx.Concat"(%735, %729) {torch.onnx.axis = -1 : si64} : (!torch.vtensor<[1,32,8,64],f32>, !torch.vtensor<[1,32,8,64],f32>) -> !torch.vtensor<[1,32,8,128],f32> loc(#loc730)
    %737 = torch.operator "onnx.Mul"(%736, %723) : (!torch.vtensor<[1,32,8,128],f32>, !torch.vtensor<[1,1,8,128],f32>) -> !torch.vtensor<[1,32,8,128],f32> loc(#loc731)
    %738 = torch.operator "onnx.Add"(%724, %737) : (!torch.vtensor<[1,32,8,128],f32>, !torch.vtensor<[1,32,8,128],f32>) -> !torch.vtensor<[1,32,8,128],f32> loc(#loc732)
    %739 = torch.operator "onnx.Mul"(%712, %720) : (!torch.vtensor<[1,32,8,128],f32>, !torch.vtensor<[1,1,8,128],f32>) -> !torch.vtensor<[1,32,8,128],f32> loc(#loc733)
    %740 = torch.operator "onnx.Constant"() {torch.onnx.value = dense_resource<__model_layers.4_self_attn_Constant_13_attr__value> : tensor<1xsi64>} : () -> !torch.vtensor<[1],si64> loc(#loc734)
    %741 = torch.operator "onnx.Constant"() {torch.onnx.value = dense_resource<__model_layers.4_self_attn_Constant_14_attr__value> : tensor<1xsi64>} : () -> !torch.vtensor<[1],si64> loc(#loc735)
    %742 = torch.operator "onnx.Constant"() {torch.onnx.value = dense_resource<__model_layers.4_self_attn_Constant_15_attr__value> : tensor<1xsi64>} : () -> !torch.vtensor<[1],si64> loc(#loc736)
    %743 = torch.operator "onnx.Constant"() {torch.onnx.value = dense_resource<__model_layers.4_self_attn_Constant_16_attr__value> : tensor<1xsi64>} : () -> !torch.vtensor<[1],si64> loc(#loc737)
    %744 = torch.operator "onnx.Slice"(%712, %741, %742, %740, %743) : (!torch.vtensor<[1,32,8,128],f32>, !torch.vtensor<[1],si64>, !torch.vtensor<[1],si64>, !torch.vtensor<[1],si64>, !torch.vtensor<[1],si64>) -> !torch.vtensor<[1,32,8,64],f32> loc(#loc738)
    %745 = torch.operator "onnx.Constant"() {torch.onnx.value = dense_resource<__model_layers.4_self_attn_Constant_17_attr__value> : tensor<1xsi64>} : () -> !torch.vtensor<[1],si64> loc(#loc739)
    %746 = torch.operator "onnx.Constant"() {torch.onnx.value = dense_resource<__model_layers.4_self_attn_Constant_18_attr__value> : tensor<1xsi64>} : () -> !torch.vtensor<[1],si64> loc(#loc740)
    %747 = torch.operator "onnx.Constant"() {torch.onnx.value = dense_resource<__model_layers.4_self_attn_Constant_19_attr__value> : tensor<1xsi64>} : () -> !torch.vtensor<[1],si64> loc(#loc741)
    %748 = torch.operator "onnx.Constant"() {torch.onnx.value = dense_resource<__model_layers.4_self_attn_Constant_20_attr__value> : tensor<1xsi64>} : () -> !torch.vtensor<[1],si64> loc(#loc742)
    %749 = torch.operator "onnx.Slice"(%712, %746, %747, %745, %748) : (!torch.vtensor<[1,32,8,128],f32>, !torch.vtensor<[1],si64>, !torch.vtensor<[1],si64>, !torch.vtensor<[1],si64>, !torch.vtensor<[1],si64>) -> !torch.vtensor<[1,32,8,64],f32> loc(#loc743)
    %750 = torch.operator "onnx.Neg"(%749) : (!torch.vtensor<[1,32,8,64],f32>) -> !torch.vtensor<[1,32,8,64],f32> loc(#loc744)
    %751 = torch.operator "onnx.Concat"(%750, %744) {torch.onnx.axis = -1 : si64} : (!torch.vtensor<[1,32,8,64],f32>, !torch.vtensor<[1,32,8,64],f32>) -> !torch.vtensor<[1,32,8,128],f32> loc(#loc745)
    %752 = torch.operator "onnx.Mul"(%751, %723) : (!torch.vtensor<[1,32,8,128],f32>, !torch.vtensor<[1,1,8,128],f32>) -> !torch.vtensor<[1,32,8,128],f32> loc(#loc746)
    %753 = torch.operator "onnx.Add"(%739, %752) : (!torch.vtensor<[1,32,8,128],f32>, !torch.vtensor<[1,32,8,128],f32>) -> !torch.vtensor<[1,32,8,128],f32> loc(#loc747)
    %754 = torch_c.to_builtin_tensor %753 : !torch.vtensor<[1,32,8,128],f32> -> tensor<1x32x8x128xf32> loc(#loc329)
    %755 = torch.operator "onnx.Transpose"(%753) {torch.onnx.perm = [0 : si64, 1 : si64, 3 : si64, 2 : si64]} : (!torch.vtensor<[1,32,8,128],f32>) -> !torch.vtensor<[1,32,128,8],f32> loc(#loc748)
    %756 = torch.operator "onnx.MatMul"(%738, %755) : (!torch.vtensor<[1,32,8,128],f32>, !torch.vtensor<[1,32,128,8],f32>) -> !torch.vtensor<[1,32,8,8],f32> loc(#loc749)
    %757 = torch.operator "onnx.Constant"() {torch.onnx.value = dense_resource<__model_layers.4_self_attn_Constant_21_attr__value> : tensor<f32>} : () -> !torch.vtensor<[],f32> loc(#loc750)
    %758 = torch.operator "onnx.Div"(%756, %757) : (!torch.vtensor<[1,32,8,8],f32>, !torch.vtensor<[],f32>) -> !torch.vtensor<[1,32,8,8],f32> loc(#loc751)
    %759 = torch.operator "onnx.Add"(%758, %302) : (!torch.vtensor<[1,32,8,8],f32>, !torch.vtensor<[?,?,8,8],f32>) -> !torch.vtensor<[?,32,8,8],f32> loc(#loc752)
    %760 = torch.operator "onnx.Softmax"(%759) {torch.onnx.axis = -1 : si64} : (!torch.vtensor<[?,32,8,8],f32>) -> !torch.vtensor<[?,32,8,8],f32> loc(#loc753)
    %761 = torch.operator "onnx.Cast"(%760) {torch.onnx.to = 1 : si64} : (!torch.vtensor<[?,32,8,8],f32>) -> !torch.vtensor<[?,32,8,8],f32> loc(#loc754)
    %762 = torch.operator "onnx.Cast"(%761) {torch.onnx.to = 1 : si64} : (!torch.vtensor<[?,32,8,8],f32>) -> !torch.vtensor<[?,32,8,8],f32> loc(#loc755)
    %763 = torch.operator "onnx.MatMul"(%762, %714) : (!torch.vtensor<[?,32,8,8],f32>, !torch.vtensor<[1,32,8,128],f32>) -> !torch.vtensor<[?,32,8,128],f32> loc(#loc756)
    %764 = torch.operator "onnx.Transpose"(%763) {torch.onnx.perm = [0 : si64, 2 : si64, 1 : si64, 3 : si64]} : (!torch.vtensor<[?,32,8,128],f32>) -> !torch.vtensor<[?,8,32,128],f32> loc(#loc757)
    %765 = torch.operator "onnx.Constant"() {torch.onnx.value = dense_resource<__model_layers.4_self_attn_Constant_22_attr__value> : tensor<3xsi64>} : () -> !torch.vtensor<[3],si64> loc(#loc758)
    %766 = torch.operator "onnx.Reshape"(%764, %765) {torch.onnx.allowzero = 0 : si64} : (!torch.vtensor<[?,8,32,128],f32>, !torch.vtensor<[3],si64>) -> !torch.vtensor<[1,8,4096],f32> loc(#loc759)
    %767 = torch.operator "onnx.MatMul"(%766, %99) : (!torch.vtensor<[1,8,4096],f32>, !torch.vtensor<[4096,4096],f32>) -> !torch.vtensor<[1,8,4096],f32> loc(#loc760)
    %768 = torch.operator "onnx.Add"(%691, %767) : (!torch.vtensor<[1,8,4096],f32>, !torch.vtensor<[1,8,4096],f32>) -> !torch.vtensor<[1,8,4096],f32> loc(#loc761)
    %769 = torch.operator "onnx.Cast"(%768) {torch.onnx.to = 1 : si64} : (!torch.vtensor<[1,8,4096],f32>) -> !torch.vtensor<[1,8,4096],f32> loc(#loc762)
…
      __model_layers.10_self_attn_Constant_18_attr__value: "0x080000004000000000000000",
      __model_layers.10_self_attn_Constant_19_attr__value: "0x08000000FFFFFFFFFFFFFF7F",
      __model_layers.10_self_attn_Constant_20_attr__value: "0x080000000100000000000000",
      __model_layers.10_self_attn_Constant_21_attr__value: "0x08000000F3043541",
      __model_layers.10_self_attn_Constant_22_attr__value: "0x08000000010000000000000008000000000000000010000000000000",
      __model_layers.10_post_attention_layernorm_Constant_attr__value: "0x0800000000000040",
      __model_layers.10_post_attention_layernorm_Constant_1_attr__value: "0x08000000ACC52737",
      __model_layers.10_post_attention_layernorm_Constant_2_attr__value: "0x080000000000803F",
      __model_layers.11_input_layernorm_Constant_attr__value: "0x0800000000000040",
      __model_layers.11_input_layernorm_Constant_1_attr__value: "0x08000000ACC52737",
      __model_layers.11_input_layernorm_Constant_2_attr__value: "0x080000000000803F",
      __model_layers.11_self_attn_Constant_3_attr__value: "0x080000000100000000000000",
      __model_layers.11_self_attn_Constant_4_attr__value: "0x080000000100000000000000",
      __model_layers.11_self_attn_Constant_5_attr__value: "0x080000000300000000000000",
      __model_layers.11_self_attn_Constant_6_attr__value: "0x080000000000000000000000",
      __model_layers.11_self_attn_Constant_7_attr__value: "0x080000004000000000000000",
      __model_layers.11_self_attn_Constant_8_attr__value: "0x080000000100000000000000",
      __model_layers.11_self_attn_Constant_9_attr__value: "0x080000000300000000000000",
      __model_layers.11_self_attn_Constant_10_attr__value: "0x080000004000000000000000",
      __model_layers.11_self_attn_Constant_11_attr__value: "0x08000000FFFFFFFFFFFFFF7F",
      __model_layers.11_self_attn_Constant_12_attr__value: "0x080000000100000000000000",
      __model_layers.11_self_attn_Constant_13_attr__value: "0x080000000300000000000000",
      __model_layers.11_self_attn_Constant_14_attr__value: "0x080000000000000000000000",
      __model_layers.11_self_attn_Constant_15_attr__value: "0x080000004000000000000000",
      __model_layers.11_self_attn_Constant_16_attr__value: "0x080000000100000000000000",
      __model_layers.11_self_attn_Constant_17_attr__value: "0x080000000300000000000000",
      __model_layers.11_self_attn_Constant_18_attr__value: "0x080000004000000000000000",
      __model_layers.11_self_attn_Constant_19_attr__value: "0x08000000FFFFFFFFFFFFFF7F",
      __model_layers.11_self_attn_Constant_20_attr__value: "0x080000000100000000000000",
      __model_layers.11_self_attn_Constant_21_attr__value: "0x08000000F3043541",
      __model_layers.11_self_attn_Constant_22_attr__value: "0x08000000010000000000000008000000000000000010000000000000",
      __model_layers.11_post_attention_layernorm_Constant_attr__value: "0x0800000000000040",
      __model_layers.11_post_attention_layernorm_Constant_1_attr__value: "0x08000000ACC52737",
      __model_layers.11_post_attention_layernorm_Constant_2_attr__value: "0x080000000000803F",
      __model_layers.12_input_layernorm_Constant_attr__value: "0x0800000000000040",
      __model_layers.12_input_layernorm_Constant_1_attr__value: "0x08000000ACC52737",
      __model_layers.12_input_layernorm_Constant_2_attr__value: "0x080000000000803F",
      __model_layers.12_self_attn_Constant_3_attr__value: "0x080000000100000000000000",
      __model_layers.12_self_attn_Constant_4_attr__value: "0x080000000100000000000000",
      __model_layers.12_self_attn_Constant_5_attr__value: "0x080000000300000000000000",
      __model_layers.12_self_attn_Constant_6_attr__value: "0x080000000000000000000000",
      __model_layers.12_self_attn_Constant_7_attr__value: "0x080000004000000000000000",
      __model_layers.12_self_attn_Constant_8_attr__value: "0x080000000100000000000000",
      __model_layers.12_self_attn_Constant_9_attr__value: "0x080000000300000000000000",
      __model_layers.12_self_attn_Constant_10_attr__value: "0x080000004000000000000000",
      __model_layers.12_self_attn_Constant_11_attr__value: "0x08000000FFFFFFFFFFFFFF7F",
      __model_layers.12_self_attn_Constant_12_attr__value: "0x080000000100000000000000",
      __model_layers.12_self_attn_Constant_13_attr__value: "0x080000000300000000000000",
      __model_layers.12_self_attn_Constant_14_attr__value: "0x080000000000000000000000",
      __model_layers.12_self_attn_Constant_15_attr__value: "0x080000004000000000000000",
      __model_layers.12_self_attn_Constant_16_attr__value: "0x080000000100000000000000",
      __model_layers.12_self_attn_Constant_17_attr__value: "0x080000000300000000000000",
      __model_layers.12_self_attn_Constant_18_attr__value: "0x080000004000000000000000",
      __model_layers.12_self_attn_Constant_19_attr__value: "0x08000000FFFFFFFFFFFFFF7F",
      __model_layers.12_self_attn_Constant_20_attr__value: "0x080000000100000000000000",
      __model_layers.12_self_attn_Constant_21_attr__value: "0x08000000F3043541",
      __model_layers.12_self_attn_Constant_22_attr__value: "0x08000000010000000000000008000000000000000010000000000000",
      __model_layers.12_post_attention_layernorm_Constant_attr__value: "0x0800000000000040",
      __model_layers.12_post_attention_layernorm_Constant_1_attr__value: "0x08000000ACC52737",
      __model_layers.12_post_attention_layernorm_Constant_2_attr__value: "0x080000000000803F",
      __model_layers.13_input_layernorm_Constant_attr__value: "0x0800000000000040",
      __model_layers.13_input_layernorm_Constant_1_attr__value: "0x08000000ACC52737",
      __model_layers.13_input_layernorm_Constant_2_attr__value: "0x080000000000803F",
      __model_layers.13_self_attn_Constant_3_attr__value: "0x080000000100000000000000",
      __model_layers.13_self_attn_Constant_4_attr__value: "0x080000000100000000000000",
      __model_layers.13_self_attn_Constant_5_attr__value: "0x080000000300000000000000",
      __model_layers.13_self_attn_Constant_6_attr__value: "0x080000000000000000000000",
      __model_layers.13_self_attn_Constant_7_attr__value: "0x080000004000000000000000",
      __model_layers.13_self_attn_Constant_8_attr__value: "0x080000000100000000000000",
      __model_layers.13_self_attn_Constant_9_attr__value: "0x080000000300000000000000",
      __model_layers.13_self_attn_Constant_10_attr__value: "0x080000004000000000000000",
      __model_layers.13_self_attn_Constant_11_attr__value: "0x08000000FFFFFFFFFFFFFF7F",
      __model_layers.13_self_attn_Constant_12_attr__value: "0x080000000100000000000000",
      __model_layers.13_self_attn_Constant_13_attr__value: "0x080000000300000000000000",
      __model_layers.13_self_attn_Constant_14_attr__value: "0x080000000000000000000000",
      __model_layers.13_self_attn_Constant_15_attr__value: "0x080000004000000000000000",
      __model_layers.13_self_attn_Constant_16_attr__value: "0x080000000100000000000000",
      __model_layers.13_self_attn_Constant_17_attr__value: "0x080000000300000000000000",
      __model_layers.13_self_attn_Constant_18_attr__value: "0x080000004000000000000000",
      __model_layers.13_self_attn_Constant_19_attr__value: "0x08000000FFFFFFFFFFFFFF7F",
      __model_layers.13_self_attn_Constant_20_attr__value: "0x080000000100000000000000",
      __model_layers.13_self_attn_Constant_21_attr__value: "0x08000000F3043541",
      __model_layers.13_self_attn_Constant_22_attr__value: "0x08000000010000000000000008000000000000000010000000000000",
      __model_layers.13_post_attention_layernorm_Constant_attr__value: "0x0800000000000040",
      __model_layers.13_post_attention_layernorm_Constant_1_attr__value: "0x08000000ACC52737",
      __model_layers.13_post_attention_layernorm_Constant_2_attr__value: "0x080000000000803F",
      __model_layers.14_input_layernorm_Constant_attr__value: "0x0800000000000040",
      __model_layers.14_input_layernorm_Constant_1_attr__value: "0x08000000ACC52737",
      __model_layers.14_input_layernorm_Constant_2_attr__value: "0x080000000000803F",
      __model_layers.14_self_attn_Constant_3_attr__value: "0x080000000100000000000000",
      __model_layers.14_self_attn_Constant_4_attr__value: "0x080000000100000000000000",
      __model_layers.14_self_attn_Constant_5_attr__value: "0x080000000300000000000000",
      __model_layers.14_self_attn_Constant_6_attr__value: "0x080000000000000000000000",
      __model_layers.14_self_attn_Constant_7_attr__value: "0x080000004000000000000000",
      __model_layers.14_self_attn_Constant_8_attr__value: "0x080000000100000000000000",
      __model_layers.14_self_attn_Constant_9_attr__value: "0x080000000300000000000000",
      __model_layers.14_self_attn_Constant_10_attr__value: "0x080000004000000000000000",
      __model_layers.14_self_attn_Constant_11_attr__value: "0x08000000FFFFFFFFFFFFFF7F",
      __model_layers.14_self_attn_Constant_12_attr__value: "0x080000000100000000000000",
      __model_layers.14_self_attn_Constant_13_attr__value: "0x080000000300000000000000",
      __model_layers.14_self_attn_Constant_14_attr__value: "0x080000000000000000000000",
      __model_layers.14_self_attn_Constant_15_attr__value: "0x080000004000000000000000",
      __model_layers.14_self_attn_Constant_16_attr__value: "0x080000000100000000000000",
      __model_layers.14_self_attn_Constant_17_attr__value: "0x080000000300000000000000",
      __model_layers.14_self_attn_Constant_18_attr__value: "0x080000004000000000000000",
      __model_layers.14_self_attn_Constant_19_attr__value: "0x08000000FFFFFFFFFFFFFF7F",
      __model_layers.14_self_attn_Constant_20_attr__value: "0x080000000100000000000000",
      __model_layers.14_self_attn_Constant_21_attr__value: "0x08000000F3043541",
      __model_layers.14_self_attn_Constant_22_attr__value: "0x08000000010000000000000008000000000000000010000000000000",
      __model_layers.14_post_attention_layernorm_Constant_attr__value: "0x0800000000000040",
      __model_layers.14_post_attention_layernorm_Constant_1_attr__value: "0x08000000ACC52737",
      __model_layers.14_post_attention_layernorm_Constant_2_attr__value: "0x080000000000803F",
      __model_layers.15_input_layernorm_Constant_attr__value: "0x0800000000000040",
      __model_layers.15_input_layernorm_Constant_1_attr__value: "0x08000000ACC52737",
      __model_layers.15_input_layernorm_Constant_2_attr__value: "0x080000000000803F",
      __model_layers.15_self_attn_Constant_3_attr__value: "0x080000000100000000000000",
      __model_layers.15_self_attn_Constant_4_attr__value: "0x080000000100000000000000",
      __model_layers.15_self_attn_Constant_5_attr__value: "0x080000000300000000000000",
      __model_layers.15_self_attn_Constant_6_attr__value: "0x080000000000000000000000",
      __model_layers.15_self_attn_Constant_7_attr__value: "0x080000004000000000000000",
      __model_layers.15_self_attn_Constant_8_attr__value: "0x080000000100000000000000",
      __model_layers.15_self_attn_Constant_9_attr__value: "0x080000000300000000000000",
      __model_layers.15_self_attn_Constant_10_attr__value: "0x080000004000000000000000",
      __model_layers.15_self_attn_Constant_11_attr__value: "0x08000000FFFFFFFFFFFFFF7F",
      __model_layers.15_self_attn_Constant_12_attr__value: "0x080000000100000000000000",
      __model_layers.15_self_attn_Constant_13_attr__value: "0x080000000300000000000000",
      __model_layers.15_self_attn_Constant_14_attr__value: "0x080000000000000000000000",
      __model_layers.15_self_attn_Constant_15_attr__value: "0x080000004000000000000000",
      __model_layers.15_self_attn_Constant_16_attr__value: "0x080000000100000000000000",
      __model_layers.15_self_attn_Constant_17_attr__value: "0x080000000300000000000000",
      __model_layers.15_self_attn_Constant_18_attr__value: "0x080000004000000000000000",
      __model_layers.15_self_attn_Constant_19_attr__value: "0x08000000FFFFFFFFFFFFFF7F",
      __model_layers.15_self_attn_Constant_20_attr__value: "0x080000000100000000000000",
      __model_layers.15_self_attn_Constant_21_attr__value: "0x08000000F3043541",
      __model_layers.15_self_attn_Constant_22_attr__value: "0x08000000010000000000000008000000000000000010000000000000",
      __model_layers.15_post_attention_layernorm_Constant_attr__value: "0x0800000000000040",
      __model_layers.15_post_attention_layernorm_Constant_1_attr__value: "0x08000000ACC52737",
      __model_layers.15_post_attention_layernorm_Constant_2_attr__value: "0x080000000000803F",
      __model_layers.16_input_layernorm_Constant_attr__value: "0x0800000000000040",
      __model_layers.16_input_layernorm_Constant_1_attr__value: "0x08000000ACC52737",
      __model_layers.16_input_layernorm_Constant_2_attr__value: "0x080000000000803F",
      __model_layers.16_self_attn_Constant_3_attr__value: "0x080000000100000000000000",
      __model_layers.16_self_attn_Constant_4_attr__value: "0x080000000100000000000000",
      __model_layers.16_self_attn_Constant_5_attr__value: "0x080000000300000000000000",
      __model_layers.16_self_attn_Constant_6_attr__value: "0x080000000000000000000000",
      __model_layers.16_self_attn_Constant_7_attr__value: "0x080000004000000000000000",
      __model_layers.16_self_attn_Constant_8_attr__value: "0x080000000100000000000000",
      __model_layers.16_self_attn_Constant_9_attr__value: "0x080000000300000000000000",
      __model_layers.16_self_attn_Constant_10_attr__value: "0x080000004000000000000000",
      __model_layers.16_self_attn_Constant_11_attr__value: "0x08000000FFFFFFFFFFFFFF7F",
      __model_layers.16_self_attn_Constant_12_attr__value: "0x080000000100000000000000",
      __model_layers.16_self_attn_Constant_13_attr__value: "0x080000000300000000000000",
      __model_layers.16_self_attn_Constant_14_attr__value: "0x080000000000000000000000",
      __model_layers.16_self_attn_Constant_15_attr__value: "0x080000004000000000000000",
      __model_layers.16_self_attn_Constant_16_attr__value: "0x080000000100000000000000",
      __model_layers.16_self_attn_Constant_17_attr__value: "0x080000000300000000000000",
      __model_layers.16_self_attn_Constant_18_attr__value: "0x080000004000000000000000",
      __model_layers.16_self_attn_Constant_19_attr__value: "0x08000000FFFFFFFFFFFFFF7F",
      __model_layers.16_self_attn_Constant_20_attr__value: "0x080000000100000000000000",
      __model_layers.16_self_attn_Constant_21_attr__value: "0x08000000F3043541",
      __model_layers.16_self_attn_Constant_22_attr__value: "0x08000000010000000000000008000000000000000010000000000000",
      __model_layers.16_post_attention_layernorm_Constant_attr__value: "0x0800000000000040",
      __model_layers.16_post_attention_layernorm_Constant_1_attr__value: "0x08000000ACC52737",
      __model_layers.16_post_attention_layernorm_Constant_2_attr__value: "0x080000000000803F",
      __model_layers.17_input_layernorm_Constant_attr__value: "0x0800000000000040",
      __model_layers.17_input_layernorm_Constant_1_attr__value: "0x08000000ACC52737",
      __model_layers.17_input_layernorm_Constant_2_attr__value: "0x080000000000803F",
      __model_layers.17_self_attn_Constant_3_attr__value: "0x080000000100000000000000",
      __model_layers.17_self_attn_Constant_4_attr__value: "0x080000000100000000000000",
      __model_layers.17_self_attn_Constant_5_attr__value: "0x080000000300000000000000",
      __model_layers.17_self_attn_Constant_6_attr__value: "0x080000000000000000000000",
      __model_layers.17_self_attn_Constant_7_attr__value: "0x080000004000000000000000",
      __model_layers.17_self_attn_Constant_8_attr__value: "0x080000000100000000000000",
      __model_layers.17_self_attn_Constant_9_attr__value: "0x080000000300000000000000",
      __model_layers.17_self_attn_Constant_10_attr__value: "0x080000004000000000000000",
      __model_layers.17_self_attn_Constant_11_attr__value: "0x08000000FFFFFFFFFFFFFF7F",
      __model_layers.17_self_attn_Constant_12_attr__value: "0x080000000100000000000000",
      __model_layers.17_self_attn_Constant_13_attr__value: "0x080000000300000000000000",
      __model_layers.17_self_attn_Constant_14_attr__value: "0x080000000000000000000000",
      __model_layers.17_self_attn_Constant_15_attr__value: "0x080000004000000000000000",
      __model_layers.17_self_attn_Constant_16_attr__value: "0x080000000100000000000000",
      __model_layers.17_self_attn_Constant_17_attr__value: "0x080000000300000000000000",
      __model_layers.17_self_attn_Constant_18_attr__value: "0x080000004000000000000000",
      __model_layers.17_self_attn_Constant_19_attr__value: "0x08000000FFFFFFFFFFFFFF7F",
      __model_layers.17_self_attn_Constant_20_attr__value: "0x080000000100000000000000",
      __model_layers.17_self_attn_Constant_21_attr__value: "0x08000000F3043541",
      __model_layers.17_self_attn_Constant_22_attr__value: "0x08000000010000000000000008000000000000000010000000000000",
      __model_layers.17_post_attention_layernorm_Constant_attr__value: "0x0800000000000040",
      __model_layers.17_post_attention_layernorm_Constant_1_attr__value: "0x08000000ACC52737",
      __model_layers.17_post_attention_layernorm_Constant_2_attr__value: "0x080000000000803F",
      __model_layers.18_input_layernorm_Constant_attr__value: "0x0800000000000040",
      __model_layers.18_input_layernorm_Constant_1_attr__value: "0x08000000ACC52737",
      __model_layers.18_input_layernorm_Constant_2_attr__value: "0x080000000000803F",
      __model_layers.18_self_attn_Constant_3_attr__value: "0x080000000100000000000000",
      __model_layers.18_self_attn_Constant_4_attr__value: "0x080000000100000000000000",
      __model_layers.18_self_attn_Constant_5_attr__value: "0x080000000300000000000000",
      __model_layers.18_self_attn_Constant_6_attr__value: "0x080000000000000000000000",
      __model_layers.18_self_attn_Constant_7_attr__value: "0x080000004000000000000000",
      __model_layers.18_self_attn_Constant_8_attr__value: "0x080000000100000000000000",
      __model_layers.18_self_attn_Constant_9_attr__value: "0x080000000300000000000000",
      __model_layers.18_self_attn_Constant_10_attr__value: "0x080000004000000000000000",
      __model_layers.18_self_attn_Constant_11_attr__value: "0x08000000FFFFFFFFFFFFFF7F",
      __model_layers.18_self_attn_Constant_12_attr__value: "0x080000000100000000000000",
      __model_layers.18_self_attn_Constant_13_attr__value: "0x080000000300000000000000",
      __model_layers.18_self_attn_Constant_14_attr__value: "0x080000000000000000000000",
      __model_layers.18_self_attn_Constant_15_attr__value: "0x080000004000000000000000",
      __model_layers.18_self_attn_Constant_16_attr__value: "0x080000000100000000000000",
      __model_layers.18_self_attn_Constant_17_attr__value: "0x080000000300000000000000",
      __model_layers.18_self_attn_Constant_18_attr__value: "0x080000004000000000000000",
      __model_layers.18_self_attn_Constant_19_attr__value: "0x08000000FFFFFFFFFFFFFF7F",
      __model_layers.18_self_attn_Constant_20_attr__value: "0x080000000100000000000000",
      __model_layers.18_self_attn_Constant_21_attr__value: "0x08000000F3043541",
      __model_layers.18_self_attn_Constant_22_attr__value: "0x08000000010000000000000008000000000000000010000000000000",
      __model_layers.18_post_attention_layernorm_Constant_attr__value: "0x0800000000000040",
      __model_layers.18_post_attention_layernorm_Constant_1_attr__value: "0x08000000ACC52737",
      __model_layers.18_post_attention_layernorm_Constant_2_attr__value: "0x080000000000803F",
      __model_layers.19_input_layernorm_Constant_attr__value: "0x0800000000000040",
      __model_layers.19_input_layernorm_Constant_1_attr__value: "0x08000000ACC52737",
      __model_layers.19_input_layernorm_Constant_2_attr__value: "0x080000000000803F",
      __model_layers.19_self_attn_Constant_3_attr__value: "0x080000000100000000000000",
      __model_layers.19_self_attn_Constant_4_attr__value: "0x080000000100000000000000",
      __model_layers.19_self_attn_Constant_5_attr__value: "0x080000000300000000000000",
      __model_layers.19_self_attn_Constant_6_attr__value: "0x080000000000000000000000",
      __model_layers.19_self_attn_Constant_7_attr__value: "0x080000004000000000000000",
      __model_layers.19_self_attn_Constant_8_attr__value: "0x080000000100000000000000",
      __model_layers.19_self_attn_Constant_9_attr__value: "0x080000000300000000000000",
      __model_layers.19_self_attn_Constant_10_attr__value: "0x080000004000000000000000",
      __model_layers.19_self_attn_Constant_11_attr__value: "0x08000000FFFFFFFFFFFFFF7F",
      __model_layers.19_self_attn_Constant_12_attr__value: "0x080000000100000000000000",
      __model_layers.19_self_attn_Constant_13_attr__value: "0x080000000300000000000000",
      __model_layers.19_self_attn_Constant_14_attr__value: "0x080000000000000000000000",
      __model_layers.19_self_attn_Constant_15_attr__value: "0x080000004000000000000000",
      __model_layers.19_self_attn_Constant_16_attr__value: "0x080000000100000000000000",
      __model_layers.19_self_attn_Constant_17_attr__value: "0x080000000300000000000000",
      __model_layers.19_self_attn_Constant_18_attr__value: "0x080000004000000000000000",
      __model_layers.19_self_attn_Constant_19_attr__value: "0x08000000FFFFFFFFFFFFFF7F",
      __model_layers.19_self_attn_Constant_20_attr__value: "0x080000000100000000000000",
      __model_layers.19_self_attn_Constant_21_attr__value: "0x08000000F3043541",
      __model_layers.19_self_attn_Constant_22_attr__value: "0x08000000010000000000000008000000000000000010000000000000",
      __model_layers.19_post_attention_layernorm_Constant_attr__value: "0x0800000000000040",
      __model_layers.19_post_attention_layernorm_Constant_1_attr__value: "0x08000000ACC52737",
      __model_layers.19_post_attention_layernorm_Constant_2_attr__value: "0x080000000000803F",
      __model_layers.20_input_layernorm_Constant_attr__value: "0x0800000000000040",
      __model_layers.20_input_layernorm_Constant_1_attr__value: "0x08000000ACC52737",
      __model_layers.20_input_layernorm_Constant_2_attr__value: "0x080000000000803F",
      __model_layers.20_self_attn_Constant_3_attr__value: "0x080000000100000000000000",
      __model_layers.20_self_attn_Constant_4_attr__value: "0x080000000100000000000000",
      __model_layers.20_self_attn_Constant_5_attr__value: "0x080000000300000000000000",
      __model_layers.20_self_attn_Constant_6_attr__value: "0x080000000000000000000000",
      __model_layers.20_self_attn_Constant_7_attr__value: "0x080000004000000000000000",
      __model_layers.20_self_attn_Constant_8_attr__value: "0x080000000100000000000000",
      __model_layers.20_self_attn_Constant_9_attr__value: "0x080000000300000000000000",
      __model_layers.20_self_attn_Constant_10_attr__value: "0x080000004000000000000000",
      __model_layers.20_self_attn_Constant_11_attr__value: "0x08000000FFFFFFFFFFFFFF7F",
      __model_layers.20_self_attn_Constant_12_attr__value: "0x080000000100000000000000",
      __model_layers.20_self_attn_Constant_13_attr__value: "0x080000000300000000000000",
      __model_layers.20_self_attn_Constant_14_attr__value: "0x080000000000000000000000",
      __model_layers.20_self_attn_Constant_15_attr__value: "0x080000004000000000000000",
      __model_layers.20_self_attn_Constant_16_attr__value: "0x080000000100000000000000",
      __model_layers.20_self_attn_Constant_17_attr__value: "0x080000000300000000000000",
      __model_layers.20_self_attn_Constant_18_attr__value: "0x080000004000000000000000",
      __model_layers.20_self_attn_Constant_19_attr__value: "0x08000000FFFFFFFFFFFFFF7F",
      __model_layers.20_self_attn_Constant_20_attr__value: "0x080000000100000000000000",
      __model_layers.20_self_attn_Constant_21_attr__value: "0x08000000F3043541",
      __model_layers.20_self_attn_Constant_22_attr__value: "0x08000000010000000000000008000000000000000010000000000000",
      __model_layers.20_post_attention_layernorm_Constant_attr__value: "0x0800000000000040",
      __model_layers.20_post_attention_layernorm_Constant_1_attr__value: "0x08000000ACC52737",
      __model_layers.20_post_attention_layernorm_Constant_2_attr__value: "0x080000000000803F",
      __model_layers.21_input_layernorm_Constant_attr__value: "0x0800000000000040",
      __model_layers.21_input_layernorm_Constant_1_attr__value: "0x08000000ACC52737",
      __model_layers.21_input_layernorm_Constant_2_attr__value: "0x080000000000803F",
      __model_layers.21_self_attn_Constant_3_attr__value: "0x080000000100000000000000",
      __model_layers.21_self_attn_Constant_4_attr__value: "0x080000000100000000000000",
      __model_layers.21_self_attn_Constant_5_attr__value: "0x080000000300000000000000",
      __model_layers.21_self_attn_Constant_6_attr__value: "0x080000000000000000000000",
      __model_layers.21_self_attn_Constant_7_attr__value: "0x080000004000000000000000",
      __model_layers.21_self_attn_Constant_8_attr__value: "0x080000000100000000000000",
      __model_layers.21_self_attn_Constant_9_attr__value: "0x080000000300000000000000",
      __model_layers.21_self_attn_Constant_10_attr__value: "0x080000004000000000000000",
      __model_layers.21_self_attn_Constant_11_attr__value: "0x08000000FFFFFFFFFFFFFF7F",
      __model_layers.21_self_attn_Constant_12_attr__value: "0x080000000100000000000000",
      __model_layers.21_self_attn_Constant_13_attr__value: "0x080000000300000000000000",
      __model_layers.21_self_attn_Constant_14_attr__value: "0x080000000000000000000000",
      __model_layers.21_self_attn_Constant_15_attr__value: "0x080000004000000000000000",
      __model_layers.21_self_attn_Constant_16_attr__value: "0x080000000100000000000000",
      __model_layers.21_self_attn_Constant_17_attr__value: "0x080000000300000000000000",
      __model_layers.21_self_attn_Constant_18_attr__value: "0x080000004000000000000000",
      __model_layers.21_self_attn_Constant_19_attr__value: "0x08000000FFFFFFFFFFFFFF7F",
      __model_layers.21_self_attn_Constant_20_attr__value: "0x080000000100000000000000",
      __model_layers.21_self_attn_Constant_21_attr__value: "0x08000000F3043541",
      __model_layers.21_self_attn_Constant_22_attr__value: "0x08000000010000000000000008000000000000000010000000000000",
      __model_layers.21_post_attention_layernorm_Constant_attr__value: "0x0800000000000040",
      __model_layers.21_post_attention_layernorm_Constant_1_attr__value: "0x08000000ACC52737",
      __model_layers.21_post_attention_layernorm_Constant_2_attr__value: "0x080000000000803F",
      __model_layers.22_input_layernorm_Constant_attr__value: "0x0800000000000040",
      __model_layers.22_input_layernorm_Constant_1_attr__value: "0x08000000ACC52737",
      __model_layers.22_input_layernorm_Constant_2_attr__value: "0x080000000000803F",
      __model_layers.22_self_attn_Constant_3_attr__value: "0x080000000100000000000000",
      __model_layers.22_self_attn_Constant_4_attr__value: "0x080000000100000000000000",
      __model_layers.22_self_attn_Constant_5_attr__value: "0x080000000300000000000000",
      __model_layers.22_self_attn_Constant_6_attr__value: "0x080000000000000000000000",
      __model_layers.22_self_attn_Constant_7_attr__value: "0x080000004000000000000000",
      __model_layers.22_self_attn_Constant_8_attr__value: "0x080000000100000000000000",
      __model_layers.22_self_attn_Constant_9_attr__value: "0x080000000300000000000000",
      __model_layers.22_self_attn_Constant_10_attr__value: "0x080000004000000000000000",
      __model_layers.22_self_attn_Constant_11_attr__value: "0x08000000FFFFFFFFFFFFFF7F",
      __model_layers.22_self_attn_Constant_12_attr__value: "0x080000000100000000000000",
      __model_layers.22_self_attn_Constant_13_attr__value: "0x080000000300000000000000",
      __model_layers.22_self_attn_Constant_14_attr__value: "0x080000000000000000000000",
      __model_layers.22_self_attn_Constant_15_attr__value: "0x080000004000000000000000",
      __model_layers.22_self_attn_Constant_16_attr__value: "0x080000000100000000000000",
      __model_layers.22_self_attn_Constant_17_attr__value: "0x080000000300000000000000",
      __model_layers.22_self_attn_Constant_18_attr__value: "0x080000004000000000000000",
      __model_layers.22_self_attn_Constant_19_attr__value: "0x08000000FFFFFFFFFFFFFF7F",
      __model_layers.22_self_attn_Constant_20_attr__value: "0x080000000100000000000000",
      __model_layers.22_self_attn_Constant_21_attr__value: "0x08000000F3043541",
      __model_layers.22_self_attn_Constant_22_attr__value: "0x08000000010000000000000008000000000000000010000000000000",
      __model_layers.22_post_attention_layernorm_Constant_attr__value: "0x0800000000000040",
      __model_layers.22_post_attention_layernorm_Constant_1_attr__value: "0x08000000ACC52737",
      __model_layers.22_post_attention_layernorm_Constant_2_attr__value: "0x080000000000803F",
      __model_layers.23_input_layernorm_Constant_attr__value: "0x0800000000000040",
      __model_layers.23_input_layernorm_Constant_1_attr__value: "0x08000000ACC52737",
      __model_layers.23_input_layernorm_Constant_2_attr__value: "0x080000000000803F",
      __model_layers.23_self_attn_Constant_3_attr__value: "0x080000000100000000000000",
      __model_layers.23_self_attn_Constant_4_attr__value: "0x080000000100000000000000",
      __model_layers.23_self_attn_Constant_5_attr__value: "0x080000000300000000000000",
      __model_layers.23_self_attn_Constant_6_attr__value: "0x080000000000000000000000",
      __model_layers.23_self_attn_Constant_7_attr__value: "0x080000004000000000000000",
      __model_layers.23_self_attn_Constant_8_attr__value: "0x080000000100000000000000",
      __model_layers.23_self_attn_Constant_9_attr__value: "0x080000000300000000000000",
      __model_layers.23_self_attn_Constant_10_attr__value: "0x080000004000000000000000",
      __model_layers.23_self_attn_Constant_11_attr__value: "0x08000000FFFFFFFFFFFFFF7F",
      __model_layers.23_self_attn_Constant_12_attr__value: "0x080000000100000000000000",
      __model_layers.23_self_attn_Constant_13_attr__value: "0x080000000300000000000000",
      __model_layers.23_self_attn_Constant_14_attr__value: "0x080000000000000000000000",
      __model_layers.23_self_attn_Constant_15_attr__value: "0x080000004000000000000000",
      __model_layers.23_self_attn_Constant_16_attr__value: "0x080000000100000000000000",
      __model_layers.23_self_attn_Constant_17_attr__value: "0x080000000300000000000000",
      __model_layers.23_self_attn_Constant_18_attr__value: "0x080000004000000000000000",
      __model_layers.23_self_attn_Constant_19_attr__value: "0x08000000FFFFFFFFFFFFFF7F",
      __model_layers.23_self_attn_Constant_20_attr__value: "0x080000000100000000000000",
      __model_layers.23_self_attn_Constant_21_attr__value: "0x08000000F3043541",
      __model_layers.23_self_attn_Constant_22_attr__value: "0x08000000010000000000000008000000000000000010000000000000",
      __model_layers.23_post_attention_layernorm_Constant_attr__value: "0x0800000000000040",
      __model_layers.23_post_attention_layernorm_Constant_1_attr__value: "0x08000000ACC52737",
      __model_layers.23_post_attention_layernorm_Constant_2_attr__value: "0x080000000000803F",
      __model_layers.24_input_layernorm_Constant_attr__value: "0x0800000000000040",
      __model_layers.24_input_layernorm_Constant_1_attr__value: "0x08000000ACC52737",
      __model_layers.24_input_layernorm_Constant_2_attr__value: "0x080000000000803F",
      __model_layers.24_self_attn_Constant_3_attr__value: "0x080000000100000000000000",
      __model_layers.24_self_attn_Constant_4_attr__value: "0x080000000100000000000000",
      __model_layers.24_self_attn_Constant_5_attr__value: "0x080000000300000000000000",
      __model_layers.24_self_attn_Constant_6_attr__value: "0x080000000000000000000000",
      __model_layers.24_self_attn_Constant_7_attr__value: "0x080000004000000000000000",
      __model_layers.24_self_attn_Constant_8_attr__value: "0x080000000100000000000000",
      __model_layers.24_self_attn_Constant_9_attr__value: "0x080000000300000000000000",
      __model_layers.24_self_attn_Constant_10_attr__value: "0x080000004000000000000000",
      __model_layers.24_self_attn_Constant_11_attr__value: "0x08000000FFFFFFFFFFFFFF7F",
      __model_layers.24_self_attn_Constant_12_attr__value: "0x080000000100000000000000",
      __model_layers.24_self_attn_Constant_13_attr__value: "0x080000000300000000000000",
      __model_layers.24_self_attn_Constant_14_attr__value: "0x080000000000000000000000",
      __model_layers.24_self_attn_Constant_15_attr__value: "0x080000004000000000000000",
      __model_layers.24_self_attn_Constant_16_attr__value: "0x080000000100000000000000",
      __model_layers.24_self_attn_Constant_17_attr__value: "0x080000000300000000000000",
      __model_layers.24_self_attn_Constant_18_attr__value: "0x080000004000000000000000",
      __model_layers.24_self_attn_Constant_19_attr__value: "0x08000000FFFFFFFFFFFFFF7F",
      __model_layers.24_self_attn_Constant_20_attr__value: "0x080000000100000000000000",
      __model_layers.24_self_attn_Constant_21_attr__value: "0x08000000F3043541",
      __model_layers.24_self_attn_Constant_22_attr__value: "0x08000000010000000000000008000000000000000010000000000000",
      __model_layers.24_post_attention_layernorm_Constant_attr__value: "0x0800000000000040",
      __model_layers.24_post_attention_layernorm_Constant_1_attr__value: "0x08000000ACC52737",
      __model_layers.24_post_attention_layernorm_Constant_2_attr__value: "0x080000000000803F",
      __model_layers.25_input_layernorm_Constant_attr__value: "0x0800000000000040",
      __model_layers.25_input_layernorm_Constant_1_attr__value: "0x08000000ACC52737",
      __model_layers.25_input_layernorm_Constant_2_attr__value: "0x080000000000803F",
      __model_layers.25_self_attn_Constant_3_attr__value: "0x080000000100000000000000",
      __model_layers.25_self_attn_Constant_4_attr__value: "0x080000000100000000000000",
      __model_layers.25_self_attn_Constant_5_attr__value: "0x080000000300000000000000",
      __model_layers.25_self_attn_Constant_6_attr__value: "0x080000000000000000000000",
      __model_layers.25_self_attn_Constant_7_attr__value: "0x080000004000000000000000",
      __model_layers.25_self_attn_Constant_8_attr__value: "0x080000000100000000000000",
      __model_layers.25_self_attn_Constant_9_attr__value: "0x080000000300000000000000",
      __model_layers.25_self_attn_Constant_10_attr__value: "0x080000004000000000000000",
      __model_layers.25_self_attn_Constant_11_attr__value: "0x08000000FFFFFFFFFFFFFF7F",
      __model_layers.25_self_attn_Constant_12_attr__value: "0x080000000100000000000000",
      __model_layers.25_self_attn_Constant_13_attr__value: "0x080000000300000000000000",
      __model_layers.25_self_attn_Constant_14_attr__value: "0x080000000000000000000000",
      __model_layers.25_self_attn_Constant_15_attr__value: "0x080000004000000000000000",
      __model_layers.25_self_attn_Constant_16_attr__value: "0x080000000100000000000000",
      __model_layers.25_self_attn_Constant_17_attr__value: "0x080000000300000000000000",
      __model_layers.25_self_attn_Constant_18_attr__value: "0x080000004000000000000000",
      __model_layers.25_self_attn_Constant_19_attr__value: "0x08000000FFFFFFFFFFFFFF7F",
      __model_layers.25_self_attn_Constant_20_attr__value: "0x080000000100000000000000",
      __model_layers.25_self_attn_Constant_21_attr__value: "0x08000000F3043541",
      __model_layers.25_self_attn_Constant_22_attr__value: "0x08000000010000000000000008000000000000000010000000000000",
      __model_layers.25_post_attention_layernorm_Constant_attr__value: "0x0800000000000040",
      __model_layers.25_post_attention_layernorm_Constant_1_attr__value: "0x08000000ACC52737",
      __model_layers.25_post_attention_layernorm_Constant_2_attr__value: "0x080000000000803F",
      __model_layers.26_input_layernorm_Constant_attr__value: "0x0800000000000040",
      __model_layers.26_input_layernorm_Constant_1_attr__value: "0x08000000ACC52737",
      __model_layers.26_input_layernorm_Constant_2_attr__value: "0x080000000000803F",
      __model_layers.26_self_attn_Constant_3_attr__value: "0x080000000100000000000000",
      __model_layers.26_self_attn_Constant_4_attr__value: "0x080000000100000000000000",
      __model_layers.26_self_attn_Constant_5_attr__value: "0x080000000300000000000000",
      __model_layers.26_self_attn_Constant_6_attr__value: "0x080000000000000000000000",
      __model_layers.26_self_attn_Constant_7_attr__value: "0x080000004000000000000000",
      __model_layers.26_self_attn_Constant_8_attr__value: "0x080000000100000000000000",
      __model_layers.26_self_attn_Constant_9_attr__value: "0x080000000300000000000000",
      __model_layers.26_self_attn_Constant_10_attr__value: "0x080000004000000000000000",
      __model_layers.26_self_attn_Constant_11_attr__value: "0x08000000FFFFFFFFFFFFFF7F",
      __model_layers.26_self_attn_Constant_12_attr__value: "0x080000000100000000000000",
      __model_layers.26_self_attn_Constant_13_attr__value: "0x080000000300000000000000",
      __model_layers.26_self_attn_Constant_14_attr__value: "0x080000000000000000000000",
      __model_layers.26_self_attn_Constant_15_attr__value: "0x080000004000000000000000",
      __model_layers.26_self_attn_Constant_16_attr__value: "0x080000000100000000000000",
      __model_layers.26_self_attn_Constant_17_attr__value: "0x080000000300000000000000",
      __model_layers.26_self_attn_Constant_18_attr__value: "0x080000004000000000000000",
      __model_layers.26_self_attn_Constant_19_attr__value: "0x08000000FFFFFFFFFFFFFF7F",
      __model_layers.26_self_attn_Constant_20_attr__value: "0x080000000100000000000000",
      __model_layers.26_self_attn_Constant_21_attr__value: "0x08000000F3043541",
      __model_layers.26_self_attn_Constant_22_attr__value: "0x08000000010000000000000008000000000000000010000000000000",
      __model_layers.26_post_attention_layernorm_Constant_attr__value: "0x0800000000000040",
      __model_layers.26_post_attention_layernorm_Constant_1_attr__value: "0x08000000ACC52737",
      __model_layers.26_post_attention_layernorm_Constant_2_attr__value: "0x080000000000803F",
      __model_layers.27_input_layernorm_Constant_attr__value: "0x0800000000000040",
      __model_layers.27_input_layernorm_Constant_1_attr__value: "0x08000000ACC52737",
      __model_layers.27_input_layernorm_Constant_2_attr__value: "0x080000000000803F",
      __model_layers.27_self_attn_Constant_3_attr__value: "0x080000000100000000000000",
      __model_layers.27_self_attn_Constant_4_attr__value: "0x080000000100000000000000",
      __model_layers.27_self_attn_Constant_5_attr__value: "0x080000000300000000000000",
      __model_layers.27_self_attn_Constant_6_attr__value: "0x080000000000000000000000",
      __model_layers.27_self_attn_Constant_7_attr__value: "0x080000004000000000000000",
      __model_layers.27_self_attn_Constant_8_attr__value: "0x080000000100000000000000",
      __model_layers.27_self_attn_Constant_9_attr__value: "0x080000000300000000000000",
      __model_layers.27_self_attn_Constant_10_attr__value: "0x080000004000000000000000",
      __model_layers.27_self_attn_Constant_11_attr__value: "0x08000000FFFFFFFFFFFFFF7F",
      __model_layers.27_self_attn_Constant_12_attr__value: "0x080000000100000000000000",
      __model_layers.27_self_attn_Constant_13_attr__value: "0x080000000300000000000000",
      __model_layers.27_self_attn_Constant_14_attr__value: "0x080000000000000000000000",
      __model_layers.27_self_attn_Constant_15_attr__value: "0x080000004000000000000000",
      __model_layers.27_self_attn_Constant_16_attr__value: "0x080000000100000000000000",
      __model_layers.27_self_attn_Constant_17_attr__value: "0x080000000300000000000000",
      __model_layers.27_self_attn_Constant_18_attr__value: "0x080000004000000000000000",
      __model_layers.27_self_attn_Constant_19_attr__value: "0x08000000FFFFFFFFFFFFFF7F",
      __model_layers.27_self_attn_Constant_20_attr__value: "0x080000000100000000000000",
      __model_layers.27_self_attn_Constant_21_attr__value: "0x08000000F3043541",
      __model_layers.27_self_attn_Constant_22_attr__value: "0x08000000010000000000000008000000000000000010000000000000",
      __model_layers.27_post_attention_layernorm_Constant_attr__value: "0x0800000000000040",
      __model_layers.27_post_attention_layernorm_Constant_1_attr__value: "0x08000000ACC52737",
      __model_layers.27_post_attention_layernorm_Constant_2_attr__value: "0x080000000000803F",
      __model_layers.28_input_layernorm_Constant_attr__value: "0x0800000000000040",
      __model_layers.28_input_layernorm_Constant_1_attr__value: "0x08000000ACC52737",
      __model_layers.28_input_layernorm_Constant_2_attr__value: "0x080000000000803F",
      __model_layers.28_self_attn_Constant_3_attr__value: "0x080000000100000000000000",
      __model_layers.28_self_attn_Constant_4_attr__value: "0x080000000100000000000000",
      __model_layers.28_self_attn_Constant_5_attr__value: "0x080000000300000000000000",
      __model_layers.28_self_attn_Constant_6_attr__value: "0x080000000000000000000000",
      __model_layers.28_self_attn_Constant_7_attr__value: "0x080000004000000000000000",
      __model_layers.28_self_attn_Constant_8_attr__value: "0x080000000100000000000000",
      __model_layers.28_self_attn_Constant_9_attr__value: "0x080000000300000000000000",
      __model_layers.28_self_attn_Constant_10_attr__value: "0x080000004000000000000000",
      __model_layers.28_self_attn_Constant_11_attr__value: "0x08000000FFFFFFFFFFFFFF7F",
      __model_layers.28_self_attn_Constant_12_attr__value: "0x080000000100000000000000",
      __model_layers.28_self_attn_Constant_13_attr__value: "0x080000000300000000000000",
      __model_layers.28_self_attn_Constant_14_attr__value: "0x080000000000000000000000",
      __model_layers.28_self_attn_Constant_15_attr__value: "0x080000004000000000000000",
      __model_layers.28_self_attn_Constant_16_attr__value: "0x080000000100000000000000",
      __model_layers.28_self_attn_Constant_17_attr__value: "0x080000000300000000000000",
      __model_layers.28_self_attn_Constant_18_attr__value: "0x080000004000000000000000",
      __model_layers.28_self_attn_Constant_19_attr__value: "0x08000000FFFFFFFFFFFFFF7F",
      __model_layers.28_self_attn_Constant_20_attr__value: "0x080000000100000000000000",
      __model_layers.28_self_attn_Constant_21_attr__value: "0x08000000F3043541",
      __model_layers.28_self_attn_Constant_22_attr__value: "0x08000000010000000000000008000000000000000010000000000000",
      __model_layers.28_post_attention_layernorm_Constant_attr__value: "0x0800000000000040",
      __model_layers.28_post_attention_layernorm_Constant_1_attr__value: "0x08000000ACC52737",
      __model_layers.28_post_attention_layernorm_Constant_2_attr__value: "0x080000000000803F",
      __model_layers.29_input_layernorm_Constant_attr__value: "0x0800000000000040",
      __model_layers.29_input_layernorm_Constant_1_attr__value: "0x08000000ACC52737",
      __model_layers.29_input_layernorm_Constant_2_attr__value: "0x080000000000803F",
      __model_layers.29_self_attn_Constant_3_attr__value: "0x080000000100000000000000",
      __model_layers.29_self_attn_Constant_4_attr__value: "0x080000000100000000000000",
      __model_layers.29_self_attn_Constant_5_attr__value: "0x080000000300000000000000",
      __model_layers.29_self_attn_Constant_6_attr__value: "0x080000000000000000000000",
      __model_layers.29_self_attn_Constant_7_attr__value: "0x080000004000000000000000",
      __model_layers.29_self_attn_Constant_8_attr__value: "0x080000000100000000000000",
      __model_layers.29_self_attn_Constant_9_attr__value: "0x080000000300000000000000",
      __model_layers.29_self_attn_Constant_10_attr__value: "0x080000004000000000000000",
      __model_layers.29_self_attn_Constant_11_attr__value: "0x08000000FFFFFFFFFFFFFF7F",
      __model_layers.29_self_attn_Constant_12_attr__value: "0x080000000100000000000000",
      __model_layers.29_self_attn_Constant_13_attr__value: "0x080000000300000000000000",
      __model_layers.29_self_attn_Constant_14_attr__value: "0x080000000000000000000000",
      __model_layers.29_self_attn_Constant_15_attr__value: "0x080000004000000000000000",
      __model_layers.29_self_attn_Constant_16_attr__value: "0x080000000100000000000000",
      __model_layers.29_self_attn_Constant_17_attr__value: "0x080000000300000000000000",
      __model_layers.29_self_attn_Constant_18_attr__value: "0x080000004000000000000000",
      __model_layers.29_self_attn_Constant_19_attr__value: "0x08000000FFFFFFFFFFFFFF7F",
      __model_layers.29_self_attn_Constant_20_attr__value: "0x080000000100000000000000",
      __model_layers.29_self_attn_Constant_21_attr__value: "0x08000000F3043541",
      __model_layers.29_self_attn_Constant_22_attr__value: "0x08000000010000000000000008000000000000000010000000000000",
      __model_layers.29_post_attention_layernorm_Constant_attr__value: "0x0800000000000040",
      __model_layers.29_post_attention_layernorm_Constant_1_attr__value: "0x08000000ACC52737",
      __model_layers.29_post_attention_layernorm_Constant_2_attr__value: "0x080000000000803F",
      __model_layers.30_input_layernorm_Constant_attr__value: "0x0800000000000040",
      __model_layers.30_input_layernorm_Constant_1_attr__value: "0x08000000ACC52737",
      __model_layers.30_input_layernorm_Constant_2_attr__value: "0x080000000000803F",
      __model_layers.30_self_attn_Constant_3_attr__value: "0x080000000100000000000000",
      __model_layers.30_self_attn_Constant_4_attr__value: "0x080000000100000000000000",
      __model_layers.30_self_attn_Constant_5_attr__value: "0x080000000300000000000000",
      __model_layers.30_self_attn_Constant_6_attr__value: "0x080000000000000000000000",
      __model_layers.30_self_attn_Constant_7_attr__value: "0x080000004000000000000000",
      __model_layers.30_self_attn_Constant_8_attr__value: "0x080000000100000000000000",
      __model_layers.30_self_attn_Constant_9_attr__value: "0x080000000300000000000000",
      __model_layers.30_self_attn_Constant_10_attr__value: "0x080000004000000000000000",
      __model_layers.30_self_attn_Constant_11_attr__value: "0x08000000FFFFFFFFFFFFFF7F",
      __model_layers.30_self_attn_Constant_12_attr__value: "0x080000000100000000000000",
      __model_layers.30_self_attn_Constant_13_attr__value: "0x080000000300000000000000",
      __model_layers.30_self_attn_Constant_14_attr__value: "0x080000000000000000000000",
      __model_layers.30_self_attn_Constant_15_attr__value: "0x080000004000000000000000",
      __model_layers.30_self_attn_Constant_16_attr__value: "0x080000000100000000000000",
      __model_layers.30_self_attn_Constant_17_attr__value: "0x080000000300000000000000",
      __model_layers.30_self_attn_Constant_18_attr__value: "0x080000004000000000000000",
      __model_layers.30_self_attn_Constant_19_attr__value: "0x08000000FFFFFFFFFFFFFF7F",
      __model_layers.30_self_attn_Constant_20_attr__value: "0x080000000100000000000000",
      __model_layers.30_self_attn_Constant_21_attr__value: "0x08000000F3043541",
      __model_layers.30_self_attn_Constant_22_attr__value: "0x08000000010000000000000008000000000000000010000000000000",
      __model_layers.30_post_attention_layernorm_Constant_attr__value: "0x0800000000000040",
      __model_layers.30_post_attention_layernorm_Constant_1_attr__value: "0x08000000ACC52737",
      __model_layers.30_post_attention_layernorm_Constant_2_attr__value: "0x080000000000803F",
      __model_layers.31_input_layernorm_Constant_attr__value: "0x0800000000000040",
      __model_layers.31_input_layernorm_Constant_1_attr__value: "0x08000000ACC52737",
      __model_layers.31_input_layernorm_Constant_2_attr__value: "0x080000000000803F",
      __model_layers.31_self_attn_Constant_3_attr__value: "0x080000000100000000000000",
      __model_layers.31_self_attn_Constant_4_attr__value: "0x080000000100000000000000",
      __model_layers.31_self_attn_Constant_5_attr__value: "0x080000000300000000000000",
      __model_layers.31_self_attn_Constant_6_attr__value: "0x080000000000000000000000",
      __model_layers.31_self_attn_Constant_7_attr__value: "0x080000004000000000000000",
      __model_layers.31_self_attn_Constant_8_attr__value: "0x080000000100000000000000",
      __model_layers.31_self_attn_Constant_9_attr__value: "0x080000000300000000000000",
      __model_layers.31_self_attn_Constant_10_attr__value: "0x080000004000000000000000",
      __model_layers.31_self_attn_Constant_11_attr__value: "0x08000000FFFFFFFFFFFFFF7F",
      __model_layers.31_self_attn_Constant_12_attr__value: "0x080000000100000000000000",
      __model_layers.31_self_attn_Constant_13_attr__value: "0x080000000300000000000000",
      __model_layers.31_self_attn_Constant_14_attr__value: "0x080000000000000000000000",
      __model_layers.31_self_attn_Constant_15_attr__value: "0x080000004000000000000000",
      __model_layers.31_self_attn_Constant_16_attr__value: "0x080000000100000000000000",
      __model_layers.31_self_attn_Constant_17_attr__value: "0x080000000300000000000000",
      __model_layers.31_self_attn_Constant_18_attr__value: "0x080000004000000000000000",
      __model_layers.31_self_attn_Constant_19_attr__value: "0x08000000FFFFFFFFFFFFFF7F",
      __model_layers.31_self_attn_Constant_20_attr__value: "0x080000000100000000000000",
      __model_layers.31_self_attn_Constant_21_attr__value: "0x08000000F3043541",
      __model_layers.31_self_attn_Constant_22_attr__value: "0x08000000010000000000000008000000000000000010000000000000",
      __model_layers.31_post_attention_layernorm_Constant_attr__value: "0x0800000000000040",
      __model_layers.31_post_attention_layernorm_Constant_1_attr__value: "0x08000000ACC52737",
      __model_layers.31_post_attention_layernorm_Constant_2_attr__value: "0x080000000000803F",
      __model_norm_Constant_attr__value: "0x0800000000000040",
      __model_norm_Constant_1_attr__value: "0x08000000ACC52737",
      __model_norm_Constant_2_attr__value: "0x080000000000803F"
    }
  }
#-}


