module {
  func.func @main_graph(%arg0: !torch.vtensor<[1,8],si64>) -> (!torch.vtensor<[1,8,32000],f32>, !torch.vtensor<[1,32,8,128],f32>, !torch.vtensor<[1,32,8,128],f32>, !torch.vtensor<[1,32,8,128],f32>, !torch.vtensor<[1,32,8,128],f32>, !torch.vtensor<[1,32,8,128],f32>, !torch.vtensor<[1,32,8,128],f32>, !torch.vtensor<[1,32,8,128],f32>, !torch.vtensor<[1,32,8,128],f32>, !torch.vtensor<[1,32,8,128],f32>, !torch.vtensor<[1,32,8,128],f32>, !torch.vtensor<[1,32,8,128],f32>, !torch.vtensor<[1,32,8,128],f32>, !torch.vtensor<[1,32,8,128],f32>, !torch.vtensor<[1,32,8,128],f32>, !torch.vtensor<[1,32,8,128],f32>, !torch.vtensor<[1,32,8,128],f32>, !torch.vtensor<[1,32,8,128],f32>, !torch.vtensor<[1,32,8,128],f32>, !torch.vtensor<[1,32,8,128],f32>, !torch.vtensor<[1,32,8,128],f32>, !torch.vtensor<[1,32,8,128],f32>, !torch.vtensor<[1,32,8,128],f32>, !torch.vtensor<[1,32,8,128],f32>, !torch.vtensor<[1,32,8,128],f32>, !torch.vtensor<[1,32,8,128],f32>, !torch.vtensor<[1,32,8,128],f32>, !torch.vtensor<[1,32,8,128],f32>, !torch.vtensor<[1,32,8,128],f32>, !torch.vtensor<[1,32,8,128],f32>, !torch.vtensor<[1,32,8,128],f32>, !torch.vtensor<[1,32,8,128],f32>, !torch.vtensor<[1,32,8,128],f32>, !torch.vtensor<[1,32,8,128],f32>, !torch.vtensor<[1,32,8,128],f32>, !torch.vtensor<[1,32,8,128],f32>, !torch.vtensor<[1,32,8,128],f32>, !torch.vtensor<[1,32,8,128],f32>, !torch.vtensor<[1,32,8,128],f32>, !torch.vtensor<[1,32,8,128],f32>, !torch.vtensor<[1,32,8,128],f32>, !torch.vtensor<[1,32,8,128],f32>, !torch.vtensor<[1,32,8,128],f32>, !torch.vtensor<[1,32,8,128],f32>, !torch.vtensor<[1,32,8,128],f32>, !torch.vtensor<[1,32,8,128],f32>, !torch.vtensor<[1,32,8,128],f32>, !torch.vtensor<[1,32,8,128],f32>, !torch.vtensor<[1,32,8,128],f32>, !torch.vtensor<[1,32,8,128],f32>, !torch.vtensor<[1,32,8,128],f32>, !torch.vtensor<[1,32,8,128],f32>, !torch.vtensor<[1,32,8,128],f32>, !torch.vtensor<[1,32,8,128],f32>, !torch.vtensor<[1,32,8,128],f32>, !torch.vtensor<[1,32,8,128],f32>, !torch.vtensor<[1,32,8,128],f32>, !torch.vtensor<[1,32,8,128],f32>, !torch.vtensor<[1,32,8,128],f32>, !torch.vtensor<[1,32,8,128],f32>, !torch.vtensor<[1,32,8,128],f32>, !torch.vtensor<[1,32,8,128],f32>, !torch.vtensor<[1,32,8,128],f32>, !torch.vtensor<[1,32,8,128],f32>, !torch.vtensor<[1,32,8,128],f32>) attributes {torch.onnx_meta.ir_version = 8 : si64, torch.onnx_meta.opset_version = 17 : si64, torch.onnx_meta.producer_name = "pytorch", torch.onnx_meta.producer_version = "2.3.0"} {
    %0 = torch.operator "onnx.Constant"() {torch.onnx.value = dense_resource<_model.embed_tokens.weight> : tensor<32000x4096xf32>} : () -> !torch.vtensor<[32000,4096],f32>
    %1 = torch.operator "onnx.Constant"() {torch.onnx.value = dense_resource<_model.layers.0.input_layernorm.weight> : tensor<4096xf32>} : () -> !torch.vtensor<[4096],f32>
    %2 = torch.operator "onnx.Constant"() {torch.onnx.value = dense_resource<_model.layers.0.post_attention_layernorm.weight> : tensor<4096xf32>} : () -> !torch.vtensor<[4096],f32>
    %3 = torch.operator "onnx.Constant"() {torch.onnx.value = dense_resource<_model.layers.1.input_layernorm.weight> : tensor<4096xf32>} : () -> !torch.vtensor<[4096],f32>
    %4 = torch.operator "onnx.Constant"() {torch.onnx.value = dense_resource<_model.layers.1.post_attention_layernorm.weight> : tensor<4096xf32>} : () -> !torch.vtensor<[4096],f32>
    %5 = torch.operator "onnx.Constant"() {torch.onnx.value = dense_resource<_model.layers.2.input_layernorm.weight> : tensor<4096xf32>} : () -> !torch.vtensor<[4096],f32>
    %6 = torch.operator "onnx.Constant"() {torch.onnx.value = dense_resource<_model.layers.2.post_attention_layernorm.weight> : tensor<4096xf32>} : () -> !torch.vtensor<[4096],f32>
    %7 = torch.operator "onnx.Constant"() {torch.onnx.value = dense_resource<_model.layers.3.input_layernorm.weight> : tensor<4096xf32>} : () -> !torch.vtensor<[4096],f32>
    %8 = torch.operator "onnx.Constant"() {torch.onnx.value = dense_resource<_model.layers.3.post_attention_layernorm.weight> : tensor<4096xf32>} : () -> !torch.vtensor<[4096],f32>
    %9 = torch.operator "onnx.Constant"() {torch.onnx.value = dense_resource<_model.layers.4.input_layernorm.weight> : tensor<4096xf32>} : () -> !torch.vtensor<[4096],f32>
    %10 = torch.operator "onnx.Constant"() {torch.onnx.value = dense_resource<_model.layers.4.post_attention_layernorm.weight> : tensor<4096xf32>} : () -> !torch.vtensor<[4096],f32>
    %11 = torch.operator "onnx.Constant"() {torch.onnx.value = dense_resource<_model.layers.5.input_layernorm.weight> : tensor<4096xf32>} : () -> !torch.vtensor<[4096],f32>
    %12 = torch.operator "onnx.Constant"() {torch.onnx.value = dense_resource<_model.layers.5.post_attention_layernorm.weight> : tensor<4096xf32>} : () -> !torch.vtensor<[4096],f32>
    %13 = torch.operator "onnx.Constant"() {torch.onnx.value = dense_resource<_model.layers.6.input_layernorm.weight> : tensor<4096xf32>} : () -> !torch.vtensor<[4096],f32>
    %14 = torch.operator "onnx.Constant"() {torch.onnx.value = dense_resource<_model.layers.6.post_attention_layernorm.weight> : tensor<4096xf32>} : () -> !torch.vtensor<[4096],f32>
    %15 = torch.operator "onnx.Constant"() {torch.onnx.value = dense_resource<_model.layers.7.input_layernorm.weight> : tensor<4096xf32>} : () -> !torch.vtensor<[4096],f32>
    %16 = torch.operator "onnx.Constant"() {torch.onnx.value = dense_resource<_model.layers.7.post_attention_layernorm.weight> : tensor<4096xf32>} : () -> !torch.vtensor<[4096],f32>
    %17 = torch.operator "onnx.Constant"() {torch.onnx.value = dense_resource<_model.layers.8.input_layernorm.weight> : tensor<4096xf32>} : () -> !torch.vtensor<[4096],f32>
    %18 = torch.operator "onnx.Constant"() {torch.onnx.value = dense_resource<_model.layers.8.post_attention_layernorm.weight> : tensor<4096xf32>} : () -> !torch.vtensor<[4096],f32>
    %19 = torch.operator "onnx.Constant"() {torch.onnx.value = dense_resource<_model.layers.9.input_layernorm.weight> : tensor<4096xf32>} : () -> !torch.vtensor<[4096],f32>
    %20 = torch.operator "onnx.Constant"() {torch.onnx.value = dense_resource<_model.layers.9.post_attention_layernorm.weight> : tensor<4096xf32>} : () -> !torch.vtensor<[4096],f32>
    %21 = torch.operator "onnx.Constant"() {torch.onnx.value = dense_resource<_model.layers.10.input_layernorm.weight> : tensor<4096xf32>} : () -> !torch.vtensor<[4096],f32>
    %22 = torch.operator "onnx.Constant"() {torch.onnx.value = dense_resource<_model.layers.10.post_attention_layernorm.weight> : tensor<4096xf32>} : () -> !torch.vtensor<[4096],f32>
    %23 = torch.operator "onnx.Constant"() {torch.onnx.value = dense_resource<_model.layers.11.input_layernorm.weight> : tensor<4096xf32>} : () -> !torch.vtensor<[4096],f32>
    %24 = torch.operator "onnx.Constant"() {torch.onnx.value = dense_resource<_model.layers.11.post_attention_layernorm.weight> : tensor<4096xf32>} : () -> !torch.vtensor<[4096],f32>
    %25 = torch.operator "onnx.Constant"() {torch.onnx.value = dense_resource<_model.layers.12.input_layernorm.weight> : tensor<4096xf32>} : () -> !torch.vtensor<[4096],f32>
    %26 = torch.operator "onnx.Constant"() {torch.onnx.value = dense_resource<_model.layers.12.post_attention_layernorm.weight> : tensor<4096xf32>} : () -> !torch.vtensor<[4096],f32>
    %27 = torch.operator "onnx.Constant"() {torch.onnx.value = dense_resource<_model.layers.13.input_layernorm.weight> : tensor<4096xf32>} : () -> !torch.vtensor<[4096],f32>
    %28 = torch.operator "onnx.Constant"() {torch.onnx.value = dense_resource<_model.layers.13.post_attention_layernorm.weight> : tensor<4096xf32>} : () -> !torch.vtensor<[4096],f32>
    %29 = torch.operator "onnx.Constant"() {torch.onnx.value = dense_resource<_model.layers.14.input_layernorm.weight> : tensor<4096xf32>} : () -> !torch.vtensor<[4096],f32>
    %30 = torch.operator "onnx.Constant"() {torch.onnx.value = dense_resource<_model.layers.14.post_attention_layernorm.weight> : tensor<4096xf32>} : () -> !torch.vtensor<[4096],f32>
    %31 = torch.operator "onnx.Constant"() {torch.onnx.value = dense_resource<_model.layers.15.input_layernorm.weight> : tensor<4096xf32>} : () -> !torch.vtensor<[4096],f32>
    %32 = torch.operator "onnx.Constant"() {torch.onnx.value = dense_resource<_model.layers.15.post_attention_layernorm.weight> : tensor<4096xf32>} : () -> !torch.vtensor<[4096],f32>
    %33 = torch.operator "onnx.Constant"() {torch.onnx.value = dense_resource<_model.layers.16.input_layernorm.weight> : tensor<4096xf32>} : () -> !torch.vtensor<[4096],f32>
    %34 = torch.operator "onnx.Constant"() {torch.onnx.value = dense_resource<_model.layers.16.post_attention_layernorm.weight> : tensor<4096xf32>} : () -> !torch.vtensor<[4096],f32>
    %35 = torch.operator "onnx.Constant"() {torch.onnx.value = dense_resource<_model.layers.17.input_layernorm.weight> : tensor<4096xf32>} : () -> !torch.vtensor<[4096],f32>
    %36 = torch.operator "onnx.Constant"() {torch.onnx.value = dense_resource<_model.layers.17.post_attention_layernorm.weight> : tensor<4096xf32>} : () -> !torch.vtensor<[4096],f32>
    %37 = torch.operator "onnx.Constant"() {torch.onnx.value = dense_resource<_model.layers.18.input_layernorm.weight> : tensor<4096xf32>} : () -> !torch.vtensor<[4096],f32>
    %38 = torch.operator "onnx.Constant"() {torch.onnx.value = dense_resource<_model.layers.18.post_attention_layernorm.weight> : tensor<4096xf32>} : () -> !torch.vtensor<[4096],f32>
    %39 = torch.operator "onnx.Constant"() {torch.onnx.value = dense_resource<_model.layers.19.input_layernorm.weight> : tensor<4096xf32>} : () -> !torch.vtensor<[4096],f32>
    %40 = torch.operator "onnx.Constant"() {torch.onnx.value = dense_resource<_model.layers.19.post_attention_layernorm.weight> : tensor<4096xf32>} : () -> !torch.vtensor<[4096],f32>
    %41 = torch.operator "onnx.Constant"() {torch.onnx.value = dense_resource<_model.layers.20.input_layernorm.weight> : tensor<4096xf32>} : () -> !torch.vtensor<[4096],f32>
    %42 = torch.operator "onnx.Constant"() {torch.onnx.value = dense_resource<_model.layers.20.post_attention_layernorm.weight> : tensor<4096xf32>} : () -> !torch.vtensor<[4096],f32>
    %43 = torch.operator "onnx.Constant"() {torch.onnx.value = dense_resource<_model.layers.21.input_layernorm.weight> : tensor<4096xf32>} : () -> !torch.vtensor<[4096],f32>
    %44 = torch.operator "onnx.Constant"() {torch.onnx.value = dense_resource<_model.layers.21.post_attention_layernorm.weight> : tensor<4096xf32>} : () -> !torch.vtensor<[4096],f32>
    %45 = torch.operator "onnx.Constant"() {torch.onnx.value = dense_resource<_model.layers.22.input_layernorm.weight> : tensor<4096xf32>} : () -> !torch.vtensor<[4096],f32>
    %46 = torch.operator "onnx.Constant"() {torch.onnx.value = dense_resource<_model.layers.22.post_attention_layernorm.weight> : tensor<4096xf32>} : () -> !torch.vtensor<[4096],f32>
    %47 = torch.operator "onnx.Constant"() {torch.onnx.value = dense_resource<_model.layers.23.input_layernorm.weight> : tensor<4096xf32>} : () -> !torch.vtensor<[4096],f32>
    %48 = torch.operator "onnx.Constant"() {torch.onnx.value = dense_resource<_model.layers.23.post_attention_layernorm.weight> : tensor<4096xf32>} : () -> !torch.vtensor<[4096],f32>
    %49 = torch.operator "onnx.Constant"() {torch.onnx.value = dense_resource<_model.layers.24.input_layernorm.weight> : tensor<4096xf32>} : () -> !torch.vtensor<[4096],f32>
    %50 = torch.operator "onnx.Constant"() {torch.onnx.value = dense_resource<_model.layers.24.post_attention_layernorm.weight> : tensor<4096xf32>} : () -> !torch.vtensor<[4096],f32>
    %51 = torch.operator "onnx.Constant"() {torch.onnx.value = dense_resource<_model.layers.25.input_layernorm.weight> : tensor<4096xf32>} : () -> !torch.vtensor<[4096],f32>
    %52 = torch.operator "onnx.Constant"() {torch.onnx.value = dense_resource<_model.layers.25.post_attention_layernorm.weight> : tensor<4096xf32>} : () -> !torch.vtensor<[4096],f32>
    %53 = torch.operator "onnx.Constant"() {torch.onnx.value = dense_resource<_model.layers.26.input_layernorm.weight> : tensor<4096xf32>} : () -> !torch.vtensor<[4096],f32>
    %54 = torch.operator "onnx.Constant"() {torch.onnx.value = dense_resource<_model.layers.26.post_attention_layernorm.weight> : tensor<4096xf32>} : () -> !torch.vtensor<[4096],f32>
    %55 = torch.operator "onnx.Constant"() {torch.onnx.value = dense_resource<_model.layers.27.input_layernorm.weight> : tensor<4096xf32>} : () -> !torch.vtensor<[4096],f32>
    %56 = torch.operator "onnx.Constant"() {torch.onnx.value = dense_resource<_model.layers.27.post_attention_layernorm.weight> : tensor<4096xf32>} : () -> !torch.vtensor<[4096],f32>
    %57 = torch.operator "onnx.Constant"() {torch.onnx.value = dense_resource<_model.layers.28.input_layernorm.weight> : tensor<4096xf32>} : () -> !torch.vtensor<[4096],f32>
    %58 = torch.operator "onnx.Constant"() {torch.onnx.value = dense_resource<_model.layers.28.post_attention_layernorm.weight> : tensor<4096xf32>} : () -> !torch.vtensor<[4096],f32>
    %59 = torch.operator "onnx.Constant"() {torch.onnx.value = dense_resource<_model.layers.29.input_layernorm.weight> : tensor<4096xf32>} : () -> !torch.vtensor<[4096],f32>
    %60 = torch.operator "onnx.Constant"() {torch.onnx.value = dense_resource<_model.layers.29.post_attention_layernorm.weight> : tensor<4096xf32>} : () -> !torch.vtensor<[4096],f32>
    %61 = torch.operator "onnx.Constant"() {torch.onnx.value = dense_resource<_model.layers.30.input_layernorm.weight> : tensor<4096xf32>} : () -> !torch.vtensor<[4096],f32>
    %62 = torch.operator "onnx.Constant"() {torch.onnx.value = dense_resource<_model.layers.30.post_attention_layernorm.weight> : tensor<4096xf32>} : () -> !torch.vtensor<[4096],f32>
    %63 = torch.operator "onnx.Constant"() {torch.onnx.value = dense_resource<_model.layers.31.input_layernorm.weight> : tensor<4096xf32>} : () -> !torch.vtensor<[4096],f32>
    %64 = torch.operator "onnx.Constant"() {torch.onnx.value = dense_resource<_model.layers.31.post_attention_layernorm.weight> : tensor<4096xf32>} : () -> !torch.vtensor<[4096],f32>
    %65 = torch.operator "onnx.Constant"() {torch.onnx.value = dense_resource<_model.norm.weight> : tensor<4096xf32>} : () -> !torch.vtensor<[4096],f32>
    %66 = torch.operator "onnx.Constant"() {torch.onnx.value = dense_resource<_onnx__MatMul_5237> : tensor<4096x4096xf32>} : () -> !torch.vtensor<[4096,4096],f32>
    %67 = torch.operator "onnx.Constant"() {torch.onnx.value = dense_resource<_onnx__MatMul_5238> : tensor<4096x4096xf32>} : () -> !torch.vtensor<[4096,4096],f32>
    %68 = torch.operator "onnx.Constant"() {torch.onnx.value = dense_resource<_onnx__MatMul_5239> : tensor<4096x4096xf32>} : () -> !torch.vtensor<[4096,4096],f32>
    %69 = torch.operator "onnx.Constant"() {torch.onnx.value = dense_resource<_onnx__MatMul_5275> : tensor<4096x4096xf32>} : () -> !torch.vtensor<[4096,4096],f32>
    %70 = torch.operator "onnx.Constant"() {torch.onnx.value = dense_resource<_onnx__MatMul_5276> : tensor<4096x11008xf32>} : () -> !torch.vtensor<[4096,11008],f32>
    %71 = torch.operator "onnx.Constant"() {torch.onnx.value = dense_resource<_onnx__MatMul_5277> : tensor<4096x11008xf32>} : () -> !torch.vtensor<[4096,11008],f32>
    %72 = torch.operator "onnx.Constant"() {torch.onnx.value = dense_resource<_onnx__MatMul_5278> : tensor<11008x4096xf32>} : () -> !torch.vtensor<[11008,4096],f32>
    %73 = torch.operator "onnx.Constant"() {torch.onnx.value = dense_resource<_onnx__MatMul_5279> : tensor<4096x4096xf32>} : () -> !torch.vtensor<[4096,4096],f32>
    %74 = torch.operator "onnx.Constant"() {torch.onnx.value = dense_resource<_onnx__MatMul_5280> : tensor<4096x4096xf32>} : () -> !torch.vtensor<[4096,4096],f32>
    %75 = torch.operator "onnx.Constant"() {torch.onnx.value = dense_resource<_onnx__MatMul_5281> : tensor<4096x4096xf32>} : () -> !torch.vtensor<[4096,4096],f32>
    %76 = torch.operator "onnx.Constant"() {torch.onnx.value = dense_resource<_onnx__MatMul_5317> : tensor<4096x4096xf32>} : () -> !torch.vtensor<[4096,4096],f32>
    %77 = torch.operator "onnx.Constant"() {torch.onnx.value = dense_resource<_onnx__MatMul_5318> : tensor<4096x11008xf32>} : () -> !torch.vtensor<[4096,11008],f32>
    %78 = torch.operator "onnx.Constant"() {torch.onnx.value = dense_resource<_onnx__MatMul_5319> : tensor<4096x11008xf32>} : () -> !torch.vtensor<[4096,11008],f32>
    %79 = torch.operator "onnx.Constant"() {torch.onnx.value = dense_resource<_onnx__MatMul_5320> : tensor<11008x4096xf32>} : () -> !torch.vtensor<[11008,4096],f32>
    %80 = torch.operator "onnx.Constant"() {torch.onnx.value = dense_resource<_onnx__MatMul_5321> : tensor<4096x4096xf32>} : () -> !torch.vtensor<[4096,4096],f32>
    %81 = torch.operator "onnx.Constant"() {torch.onnx.value = dense_resource<_onnx__MatMul_5322> : tensor<4096x4096xf32>} : () -> !torch.vtensor<[4096,4096],f32>
    %82 = torch.operator "onnx.Constant"() {torch.onnx.value = dense_resource<_onnx__MatMul_5323> : tensor<4096x4096xf32>} : () -> !torch.vtensor<[4096,4096],f32>
    %83 = torch.operator "onnx.Constant"() {torch.onnx.value = dense_resource<_onnx__MatMul_5359> : tensor<4096x4096xf32>} : () -> !torch.vtensor<[4096,4096],f32>
    %84 = torch.operator "onnx.Constant"() {torch.onnx.value = dense_resource<_onnx__MatMul_5360> : tensor<4096x11008xf32>} : () -> !torch.vtensor<[4096,11008],f32>
    %85 = torch.operator "onnx.Constant"() {torch.onnx.value = dense_resource<_onnx__MatMul_5361> : tensor<4096x11008xf32>} : () -> !torch.vtensor<[4096,11008],f32>
    %86 = torch.operator "onnx.Constant"() {torch.onnx.value = dense_resource<_onnx__MatMul_5362> : tensor<11008x4096xf32>} : () -> !torch.vtensor<[11008,4096],f32>
    %87 = torch.operator "onnx.Constant"() {torch.onnx.value = dense_resource<_onnx__MatMul_5363> : tensor<4096x4096xf32>} : () -> !torch.vtensor<[4096,4096],f32>
    %88 = torch.operator "onnx.Constant"() {torch.onnx.value = dense_resource<_onnx__MatMul_5364> : tensor<4096x4096xf32>} : () -> !torch.vtensor<[4096,4096],f32>
    %89 = torch.operator "onnx.Constant"() {torch.onnx.value = dense_resource<_onnx__MatMul_5365> : tensor<4096x4096xf32>} : () -> !torch.vtensor<[4096,4096],f32>
    %90 = torch.operator "onnx.Constant"() {torch.onnx.value = dense_resource<_onnx__MatMul_5401> : tensor<4096x4096xf32>} : () -> !torch.vtensor<[4096,4096],f32>
    %91 = torch.operator "onnx.Constant"() {torch.onnx.value = dense_resource<_onnx__MatMul_5402> : tensor<4096x11008xf32>} : () -> !torch.vtensor<[4096,11008],f32>
    %92 = torch.operator "onnx.Constant"() {torch.onnx.value = dense_resource<_onnx__MatMul_5403> : tensor<4096x11008xf32>} : () -> !torch.vtensor<[4096,11008],f32>
    %93 = torch.operator "onnx.Constant"() {torch.onnx.value = dense_resource<_onnx__MatMul_5404> : tensor<11008x4096xf32>} : () -> !torch.vtensor<[11008,4096],f32>
    %94 = torch.operator "onnx.Constant"() {torch.onnx.value = dense_resource<_onnx__MatMul_5405> : tensor<4096x4096xf32>} : () -> !torch.vtensor<[4096,4096],f32>
    %95 = torch.operator "onnx.Constant"() {torch.onnx.value = dense_resource<_onnx__MatMul_5406> : tensor<4096x4096xf32>} : () -> !torch.vtensor<[4096,4096],f32>
    %96 = torch.operator "onnx.Constant"() {torch.onnx.value = dense_resource<_onnx__MatMul_5407> : tensor<4096x4096xf32>} : () -> !torch.vtensor<[4096,4096],f32>
    %97 = torch.operator "onnx.Constant"() {torch.onnx.value = dense_resource<_onnx__MatMul_5443> : tensor<4096x4096xf32>} : () -> !torch.vtensor<[4096,4096],f32>
    %98 = torch.operator "onnx.Constant"() {torch.onnx.value = dense_resource<_onnx__MatMul_5444> : tensor<4096x11008xf32>} : () -> !torch.vtensor<[4096,11008],f32>
    %99 = torch.operator "onnx.Constant"() {torch.onnx.value = dense_resource<_onnx__MatMul_5445> : tensor<4096x11008xf32>} : () -> !torch.vtensor<[4096,11008],f32>
    %100 = torch.operator "onnx.Constant"() {torch.onnx.value = dense_resource<_onnx__MatMul_5446> : tensor<11008x4096xf32>} : () -> !torch.vtensor<[11008,4096],f32>
    %101 = torch.operator "onnx.Constant"() {torch.onnx.value = dense_resource<_onnx__MatMul_5447> : tensor<4096x4096xf32>} : () -> !torch.vtensor<[4096,4096],f32>
    %102 = torch.operator "onnx.Constant"() {torch.onnx.value = dense_resource<_onnx__MatMul_5448> : tensor<4096x4096xf32>} : () -> !torch.vtensor<[4096,4096],f32>
    %103 = torch.operator "onnx.Constant"() {torch.onnx.value = dense_resource<_onnx__MatMul_5449> : tensor<4096x4096xf32>} : () -> !torch.vtensor<[4096,4096],f32>
    %104 = torch.operator "onnx.Constant"() {torch.onnx.value = dense_resource<_onnx__MatMul_5485> : tensor<4096x4096xf32>} : () -> !torch.vtensor<[4096,4096],f32>
    %105 = torch.operator "onnx.Constant"() {torch.onnx.value = dense_resource<_onnx__MatMul_5486> : tensor<4096x11008xf32>} : () -> !torch.vtensor<[4096,11008],f32>
    %106 = torch.operator "onnx.Constant"() {torch.onnx.value = dense_resource<_onnx__MatMul_5487> : tensor<4096x11008xf32>} : () -> !torch.vtensor<[4096,11008],f32>
    %107 = torch.operator "onnx.Constant"() {torch.onnx.value = dense_resource<_onnx__MatMul_5488> : tensor<11008x4096xf32>} : () -> !torch.vtensor<[11008,4096],f32>
    %108 = torch.operator "onnx.Constant"() {torch.onnx.value = dense_resource<_onnx__MatMul_5489> : tensor<4096x4096xf32>} : () -> !torch.vtensor<[4096,4096],f32>
    %109 = torch.operator "onnx.Constant"() {torch.onnx.value = dense_resource<_onnx__MatMul_5490> : tensor<4096x4096xf32>} : () -> !torch.vtensor<[4096,4096],f32>
    %110 = torch.operator "onnx.Constant"() {torch.onnx.value = dense_resource<_onnx__MatMul_5491> : tensor<4096x4096xf32>} : () -> !torch.vtensor<[4096,4096],f32>
    %111 = torch.operator "onnx.Constant"() {torch.onnx.value = dense_resource<_onnx__MatMul_5527> : tensor<4096x4096xf32>} : () -> !torch.vtensor<[4096,4096],f32>
    %112 = torch.operator "onnx.Constant"() {torch.onnx.value = dense_resource<_onnx__MatMul_5528> : tensor<4096x11008xf32>} : () -> !torch.vtensor<[4096,11008],f32>
    %113 = torch.operator "onnx.Constant"() {torch.onnx.value = dense_resource<_onnx__MatMul_5529> : tensor<4096x11008xf32>} : () -> !torch.vtensor<[4096,11008],f32>
    %114 = torch.operator "onnx.Constant"() {torch.onnx.value = dense_resource<_onnx__MatMul_5530> : tensor<11008x4096xf32>} : () -> !torch.vtensor<[11008,4096],f32>
    %115 = torch.operator "onnx.Constant"() {torch.onnx.value = dense_resource<_onnx__MatMul_5531> : tensor<4096x4096xf32>} : () -> !torch.vtensor<[4096,4096],f32>
    %116 = torch.operator "onnx.Constant"() {torch.onnx.value = dense_resource<_onnx__MatMul_5532> : tensor<4096x4096xf32>} : () -> !torch.vtensor<[4096,4096],f32>
    %117 = torch.operator "onnx.Constant"() {torch.onnx.value = dense_resource<_onnx__MatMul_5533> : tensor<4096x4096xf32>} : () -> !torch.vtensor<[4096,4096],f32>
    %118 = torch.operator "onnx.Constant"() {torch.onnx.value = dense_resource<_onnx__MatMul_5569> : tensor<4096x4096xf32>} : () -> !torch.vtensor<[4096,4096],f32>
    %119 = torch.operator "onnx.Constant"() {torch.onnx.value = dense_resource<_onnx__MatMul_5570> : tensor<4096x11008xf32>} : () -> !torch.vtensor<[4096,11008],f32>
    %120 = torch.operator "onnx.Constant"() {torch.onnx.value = dense_resource<_onnx__MatMul_5571> : tensor<4096x11008xf32>} : () -> !torch.vtensor<[4096,11008],f32>
    %121 = torch.operator "onnx.Constant"() {torch.onnx.value = dense_resource<_onnx__MatMul_5572> : tensor<11008x4096xf32>} : () -> !torch.vtensor<[11008,4096],f32>
    %122 = torch.operator "onnx.Constant"() {torch.onnx.value = dense_resource<_onnx__MatMul_5573> : tensor<4096x4096xf32>} : () -> !torch.vtensor<[4096,4096],f32>
    %123 = torch.operator "onnx.Constant"() {torch.onnx.value = dense_resource<_onnx__MatMul_5574> : tensor<4096x4096xf32>} : () -> !torch.vtensor<[4096,4096],f32>
    %124 = torch.operator "onnx.Constant"() {torch.onnx.value = dense_resource<_onnx__MatMul_5575> : tensor<4096x4096xf32>} : () -> !torch.vtensor<[4096,4096],f32>
    %125 = torch.operator "onnx.Constant"() {torch.onnx.value = dense_resource<_onnx__MatMul_5611> : tensor<4096x4096xf32>} : () -> !torch.vtensor<[4096,4096],f32>
    %126 = torch.operator "onnx.Constant"() {torch.onnx.value = dense_resource<_onnx__MatMul_5612> : tensor<4096x11008xf32>} : () -> !torch.vtensor<[4096,11008],f32>
    %127 = torch.operator "onnx.Constant"() {torch.onnx.value = dense_resource<_onnx__MatMul_5613> : tensor<4096x11008xf32>} : () -> !torch.vtensor<[4096,11008],f32>
    %128 = torch.operator "onnx.Constant"() {torch.onnx.value = dense_resource<_onnx__MatMul_5614> : tensor<11008x4096xf32>} : () -> !torch.vtensor<[11008,4096],f32>
    %129 = torch.operator "onnx.Constant"() {torch.onnx.value = dense_resource<_onnx__MatMul_5615> : tensor<4096x4096xf32>} : () -> !torch.vtensor<[4096,4096],f32>
    %130 = torch.operator "onnx.Constant"() {torch.onnx.value = dense_resource<_onnx__MatMul_5616> : tensor<4096x4096xf32>} : () -> !torch.vtensor<[4096,4096],f32>
    %131 = torch.operator "onnx.Constant"() {torch.onnx.value = dense_resource<_onnx__MatMul_5617> : tensor<4096x4096xf32>} : () -> !torch.vtensor<[4096,4096],f32>
    %132 = torch.operator "onnx.Constant"() {torch.onnx.value = dense_resource<_onnx__MatMul_5653> : tensor<4096x4096xf32>} : () -> !torch.vtensor<[4096,4096],f32>
    %133 = torch.operator "onnx.Constant"() {torch.onnx.value = dense_resource<_onnx__MatMul_5654> : tensor<4096x11008xf32>} : () -> !torch.vtensor<[4096,11008],f32>
    %134 = torch.operator "onnx.Constant"() {torch.onnx.value = dense_resource<_onnx__MatMul_5655> : tensor<4096x11008xf32>} : () -> !torch.vtensor<[4096,11008],f32>
    %135 = torch.operator "onnx.Constant"() {torch.onnx.value = dense_resource<_onnx__MatMul_5656> : tensor<11008x4096xf32>} : () -> !torch.vtensor<[11008,4096],f32>
    %136 = torch.operator "onnx.Constant"() {torch.onnx.value = dense_resource<_onnx__MatMul_5657> : tensor<4096x4096xf32>} : () -> !torch.vtensor<[4096,4096],f32>
    %137 = torch.operator "onnx.Constant"() {torch.onnx.value = dense_resource<_onnx__MatMul_5658> : tensor<4096x4096xf32>} : () -> !torch.vtensor<[4096,4096],f32>
    %138 = torch.operator "onnx.Constant"() {torch.onnx.value = dense_resource<_onnx__MatMul_5659> : tensor<4096x4096xf32>} : () -> !torch.vtensor<[4096,4096],f32>
    %139 = torch.operator "onnx.Constant"() {torch.onnx.value = dense_resource<_onnx__MatMul_5695> : tensor<4096x4096xf32>} : () -> !torch.vtensor<[4096,4096],f32>
    %140 = torch.operator "onnx.Constant"() {torch.onnx.value = dense_resource<_onnx__MatMul_5696> : tensor<4096x11008xf32>} : () -> !torch.vtensor<[4096,11008],f32>
    %141 = torch.operator "onnx.Constant"() {torch.onnx.value = dense_resource<_onnx__MatMul_5697> : tensor<4096x11008xf32>} : () -> !torch.vtensor<[4096,11008],f32>
    %142 = torch.operator "onnx.Constant"() {torch.onnx.value = dense_resource<_onnx__MatMul_5698> : tensor<11008x4096xf32>} : () -> !torch.vtensor<[11008,4096],f32>
    %143 = torch.operator "onnx.Constant"() {torch.onnx.value = dense_resource<_onnx__MatMul_5699> : tensor<4096x4096xf32>} : () -> !torch.vtensor<[4096,4096],f32>
    %144 = torch.operator "onnx.Constant"() {torch.onnx.value = dense_resource<_onnx__MatMul_5700> : tensor<4096x4096xf32>} : () -> !torch.vtensor<[4096,4096],f32>
    %145 = torch.operator "onnx.Constant"() {torch.onnx.value = dense_resource<_onnx__MatMul_5701> : tensor<4096x4096xf32>} : () -> !torch.vtensor<[4096,4096],f32>
    %146 = torch.operator "onnx.Constant"() {torch.onnx.value = dense_resource<_onnx__MatMul_5737> : tensor<4096x4096xf32>} : () -> !torch.vtensor<[4096,4096],f32>
    %147 = torch.operator "onnx.Constant"() {torch.onnx.value = dense_resource<_onnx__MatMul_5738> : tensor<4096x11008xf32>} : () -> !torch.vtensor<[4096,11008],f32>
    %148 = torch.operator "onnx.Constant"() {torch.onnx.value = dense_resource<_onnx__MatMul_5739> : tensor<4096x11008xf32>} : () -> !torch.vtensor<[4096,11008],f32>
    %149 = torch.operator "onnx.Constant"() {torch.onnx.value = dense_resource<_onnx__MatMul_5740> : tensor<11008x4096xf32>} : () -> !torch.vtensor<[11008,4096],f32>
    %150 = torch.operator "onnx.Constant"() {torch.onnx.value = dense_resource<_onnx__MatMul_5741> : tensor<4096x4096xf32>} : () -> !torch.vtensor<[4096,4096],f32>
    %151 = torch.operator "onnx.Constant"() {torch.onnx.value = dense_resource<_onnx__MatMul_5742> : tensor<4096x4096xf32>} : () -> !torch.vtensor<[4096,4096],f32>
    %152 = torch.operator "onnx.Constant"() {torch.onnx.value = dense_resource<_onnx__MatMul_5743> : tensor<4096x4096xf32>} : () -> !torch.vtensor<[4096,4096],f32>
    %153 = torch.operator "onnx.Constant"() {torch.onnx.value = dense_resource<_onnx__MatMul_5779> : tensor<4096x4096xf32>} : () -> !torch.vtensor<[4096,4096],f32>
    %154 = torch.operator "onnx.Constant"() {torch.onnx.value = dense_resource<_onnx__MatMul_5780> : tensor<4096x11008xf32>} : () -> !torch.vtensor<[4096,11008],f32>
    %155 = torch.operator "onnx.Constant"() {torch.onnx.value = dense_resource<_onnx__MatMul_5781> : tensor<4096x11008xf32>} : () -> !torch.vtensor<[4096,11008],f32>
    %156 = torch.operator "onnx.Constant"() {torch.onnx.value = dense_resource<_onnx__MatMul_5782> : tensor<11008x4096xf32>} : () -> !torch.vtensor<[11008,4096],f32>
    %157 = torch.operator "onnx.Constant"() {torch.onnx.value = dense_resource<_onnx__MatMul_5783> : tensor<4096x4096xf32>} : () -> !torch.vtensor<[4096,4096],f32>
    %158 = torch.operator "onnx.Constant"() {torch.onnx.value = dense_resource<_onnx__MatMul_5784> : tensor<4096x4096xf32>} : () -> !torch.vtensor<[4096,4096],f32>
    %159 = torch.operator "onnx.Constant"() {torch.onnx.value = dense_resource<_onnx__MatMul_5785> : tensor<4096x4096xf32>} : () -> !torch.vtensor<[4096,4096],f32>
    %160 = torch.operator "onnx.Constant"() {torch.onnx.value = dense_resource<_onnx__MatMul_5821> : tensor<4096x4096xf32>} : () -> !torch.vtensor<[4096,4096],f32>
    %161 = torch.operator "onnx.Constant"() {torch.onnx.value = dense_resource<_onnx__MatMul_5822> : tensor<4096x11008xf32>} : () -> !torch.vtensor<[4096,11008],f32>
    %162 = torch.operator "onnx.Constant"() {torch.onnx.value = dense_resource<_onnx__MatMul_5823> : tensor<4096x11008xf32>} : () -> !torch.vtensor<[4096,11008],f32>
    %163 = torch.operator "onnx.Constant"() {torch.onnx.value = dense_resource<_onnx__MatMul_5824> : tensor<11008x4096xf32>} : () -> !torch.vtensor<[11008,4096],f32>
    %164 = torch.operator "onnx.Constant"() {torch.onnx.value = dense_resource<_onnx__MatMul_5825> : tensor<4096x4096xf32>} : () -> !torch.vtensor<[4096,4096],f32>
    %165 = torch.operator "onnx.Constant"() {torch.onnx.value = dense_resource<_onnx__MatMul_5826> : tensor<4096x4096xf32>} : () -> !torch.vtensor<[4096,4096],f32>
    %166 = torch.operator "onnx.Constant"() {torch.onnx.value = dense_resource<_onnx__MatMul_5827> : tensor<4096x4096xf32>} : () -> !torch.vtensor<[4096,4096],f32>
    %167 = torch.operator "onnx.Constant"() {torch.onnx.value = dense_resource<_onnx__MatMul_5863> : tensor<4096x4096xf32>} : () -> !torch.vtensor<[4096,4096],f32>
    %168 = torch.operator "onnx.Constant"() {torch.onnx.value = dense_resource<_onnx__MatMul_5864> : tensor<4096x11008xf32>} : () -> !torch.vtensor<[4096,11008],f32>
    %169 = torch.operator "onnx.Constant"() {torch.onnx.value = dense_resource<_onnx__MatMul_5865> : tensor<4096x11008xf32>} : () -> !torch.vtensor<[4096,11008],f32>
    %170 = torch.operator "onnx.Constant"() {torch.onnx.value = dense_resource<_onnx__MatMul_5866> : tensor<11008x4096xf32>} : () -> !torch.vtensor<[11008,4096],f32>
    %171 = torch.operator "onnx.Constant"() {torch.onnx.value = dense_resource<_onnx__MatMul_5867> : tensor<4096x4096xf32>} : () -> !torch.vtensor<[4096,4096],f32>
    %172 = torch.operator "onnx.Constant"() {torch.onnx.value = dense_resource<_onnx__MatMul_5868> : tensor<4096x4096xf32>} : () -> !torch.vtensor<[4096,4096],f32>
    %173 = torch.operator "onnx.Constant"() {torch.onnx.value = dense_resource<_onnx__MatMul_5869> : tensor<4096x4096xf32>} : () -> !torch.vtensor<[4096,4096],f32>
    %174 = torch.operator "onnx.Constant"() {torch.onnx.value = dense_resource<_onnx__MatMul_5905> : tensor<4096x4096xf32>} : () -> !torch.vtensor<[4096,4096],f32>
    %175 = torch.operator "onnx.Constant"() {torch.onnx.value = dense_resource<_onnx__MatMul_5906> : tensor<4096x11008xf32>} : () -> !torch.vtensor<[4096,11008],f32>
    %176 = torch.operator "onnx.Constant"() {torch.onnx.value = dense_resource<_onnx__MatMul_5907> : tensor<4096x11008xf32>} : () -> !torch.vtensor<[4096,11008],f32>
    %177 = torch.operator "onnx.Constant"() {torch.onnx.value = dense_resource<_onnx__MatMul_5908> : tensor<11008x4096xf32>} : () -> !torch.vtensor<[11008,4096],f32>
    %178 = torch.operator "onnx.Constant"() {torch.onnx.value = dense_resource<_onnx__MatMul_5909> : tensor<4096x4096xf32>} : () -> !torch.vtensor<[4096,4096],f32>
    %179 = torch.operator "onnx.Constant"() {torch.onnx.value = dense_resource<_onnx__MatMul_5910> : tensor<4096x4096xf32>} : () -> !torch.vtensor<[4096,4096],f32>
    %180 = torch.operator "onnx.Constant"() {torch.onnx.value = dense_resource<_onnx__MatMul_5911> : tensor<4096x4096xf32>} : () -> !torch.vtensor<[4096,4096],f32>
    %181 = torch.operator "onnx.Constant"() {torch.onnx.value = dense_resource<_onnx__MatMul_5947> : tensor<4096x4096xf32>} : () -> !torch.vtensor<[4096,4096],f32>
    %182 = torch.operator "onnx.Constant"() {torch.onnx.value = dense_resource<_onnx__MatMul_5948> : tensor<4096x11008xf32>} : () -> !torch.vtensor<[4096,11008],f32>
    %183 = torch.operator "onnx.Constant"() {torch.onnx.value = dense_resource<_onnx__MatMul_5949> : tensor<4096x11008xf32>} : () -> !torch.vtensor<[4096,11008],f32>
    %184 = torch.operator "onnx.Constant"() {torch.onnx.value = dense_resource<_onnx__MatMul_5950> : tensor<11008x4096xf32>} : () -> !torch.vtensor<[11008,4096],f32>
    %185 = torch.operator "onnx.Constant"() {torch.onnx.value = dense_resource<_onnx__MatMul_5951> : tensor<4096x4096xf32>} : () -> !torch.vtensor<[4096,4096],f32>
    %186 = torch.operator "onnx.Constant"() {torch.onnx.value = dense_resource<_onnx__MatMul_5952> : tensor<4096x4096xf32>} : () -> !torch.vtensor<[4096,4096],f32>
    %187 = torch.operator "onnx.Constant"() {torch.onnx.value = dense_resource<_onnx__MatMul_5953> : tensor<4096x4096xf32>} : () -> !torch.vtensor<[4096,4096],f32>
    %188 = torch.operator "onnx.Constant"() {torch.onnx.value = dense_resource<_onnx__MatMul_5989> : tensor<4096x4096xf32>} : () -> !torch.vtensor<[4096,4096],f32>
    %189 = torch.operator "onnx.Constant"() {torch.onnx.value = dense_resource<_onnx__MatMul_5990> : tensor<4096x11008xf32>} : () -> !torch.vtensor<[4096,11008],f32>
    %190 = torch.operator "onnx.Constant"() {torch.onnx.value = dense_resource<_onnx__MatMul_5991> : tensor<4096x11008xf32>} : () -> !torch.vtensor<[4096,11008],f32>
    %191 = torch.operator "onnx.Constant"() {torch.onnx.value = dense_resource<_onnx__MatMul_5992> : tensor<11008x4096xf32>} : () -> !torch.vtensor<[11008,4096],f32>
    %192 = torch.operator "onnx.Constant"() {torch.onnx.value = dense_resource<_onnx__MatMul_5993> : tensor<4096x4096xf32>} : () -> !torch.vtensor<[4096,4096],f32>
    %193 = torch.operator "onnx.Constant"() {torch.onnx.value = dense_resource<_onnx__MatMul_5994> : tensor<4096x4096xf32>} : () -> !torch.vtensor<[4096,4096],f32>
    %194 = torch.operator "onnx.Constant"() {torch.onnx.value = dense_resource<_onnx__MatMul_5995> : tensor<4096x4096xf32>} : () -> !torch.vtensor<[4096,4096],f32>
    %195 = torch.operator "onnx.Constant"() {torch.onnx.value = dense_resource<_onnx__MatMul_6031> : tensor<4096x4096xf32>} : () -> !torch.vtensor<[4096,4096],f32>
    %196 = torch.operator "onnx.Constant"() {torch.onnx.value = dense_resource<_onnx__MatMul_6032> : tensor<4096x11008xf32>} : () -> !torch.vtensor<[4096,11008],f32>
    %197 = torch.operator "onnx.Constant"() {torch.onnx.value = dense_resource<_onnx__MatMul_6033> : tensor<4096x11008xf32>} : () -> !torch.vtensor<[4096,11008],f32>
    %198 = torch.operator "onnx.Constant"() {torch.onnx.value = dense_resource<_onnx__MatMul_6034> : tensor<11008x4096xf32>} : () -> !torch.vtensor<[11008,4096],f32>
    %199 = torch.operator "onnx.Constant"() {torch.onnx.value = dense_resource<_onnx__MatMul_6035> : tensor<4096x4096xf32>} : () -> !torch.vtensor<[4096,4096],f32>
    %200 = torch.operator "onnx.Constant"() {torch.onnx.value = dense_resource<_onnx__MatMul_6036> : tensor<4096x4096xf32>} : () -> !torch.vtensor<[4096,4096],f32>
    %201 = torch.operator "onnx.Constant"() {torch.onnx.value = dense_resource<_onnx__MatMul_6037> : tensor<4096x4096xf32>} : () -> !torch.vtensor<[4096,4096],f32>
    %202 = torch.operator "onnx.Constant"() {torch.onnx.value = dense_resource<_onnx__MatMul_6073> : tensor<4096x4096xf32>} : () -> !torch.vtensor<[4096,4096],f32>
    %203 = torch.operator "onnx.Constant"() {torch.onnx.value = dense_resource<_onnx__MatMul_6074> : tensor<4096x11008xf32>} : () -> !torch.vtensor<[4096,11008],f32>
    %204 = torch.operator "onnx.Constant"() {torch.onnx.value = dense_resource<_onnx__MatMul_6075> : tensor<4096x11008xf32>} : () -> !torch.vtensor<[4096,11008],f32>
    %205 = torch.operator "onnx.Constant"() {torch.onnx.value = dense_resource<_onnx__MatMul_6076> : tensor<11008x4096xf32>} : () -> !torch.vtensor<[11008,4096],f32>
    %206 = torch.operator "onnx.Constant"() {torch.onnx.value = dense_resource<_onnx__MatMul_6077> : tensor<4096x4096xf32>} : () -> !torch.vtensor<[4096,4096],f32>
    %207 = torch.operator "onnx.Constant"() {torch.onnx.value = dense_resource<_onnx__MatMul_6078> : tensor<4096x4096xf32>} : () -> !torch.vtensor<[4096,4096],f32>
    %208 = torch.operator "onnx.Constant"() {torch.onnx.value = dense_resource<_onnx__MatMul_6079> : tensor<4096x4096xf32>} : () -> !torch.vtensor<[4096,4096],f32>
    %209 = torch.operator "onnx.Constant"() {torch.onnx.value = dense_resource<_onnx__MatMul_6115> : tensor<4096x4096xf32>} : () -> !torch.vtensor<[4096,4096],f32>
    %210 = torch.operator "onnx.Constant"() {torch.onnx.value = dense_resource<_onnx__MatMul_6116> : tensor<4096x11008xf32>} : () -> !torch.vtensor<[4096,11008],f32>
    %211 = torch.operator "onnx.Constant"() {torch.onnx.value = dense_resource<_onnx__MatMul_6117> : tensor<4096x11008xf32>} : () -> !torch.vtensor<[4096,11008],f32>
    %212 = torch.operator "onnx.Constant"() {torch.onnx.value = dense_resource<_onnx__MatMul_6118> : tensor<11008x4096xf32>} : () -> !torch.vtensor<[11008,4096],f32>
    %213 = torch.operator "onnx.Constant"() {torch.onnx.value = dense_resource<_onnx__MatMul_6119> : tensor<4096x4096xf32>} : () -> !torch.vtensor<[4096,4096],f32>
    %214 = torch.operator "onnx.Constant"() {torch.onnx.value = dense_resource<_onnx__MatMul_6120> : tensor<4096x4096xf32>} : () -> !torch.vtensor<[4096,4096],f32>
    %215 = torch.operator "onnx.Constant"() {torch.onnx.value = dense_resource<_onnx__MatMul_6121> : tensor<4096x4096xf32>} : () -> !torch.vtensor<[4096,4096],f32>
    %216 = torch.operator "onnx.Constant"() {torch.onnx.value = dense_resource<_onnx__MatMul_6157> : tensor<4096x4096xf32>} : () -> !torch.vtensor<[4096,4096],f32>
    %217 = torch.operator "onnx.Constant"() {torch.onnx.value = dense_resource<_onnx__MatMul_6158> : tensor<4096x11008xf32>} : () -> !torch.vtensor<[4096,11008],f32>
    %218 = torch.operator "onnx.Constant"() {torch.onnx.value = dense_resource<_onnx__MatMul_6159> : tensor<4096x11008xf32>} : () -> !torch.vtensor<[4096,11008],f32>
    %219 = torch.operator "onnx.Constant"() {torch.onnx.value = dense_resource<_onnx__MatMul_6160> : tensor<11008x4096xf32>} : () -> !torch.vtensor<[11008,4096],f32>
    %220 = torch.operator "onnx.Constant"() {torch.onnx.value = dense_resource<_onnx__MatMul_6161> : tensor<4096x4096xf32>} : () -> !torch.vtensor<[4096,4096],f32>
    %221 = torch.operator "onnx.Constant"() {torch.onnx.value = dense_resource<_onnx__MatMul_6162> : tensor<4096x4096xf32>} : () -> !torch.vtensor<[4096,4096],f32>
    %222 = torch.operator "onnx.Constant"() {torch.onnx.value = dense_resource<_onnx__MatMul_6163> : tensor<4096x4096xf32>} : () -> !torch.vtensor<[4096,4096],f32>
    %223 = torch.operator "onnx.Constant"() {torch.onnx.value = dense_resource<_onnx__MatMul_6199> : tensor<4096x4096xf32>} : () -> !torch.vtensor<[4096,4096],f32>
    %224 = torch.operator "onnx.Constant"() {torch.onnx.value = dense_resource<_onnx__MatMul_6200> : tensor<4096x11008xf32>} : () -> !torch.vtensor<[4096,11008],f32>
    %225 = torch.operator "onnx.Constant"() {torch.onnx.value = dense_resource<_onnx__MatMul_6201> : tensor<4096x11008xf32>} : () -> !torch.vtensor<[4096,11008],f32>
    %226 = torch.operator "onnx.Constant"() {torch.onnx.value = dense_resource<_onnx__MatMul_6202> : tensor<11008x4096xf32>} : () -> !torch.vtensor<[11008,4096],f32>
    %227 = torch.operator "onnx.Constant"() {torch.onnx.value = dense_resource<_onnx__MatMul_6203> : tensor<4096x4096xf32>} : () -> !torch.vtensor<[4096,4096],f32>
    %228 = torch.operator "onnx.Constant"() {torch.onnx.value = dense_resource<_onnx__MatMul_6204> : tensor<4096x4096xf32>} : () -> !torch.vtensor<[4096,4096],f32>
    %229 = torch.operator "onnx.Constant"() {torch.onnx.value = dense_resource<_onnx__MatMul_6205> : tensor<4096x4096xf32>} : () -> !torch.vtensor<[4096,4096],f32>
    %230 = torch.operator "onnx.Constant"() {torch.onnx.value = dense_resource<_onnx__MatMul_6241> : tensor<4096x4096xf32>} : () -> !torch.vtensor<[4096,4096],f32>
    %231 = torch.operator "onnx.Constant"() {torch.onnx.value = dense_resource<_onnx__MatMul_6242> : tensor<4096x11008xf32>} : () -> !torch.vtensor<[4096,11008],f32>
    %232 = torch.operator "onnx.Constant"() {torch.onnx.value = dense_resource<_onnx__MatMul_6243> : tensor<4096x11008xf32>} : () -> !torch.vtensor<[4096,11008],f32>
    %233 = torch.operator "onnx.Constant"() {torch.onnx.value = dense_resource<_onnx__MatMul_6244> : tensor<11008x4096xf32>} : () -> !torch.vtensor<[11008,4096],f32>
    %234 = torch.operator "onnx.Constant"() {torch.onnx.value = dense_resource<_onnx__MatMul_6245> : tensor<4096x4096xf32>} : () -> !torch.vtensor<[4096,4096],f32>
    %235 = torch.operator "onnx.Constant"() {torch.onnx.value = dense_resource<_onnx__MatMul_6246> : tensor<4096x4096xf32>} : () -> !torch.vtensor<[4096,4096],f32>
    %236 = torch.operator "onnx.Constant"() {torch.onnx.value = dense_resource<_onnx__MatMul_6247> : tensor<4096x4096xf32>} : () -> !torch.vtensor<[4096,4096],f32>
    %237 = torch.operator "onnx.Constant"() {torch.onnx.value = dense_resource<_onnx__MatMul_6283> : tensor<4096x4096xf32>} : () -> !torch.vtensor<[4096,4096],f32>
    %238 = torch.operator "onnx.Constant"() {torch.onnx.value = dense_resource<_onnx__MatMul_6284> : tensor<4096x11008xf32>} : () -> !torch.vtensor<[4096,11008],f32>
    %239 = torch.operator "onnx.Constant"() {torch.onnx.value = dense_resource<_onnx__MatMul_6285> : tensor<4096x11008xf32>} : () -> !torch.vtensor<[4096,11008],f32>
    %240 = torch.operator "onnx.Constant"() {torch.onnx.value = dense_resource<_onnx__MatMul_6286> : tensor<11008x4096xf32>} : () -> !torch.vtensor<[11008,4096],f32>
    %241 = torch.operator "onnx.Constant"() {torch.onnx.value = dense_resource<_onnx__MatMul_6287> : tensor<4096x4096xf32>} : () -> !torch.vtensor<[4096,4096],f32>
    %242 = torch.operator "onnx.Constant"() {torch.onnx.value = dense_resource<_onnx__MatMul_6288> : tensor<4096x4096xf32>} : () -> !torch.vtensor<[4096,4096],f32>
    %243 = torch.operator "onnx.Constant"() {torch.onnx.value = dense_resource<_onnx__MatMul_6289> : tensor<4096x4096xf32>} : () -> !torch.vtensor<[4096,4096],f32>
    %244 = torch.operator "onnx.Constant"() {torch.onnx.value = dense_resource<_onnx__MatMul_6325> : tensor<4096x4096xf32>} : () -> !torch.vtensor<[4096,4096],f32>
    %245 = torch.operator "onnx.Constant"() {torch.onnx.value = dense_resource<_onnx__MatMul_6326> : tensor<4096x11008xf32>} : () -> !torch.vtensor<[4096,11008],f32>
    %246 = torch.operator "onnx.Constant"() {torch.onnx.value = dense_resource<_onnx__MatMul_6327> : tensor<4096x11008xf32>} : () -> !torch.vtensor<[4096,11008],f32>
    %247 = torch.operator "onnx.Constant"() {torch.onnx.value = dense_resource<_onnx__MatMul_6328> : tensor<11008x4096xf32>} : () -> !torch.vtensor<[11008,4096],f32>
    %248 = torch.operator "onnx.Constant"() {torch.onnx.value = dense_resource<_onnx__MatMul_6329> : tensor<4096x4096xf32>} : () -> !torch.vtensor<[4096,4096],f32>
    %249 = torch.operator "onnx.Constant"() {torch.onnx.value = dense_resource<_onnx__MatMul_6330> : tensor<4096x4096xf32>} : () -> !torch.vtensor<[4096,4096],f32>
    %250 = torch.operator "onnx.Constant"() {torch.onnx.value = dense_resource<_onnx__MatMul_6331> : tensor<4096x4096xf32>} : () -> !torch.vtensor<[4096,4096],f32>
    %251 = torch.operator "onnx.Constant"() {torch.onnx.value = dense_resource<_onnx__MatMul_6367> : tensor<4096x4096xf32>} : () -> !torch.vtensor<[4096,4096],f32>
    %252 = torch.operator "onnx.Constant"() {torch.onnx.value = dense_resource<_onnx__MatMul_6368> : tensor<4096x11008xf32>} : () -> !torch.vtensor<[4096,11008],f32>
    %253 = torch.operator "onnx.Constant"() {torch.onnx.value = dense_resource<_onnx__MatMul_6369> : tensor<4096x11008xf32>} : () -> !torch.vtensor<[4096,11008],f32>
    %254 = torch.operator "onnx.Constant"() {torch.onnx.value = dense_resource<_onnx__MatMul_6370> : tensor<11008x4096xf32>} : () -> !torch.vtensor<[11008,4096],f32>
    %255 = torch.operator "onnx.Constant"() {torch.onnx.value = dense_resource<_onnx__MatMul_6371> : tensor<4096x4096xf32>} : () -> !torch.vtensor<[4096,4096],f32>
    %256 = torch.operator "onnx.Constant"() {torch.onnx.value = dense_resource<_onnx__MatMul_6372> : tensor<4096x4096xf32>} : () -> !torch.vtensor<[4096,4096],f32>
    %257 = torch.operator "onnx.Constant"() {torch.onnx.value = dense_resource<_onnx__MatMul_6373> : tensor<4096x4096xf32>} : () -> !torch.vtensor<[4096,4096],f32>
    %258 = torch.operator "onnx.Constant"() {torch.onnx.value = dense_resource<_onnx__MatMul_6409> : tensor<4096x4096xf32>} : () -> !torch.vtensor<[4096,4096],f32>
    %259 = torch.operator "onnx.Constant"() {torch.onnx.value = dense_resource<_onnx__MatMul_6410> : tensor<4096x11008xf32>} : () -> !torch.vtensor<[4096,11008],f32>
    %260 = torch.operator "onnx.Constant"() {torch.onnx.value = dense_resource<_onnx__MatMul_6411> : tensor<4096x11008xf32>} : () -> !torch.vtensor<[4096,11008],f32>
    %261 = torch.operator "onnx.Constant"() {torch.onnx.value = dense_resource<_onnx__MatMul_6412> : tensor<11008x4096xf32>} : () -> !torch.vtensor<[11008,4096],f32>
    %262 = torch.operator "onnx.Constant"() {torch.onnx.value = dense_resource<_onnx__MatMul_6413> : tensor<4096x4096xf32>} : () -> !torch.vtensor<[4096,4096],f32>
    %263 = torch.operator "onnx.Constant"() {torch.onnx.value = dense_resource<_onnx__MatMul_6414> : tensor<4096x4096xf32>} : () -> !torch.vtensor<[4096,4096],f32>
    %264 = torch.operator "onnx.Constant"() {torch.onnx.value = dense_resource<_onnx__MatMul_6415> : tensor<4096x4096xf32>} : () -> !torch.vtensor<[4096,4096],f32>
    %265 = torch.operator "onnx.Constant"() {torch.onnx.value = dense_resource<_onnx__MatMul_6451> : tensor<4096x4096xf32>} : () -> !torch.vtensor<[4096,4096],f32>
    %266 = torch.operator "onnx.Constant"() {torch.onnx.value = dense_resource<_onnx__MatMul_6452> : tensor<4096x11008xf32>} : () -> !torch.vtensor<[4096,11008],f32>
    %267 = torch.operator "onnx.Constant"() {torch.onnx.value = dense_resource<_onnx__MatMul_6453> : tensor<4096x11008xf32>} : () -> !torch.vtensor<[4096,11008],f32>
    %268 = torch.operator "onnx.Constant"() {torch.onnx.value = dense_resource<_onnx__MatMul_6454> : tensor<11008x4096xf32>} : () -> !torch.vtensor<[11008,4096],f32>
    %269 = torch.operator "onnx.Constant"() {torch.onnx.value = dense_resource<_onnx__MatMul_6455> : tensor<4096x4096xf32>} : () -> !torch.vtensor<[4096,4096],f32>
    %270 = torch.operator "onnx.Constant"() {torch.onnx.value = dense_resource<_onnx__MatMul_6456> : tensor<4096x4096xf32>} : () -> !torch.vtensor<[4096,4096],f32>
    %271 = torch.operator "onnx.Constant"() {torch.onnx.value = dense_resource<_onnx__MatMul_6457> : tensor<4096x4096xf32>} : () -> !torch.vtensor<[4096,4096],f32>
    %272 = torch.operator "onnx.Constant"() {torch.onnx.value = dense_resource<_onnx__MatMul_6493> : tensor<4096x4096xf32>} : () -> !torch.vtensor<[4096,4096],f32>
    %273 = torch.operator "onnx.Constant"() {torch.onnx.value = dense_resource<_onnx__MatMul_6494> : tensor<4096x11008xf32>} : () -> !torch.vtensor<[4096,11008],f32>
    %274 = torch.operator "onnx.Constant"() {torch.onnx.value = dense_resource<_onnx__MatMul_6495> : tensor<4096x11008xf32>} : () -> !torch.vtensor<[4096,11008],f32>
    %275 = torch.operator "onnx.Constant"() {torch.onnx.value = dense_resource<_onnx__MatMul_6496> : tensor<11008x4096xf32>} : () -> !torch.vtensor<[11008,4096],f32>
    %276 = torch.operator "onnx.Constant"() {torch.onnx.value = dense_resource<_onnx__MatMul_6497> : tensor<4096x4096xf32>} : () -> !torch.vtensor<[4096,4096],f32>
    %277 = torch.operator "onnx.Constant"() {torch.onnx.value = dense_resource<_onnx__MatMul_6498> : tensor<4096x4096xf32>} : () -> !torch.vtensor<[4096,4096],f32>
    %278 = torch.operator "onnx.Constant"() {torch.onnx.value = dense_resource<_onnx__MatMul_6499> : tensor<4096x4096xf32>} : () -> !torch.vtensor<[4096,4096],f32>
    %279 = torch.operator "onnx.Constant"() {torch.onnx.value = dense_resource<_onnx__MatMul_6535> : tensor<4096x4096xf32>} : () -> !torch.vtensor<[4096,4096],f32>
    %280 = torch.operator "onnx.Constant"() {torch.onnx.value = dense_resource<_onnx__MatMul_6536> : tensor<4096x11008xf32>} : () -> !torch.vtensor<[4096,11008],f32>
    %281 = torch.operator "onnx.Constant"() {torch.onnx.value = dense_resource<_onnx__MatMul_6537> : tensor<4096x11008xf32>} : () -> !torch.vtensor<[4096,11008],f32>
    %282 = torch.operator "onnx.Constant"() {torch.onnx.value = dense_resource<_onnx__MatMul_6538> : tensor<11008x4096xf32>} : () -> !torch.vtensor<[11008,4096],f32>
    %283 = torch.operator "onnx.Constant"() {torch.onnx.value = dense_resource<_onnx__MatMul_6539> : tensor<4096x4096xf32>} : () -> !torch.vtensor<[4096,4096],f32>
    %284 = torch.operator "onnx.Constant"() {torch.onnx.value = dense_resource<_onnx__MatMul_6540> : tensor<4096x4096xf32>} : () -> !torch.vtensor<[4096,4096],f32>
    %285 = torch.operator "onnx.Constant"() {torch.onnx.value = dense_resource<_onnx__MatMul_6541> : tensor<4096x4096xf32>} : () -> !torch.vtensor<[4096,4096],f32>
    %286 = torch.operator "onnx.Constant"() {torch.onnx.value = dense_resource<_onnx__MatMul_6577> : tensor<4096x4096xf32>} : () -> !torch.vtensor<[4096,4096],f32>
    %287 = torch.operator "onnx.Constant"() {torch.onnx.value = dense_resource<_onnx__MatMul_6578> : tensor<4096x11008xf32>} : () -> !torch.vtensor<[4096,11008],f32>
    %288 = torch.operator "onnx.Constant"() {torch.onnx.value = dense_resource<_onnx__MatMul_6579> : tensor<4096x11008xf32>} : () -> !torch.vtensor<[4096,11008],f32>
    %289 = torch.operator "onnx.Constant"() {torch.onnx.value = dense_resource<_onnx__MatMul_6580> : tensor<11008x4096xf32>} : () -> !torch.vtensor<[11008,4096],f32>
    %290 = torch.operator "onnx.Constant"() {torch.onnx.value = dense_resource<_onnx__MatMul_6581> : tensor<4096x32000xf32>} : () -> !torch.vtensor<[4096,32000],f32>
    %291 = torch.operator "onnx.Constant"() {torch.onnx.value = dense_resource<__model_Constant_attr__value> : tensor<1x8xsi64>} : () -> !torch.vtensor<[1,8],si64>
    %292 = torch.operator "onnx.Gather"(%0, %arg0) : (!torch.vtensor<[32000,4096],f32>, !torch.vtensor<[1,8],si64>) -> !torch.vtensor<[1,8,4096],f32>
    %293 = torch.operator "onnx.Constant"() {torch.onnx.value = dense_resource<__model_Constant_1_attr__value> : tensor<1x1x8x8xf32>} : () -> !torch.vtensor<[1,1,8,8],f32>
    %294 = torch.operator "onnx.Constant"() {torch.onnx.value = dense_resource<__model_Constant_2_attr__value> : tensor<4xsi64>} : () -> !torch.vtensor<[4],si64>
    %295 = torch.operator "onnx.Constant"() {torch.onnx.value = dense_resource<__model_Constant_3_attr__value> : tensor<1xsi64>} : () -> !torch.vtensor<[1],si64>
    %296 = torch.vtensor.literal(dense<1> : tensor<4xsi64>) : !torch.vtensor<[4],si64>
    %297 = torch.operator "onnx.Constant"() {torch.onnx.value = dense_resource<__model_Constant_4_attr__value> : tensor<si64>} : () -> !torch.vtensor<[],si64>
    %298 = torch.operator "onnx.Mul"(%296, %297) : (!torch.vtensor<[4],si64>, !torch.vtensor<[],si64>) -> !torch.vtensor<[4],si64>
    %299 = torch.operator "onnx.Equal"(%294, %298) : (!torch.vtensor<[4],si64>, !torch.vtensor<[4],si64>) -> !torch.vtensor<[4],i1>
    %300 = torch.operator "onnx.Where"(%299, %296, %294) : (!torch.vtensor<[4],i1>, !torch.vtensor<[4],si64>, !torch.vtensor<[4],si64>) -> !torch.vtensor<[4],si64>
    %301 = torch.operator "onnx.Expand"(%293, %300) : (!torch.vtensor<[1,1,8,8],f32>, !torch.vtensor<[4],si64>) -> !torch.vtensor<[?,?,8,8],f32>
    %302 = torch.operator "onnx.Cast"(%292) {torch.onnx.to = 1 : si64} : (!torch.vtensor<[1,8,4096],f32>) -> !torch.vtensor<[1,8,4096],f32>
    %303 = torch.operator "onnx.Constant"() {torch.onnx.value = dense_resource<__model_layers.0_input_layernorm_Constant_attr__value> : tensor<f32>} : () -> !torch.vtensor<[],f32>
    %304 = torch.operator "onnx.Pow"(%302, %303) : (!torch.vtensor<[1,8,4096],f32>, !torch.vtensor<[],f32>) -> !torch.vtensor<[1,8,4096],f32>
    %305 = torch.operator "onnx.ReduceMean"(%304) {torch.onnx.axes = [-1 : si64], torch.onnx.keepdims = 1 : si64} : (!torch.vtensor<[1,8,4096],f32>) -> !torch.vtensor<[1,8,1],f32>
    %306 = torch.operator "onnx.Constant"() {torch.onnx.value = dense_resource<__model_layers.0_input_layernorm_Constant_1_attr__value> : tensor<f32>} : () -> !torch.vtensor<[],f32>
    %307 = torch.operator "onnx.Add"(%305, %306) : (!torch.vtensor<[1,8,1],f32>, !torch.vtensor<[],f32>) -> !torch.vtensor<[1,8,1],f32>
    %308 = torch.operator "onnx.Sqrt"(%307) : (!torch.vtensor<[1,8,1],f32>) -> !torch.vtensor<[1,8,1],f32>
    %309 = torch.operator "onnx.Constant"() {torch.onnx.value = dense_resource<__model_layers.0_input_layernorm_Constant_2_attr__value> : tensor<f32>} : () -> !torch.vtensor<[],f32>
    %310 = torch.operator "onnx.Div"(%309, %308) : (!torch.vtensor<[],f32>, !torch.vtensor<[1,8,1],f32>) -> !torch.vtensor<[1,8,1],f32>
    %311 = torch.operator "onnx.Mul"(%302, %310) : (!torch.vtensor<[1,8,4096],f32>, !torch.vtensor<[1,8,1],f32>) -> !torch.vtensor<[1,8,4096],f32>
    %312 = torch.operator "onnx.Cast"(%311) {torch.onnx.to = 1 : si64} : (!torch.vtensor<[1,8,4096],f32>) -> !torch.vtensor<[1,8,4096],f32>
    %313 = torch.operator "onnx.Mul"(%1, %312) : (!torch.vtensor<[4096],f32>, !torch.vtensor<[1,8,4096],f32>) -> !torch.vtensor<[1,8,4096],f32>
    %314 = torch.operator "onnx.MatMul"(%313, %66) : (!torch.vtensor<[1,8,4096],f32>, !torch.vtensor<[4096,4096],f32>) -> !torch.vtensor<[1,8,4096],f32>
    %315 = torch.operator "onnx.MatMul"(%313, %67) : (!torch.vtensor<[1,8,4096],f32>, !torch.vtensor<[4096,4096],f32>) -> !torch.vtensor<[1,8,4096],f32>
    %316 = torch.operator "onnx.MatMul"(%313, %68) : (!torch.vtensor<[1,8,4096],f32>, !torch.vtensor<[4096,4096],f32>) -> !torch.vtensor<[1,8,4096],f32>
    %317 = torch.operator "onnx.Constant"() {torch.onnx.value = dense_resource<__model_layers.0_self_attn_Constant_attr__value> : tensor<4xsi64>} : () -> !torch.vtensor<[4],si64>
    %318 = torch.operator "onnx.Constant"() {torch.onnx.value = dense_resource<__model_layers.0_self_attn_Constant_1_attr__value> : tensor<4xsi64>} : () -> !torch.vtensor<[4],si64>
    %319 = torch.operator "onnx.Constant"() {torch.onnx.value = dense_resource<__model_layers.0_self_attn_Constant_2_attr__value> : tensor<4xsi64>} : () -> !torch.vtensor<[4],si64>
    %320 = torch.operator "onnx.Reshape"(%314, %317) {torch.onnx.allowzero = 0 : si64} : (!torch.vtensor<[1,8,4096],f32>, !torch.vtensor<[4],si64>) -> !torch.vtensor<[1,8,32,128],f32>
    %321 = torch.operator "onnx.Transpose"(%320) {torch.onnx.perm = [0 : si64, 2 : si64, 1 : si64, 3 : si64]} : (!torch.vtensor<[1,8,32,128],f32>) -> !torch.vtensor<[1,32,8,128],f32>
    %322 = torch.operator "onnx.Reshape"(%315, %318) {torch.onnx.allowzero = 0 : si64} : (!torch.vtensor<[1,8,4096],f32>, !torch.vtensor<[4],si64>) -> !torch.vtensor<[1,8,32,128],f32>
    %323 = torch.operator "onnx.Transpose"(%322) {torch.onnx.perm = [0 : si64, 2 : si64, 1 : si64, 3 : si64]} : (!torch.vtensor<[1,8,32,128],f32>) -> !torch.vtensor<[1,32,8,128],f32>
    %324 = torch.operator "onnx.Reshape"(%316, %319) {torch.onnx.allowzero = 0 : si64} : (!torch.vtensor<[1,8,4096],f32>, !torch.vtensor<[4],si64>) -> !torch.vtensor<[1,8,32,128],f32>
    %325 = torch.operator "onnx.Transpose"(%324) {torch.onnx.perm = [0 : si64, 2 : si64, 1 : si64, 3 : si64]} : (!torch.vtensor<[1,8,32,128],f32>) -> !torch.vtensor<[1,32,8,128],f32>
    %326 = torch.operator "onnx.Constant"() {torch.onnx.value = dense_resource<__model_layers.0_self_attn_rotary_emb_Constant_attr__value> : tensor<8x128xf32>} : () -> !torch.vtensor<[8,128],f32>
    %327 = torch.operator "onnx.Constant"() {torch.onnx.value = dense_resource<__model_layers.0_self_attn_rotary_emb_Constant_1_attr__value> : tensor<8x128xf32>} : () -> !torch.vtensor<[8,128],f32>
    %328 = torch.operator "onnx.Gather"(%326, %291) {torch.onnx.axis = 0 : si64} : (!torch.vtensor<[8,128],f32>, !torch.vtensor<[1,8],si64>) -> !torch.vtensor<[1,8,128],f32>
    %329 = torch.operator "onnx.Constant"() {torch.onnx.value = dense_resource<__model_layers.0_self_attn_Constant_3_attr__value> : tensor<1xsi64>} : () -> !torch.vtensor<[1],si64>
    %330 = torch.operator "onnx.Unsqueeze"(%328, %329) : (!torch.vtensor<[1,8,128],f32>, !torch.vtensor<[1],si64>) -> !torch.vtensor<[1,1,8,128],f32>
    %331 = torch.operator "onnx.Gather"(%327, %291) {torch.onnx.axis = 0 : si64} : (!torch.vtensor<[8,128],f32>, !torch.vtensor<[1,8],si64>) -> !torch.vtensor<[1,8,128],f32>
    %332 = torch.operator "onnx.Constant"() {torch.onnx.value = dense_resource<__model_layers.0_self_attn_Constant_4_attr__value> : tensor<1xsi64>} : () -> !torch.vtensor<[1],si64>
    %333 = torch.operator "onnx.Unsqueeze"(%331, %332) : (!torch.vtensor<[1,8,128],f32>, !torch.vtensor<[1],si64>) -> !torch.vtensor<[1,1,8,128],f32>
    %334 = torch.operator "onnx.Mul"(%321, %330) : (!torch.vtensor<[1,32,8,128],f32>, !torch.vtensor<[1,1,8,128],f32>) -> !torch.vtensor<[1,32,8,128],f32>
    %335 = torch.operator "onnx.Constant"() {torch.onnx.value = dense_resource<__model_layers.0_self_attn_Constant_5_attr__value> : tensor<1xsi64>} : () -> !torch.vtensor<[1],si64>
    %336 = torch.operator "onnx.Constant"() {torch.onnx.value = dense_resource<__model_layers.0_self_attn_Constant_6_attr__value> : tensor<1xsi64>} : () -> !torch.vtensor<[1],si64>
    %337 = torch.operator "onnx.Constant"() {torch.onnx.value = dense_resource<__model_layers.0_self_attn_Constant_7_attr__value> : tensor<1xsi64>} : () -> !torch.vtensor<[1],si64>
    %338 = torch.operator "onnx.Constant"() {torch.onnx.value = dense_resource<__model_layers.0_self_attn_Constant_8_attr__value> : tensor<1xsi64>} : () -> !torch.vtensor<[1],si64>
    %339 = torch.operator "onnx.Slice"(%321, %336, %337, %335, %338) : (!torch.vtensor<[1,32,8,128],f32>, !torch.vtensor<[1],si64>, !torch.vtensor<[1],si64>, !torch.vtensor<[1],si64>, !torch.vtensor<[1],si64>) -> !torch.vtensor<[1,32,8,64],f32>
    %340 = torch.operator "onnx.Constant"() {torch.onnx.value = dense_resource<__model_layers.0_self_attn_Constant_9_attr__value> : tensor<1xsi64>} : () -> !torch.vtensor<[1],si64>
    %341 = torch.operator "onnx.Constant"() {torch.onnx.value = dense_resource<__model_layers.0_self_attn_Constant_10_attr__value> : tensor<1xsi64>} : () -> !torch.vtensor<[1],si64>
    %342 = torch.operator "onnx.Constant"() {torch.onnx.value = dense_resource<__model_layers.0_self_attn_Constant_11_attr__value> : tensor<1xsi64>} : () -> !torch.vtensor<[1],si64>
    %343 = torch.operator "onnx.Constant"() {torch.onnx.value = dense_resource<__model_layers.0_self_attn_Constant_12_attr__value> : tensor<1xsi64>} : () -> !torch.vtensor<[1],si64>
    %344 = torch.operator "onnx.Slice"(%321, %341, %342, %340, %343) : (!torch.vtensor<[1,32,8,128],f32>, !torch.vtensor<[1],si64>, !torch.vtensor<[1],si64>, !torch.vtensor<[1],si64>, !torch.vtensor<[1],si64>) -> !torch.vtensor<[1,32,8,64],f32>
    %345 = torch.operator "onnx.Neg"(%344) : (!torch.vtensor<[1,32,8,64],f32>) -> !torch.vtensor<[1,32,8,64],f32>
    %346 = torch.operator "onnx.Concat"(%345, %339) {torch.onnx.axis = -1 : si64} : (!torch.vtensor<[1,32,8,64],f32>, !torch.vtensor<[1,32,8,64],f32>) -> !torch.vtensor<[1,32,8,128],f32>
    %347 = torch.operator "onnx.Mul"(%346, %333) : (!torch.vtensor<[1,32,8,128],f32>, !torch.vtensor<[1,1,8,128],f32>) -> !torch.vtensor<[1,32,8,128],f32>
    %348 = torch.operator "onnx.Add"(%334, %347) : (!torch.vtensor<[1,32,8,128],f32>, !torch.vtensor<[1,32,8,128],f32>) -> !torch.vtensor<[1,32,8,128],f32>
    %349 = torch.operator "onnx.Mul"(%323, %330) : (!torch.vtensor<[1,32,8,128],f32>, !torch.vtensor<[1,1,8,128],f32>) -> !torch.vtensor<[1,32,8,128],f32>
    %350 = torch.operator "onnx.Constant"() {torch.onnx.value = dense_resource<__model_layers.0_self_attn_Constant_13_attr__value> : tensor<1xsi64>} : () -> !torch.vtensor<[1],si64>
    %351 = torch.operator "onnx.Constant"() {torch.onnx.value = dense_resource<__model_layers.0_self_attn_Constant_14_attr__value> : tensor<1xsi64>} : () -> !torch.vtensor<[1],si64>
    %352 = torch.operator "onnx.Constant"() {torch.onnx.value = dense_resource<__model_layers.0_self_attn_Constant_15_attr__value> : tensor<1xsi64>} : () -> !torch.vtensor<[1],si64>
    %353 = torch.operator "onnx.Constant"() {torch.onnx.value = dense_resource<__model_layers.0_self_attn_Constant_16_attr__value> : tensor<1xsi64>} : () -> !torch.vtensor<[1],si64>
    %354 = torch.operator "onnx.Slice"(%323, %351, %352, %350, %353) : (!torch.vtensor<[1,32,8,128],f32>, !torch.vtensor<[1],si64>, !torch.vtensor<[1],si64>, !torch.vtensor<[1],si64>, !torch.vtensor<[1],si64>) -> !torch.vtensor<[1,32,8,64],f32>
    %355 = torch.operator "onnx.Constant"() {torch.onnx.value = dense_resource<__model_layers.0_self_attn_Constant_17_attr__value> : tensor<1xsi64>} : () -> !torch.vtensor<[1],si64>
    %356 = torch.operator "onnx.Constant"() {torch.onnx.value = dense_resource<__model_layers.0_self_attn_Constant_18_attr__value> : tensor<1xsi64>} : () -> !torch.vtensor<[1],si64>
    %357 = torch.operator "onnx.Constant"() {torch.onnx.value = dense_resource<__model_layers.0_self_attn_Constant_19_attr__value> : tensor<1xsi64>} : () -> !torch.vtensor<[1],si64>
    %358 = torch.operator "onnx.Constant"() {torch.onnx.value = dense_resource<__model_layers.0_self_attn_Constant_20_attr__value> : tensor<1xsi64>} : () -> !torch.vtensor<[1],si64>
    %359 = torch.operator "onnx.Slice"(%323, %356, %357, %355, %358) : (!torch.vtensor<[1,32,8,128],f32>, !torch.vtensor<[1],si64>, !torch.vtensor<[1],si64>, !torch.vtensor<[1],si64>, !torch.vtensor<[1],si64>) -> !torch.vtensor<[1,32,8,64],f32>
    %360 = torch.operator "onnx.Neg"(%359) : (!torch.vtensor<[1,32,8,64],f32>) -> !torch.vtensor<[1,32,8,64],f32>
    %361 = torch.operator "onnx.Concat"(%360, %354) {torch.onnx.axis = -1 : si64} : (!torch.vtensor<[1,32,8,64],f32>, !torch.vtensor<[1,32,8,64],f32>) -> !torch.vtensor<[1,32,8,128],f32>
    %362 = torch.operator "onnx.Mul"(%361, %333) : (!torch.vtensor<[1,32,8,128],f32>, !torch.vtensor<[1,1,8,128],f32>) -> !torch.vtensor<[1,32,8,128],f32>
    %363 = torch.operator "onnx.Add"(%349, %362) : (!torch.vtensor<[1,32,8,128],f32>, !torch.vtensor<[1,32,8,128],f32>) -> !torch.vtensor<[1,32,8,128],f32>
    %364 = torch.operator "onnx.Transpose"(%363) {torch.onnx.perm = [0 : si64, 1 : si64, 3 : si64, 2 : si64]} : (!torch.vtensor<[1,32,8,128],f32>) -> !torch.vtensor<[1,32,128,8],f32>
    %365 = torch.operator "onnx.MatMul"(%348, %364) : (!torch.vtensor<[1,32,8,128],f32>, !torch.vtensor<[1,32,128,8],f32>) -> !torch.vtensor<[1,32,8,8],f32>
    %366 = torch.operator "onnx.Constant"() {torch.onnx.value = dense_resource<__model_layers.0_self_attn_Constant_21_attr__value> : tensor<f32>} : () -> !torch.vtensor<[],f32>
    %367 = torch.operator "onnx.Div"(%365, %366) : (!torch.vtensor<[1,32,8,8],f32>, !torch.vtensor<[],f32>) -> !torch.vtensor<[1,32,8,8],f32>
    %368 = torch.operator "onnx.Add"(%367, %301) : (!torch.vtensor<[1,32,8,8],f32>, !torch.vtensor<[?,?,8,8],f32>) -> !torch.vtensor<[?,32,8,8],f32>
    %369 = torch.operator "onnx.Softmax"(%368) {torch.onnx.axis = -1 : si64} : (!torch.vtensor<[?,32,8,8],f32>) -> !torch.vtensor<[?,32,8,8],f32>
    %370 = torch.operator "onnx.Cast"(%369) {torch.onnx.to = 1 : si64} : (!torch.vtensor<[?,32,8,8],f32>) -> !torch.vtensor<[?,32,8,8],f32>
    %371 = torch.operator "onnx.Cast"(%370) {torch.onnx.to = 1 : si64} : (!torch.vtensor<[?,32,8,8],f32>) -> !torch.vtensor<[?,32,8,8],f32>
    %372 = torch.operator "onnx.MatMul"(%371, %325) : (!torch.vtensor<[?,32,8,8],f32>, !torch.vtensor<[1,32,8,128],f32>) -> !torch.vtensor<[?,32,8,128],f32>
    %373 = torch.operator "onnx.Transpose"(%372) {torch.onnx.perm = [0 : si64, 2 : si64, 1 : si64, 3 : si64]} : (!torch.vtensor<[?,32,8,128],f32>) -> !torch.vtensor<[?,8,32,128],f32>
    %374 = torch.operator "onnx.Constant"() {torch.onnx.value = dense_resource<__model_layers.0_self_attn_Constant_22_attr__value> : tensor<3xsi64>} : () -> !torch.vtensor<[3],si64>
    %375 = torch.operator "onnx.Reshape"(%373, %374) {torch.onnx.allowzero = 0 : si64} : (!torch.vtensor<[?,8,32,128],f32>, !torch.vtensor<[3],si64>) -> !torch.vtensor<[1,8,4096],f32>
    %376 = torch.operator "onnx.MatMul"(%375, %69) : (!torch.vtensor<[1,8,4096],f32>, !torch.vtensor<[4096,4096],f32>) -> !torch.vtensor<[1,8,4096],f32>
    %377 = torch.operator "onnx.Add"(%302, %376) : (!torch.vtensor<[1,8,4096],f32>, !torch.vtensor<[1,8,4096],f32>) -> !torch.vtensor<[1,8,4096],f32>
    %378 = torch.operator "onnx.Cast"(%377) {torch.onnx.to = 1 : si64} : (!torch.vtensor<[1,8,4096],f32>) -> !torch.vtensor<[1,8,4096],f32>
    %379 = torch.operator "onnx.Constant"() {torch.onnx.value = dense_resource<__model_layers.0_post_attention_layernorm_Constant_attr__value> : tensor<f32>} : () -> !torch.vtensor<[],f32>
    %380 = torch.operator "onnx.Pow"(%378, %379) : (!torch.vtensor<[1,8,4096],f32>, !torch.vtensor<[],f32>) -> !torch.vtensor<[1,8,4096],f32>
    %381 = torch.operator "onnx.ReduceMean"(%380) {torch.onnx.axes = [-1 : si64], torch.onnx.keepdims = 1 : si64} : (!torch.vtensor<[1,8,4096],f32>) -> !torch.vtensor<[1,8,1],f32>
    %382 = torch.operator "onnx.Constant"() {torch.onnx.value = dense_resource<__model_layers.0_post_attention_layernorm_Constant_1_attr__value> : tensor<f32>} : () -> !torch.vtensor<[],f32>
    %383 = torch.operator "onnx.Add"(%381, %382) : (!torch.vtensor<[1,8,1],f32>, !torch.vtensor<[],f32>) -> !torch.vtensor<[1,8,1],f32>
    %384 = torch.operator "onnx.Sqrt"(%383) : (!torch.vtensor<[1,8,1],f32>) -> !torch.vtensor<[1,8,1],f32>
    %385 = torch.operator "onnx.Constant"() {torch.onnx.value = dense_resource<__model_layers.0_post_attention_layernorm_Constant_2_attr__value> : tensor<f32>} : () -> !torch.vtensor<[],f32>
    %386 = torch.operator "onnx.Div"(%385, %384) : (!torch.vtensor<[],f32>, !torch.vtensor<[1,8,1],f32>) -> !torch.vtensor<[1,8,1],f32>
    %387 = torch.operator "onnx.Mul"(%378, %386) : (!torch.vtensor<[1,8,4096],f32>, !torch.vtensor<[1,8,1],f32>) -> !torch.vtensor<[1,8,4096],f32>
    %388 = torch.operator "onnx.Cast"(%387) {torch.onnx.to = 1 : si64} : (!torch.vtensor<[1,8,4096],f32>) -> !torch.vtensor<[1,8,4096],f32>
    %389 = torch.operator "onnx.Mul"(%2, %388) : (!torch.vtensor<[4096],f32>, !torch.vtensor<[1,8,4096],f32>) -> !torch.vtensor<[1,8,4096],f32>
    %390 = torch.operator "onnx.MatMul"(%389, %70) : (!torch.vtensor<[1,8,4096],f32>, !torch.vtensor<[4096,11008],f32>) -> !torch.vtensor<[1,8,11008],f32>
    %391 = torch.operator "onnx.Sigmoid"(%390) : (!torch.vtensor<[1,8,11008],f32>) -> !torch.vtensor<[1,8,11008],f32>
    %392 = torch.operator "onnx.Mul"(%390, %391) : (!torch.vtensor<[1,8,11008],f32>, !torch.vtensor<[1,8,11008],f32>) -> !torch.vtensor<[1,8,11008],f32>
    %393 = torch.operator "onnx.MatMul"(%389, %71) : (!torch.vtensor<[1,8,4096],f32>, !torch.vtensor<[4096,11008],f32>) -> !torch.vtensor<[1,8,11008],f32>
    %394 = torch.operator "onnx.Mul"(%392, %393) : (!torch.vtensor<[1,8,11008],f32>, !torch.vtensor<[1,8,11008],f32>) -> !torch.vtensor<[1,8,11008],f32>
    %395 = torch.operator "onnx.MatMul"(%394, %72) : (!torch.vtensor<[1,8,11008],f32>, !torch.vtensor<[11008,4096],f32>) -> !torch.vtensor<[1,8,4096],f32>
    %396 = torch.operator "onnx.Add"(%378, %395) : (!torch.vtensor<[1,8,4096],f32>, !torch.vtensor<[1,8,4096],f32>) -> !torch.vtensor<[1,8,4096],f32>
    %397 = torch.operator "onnx.Cast"(%396) {torch.onnx.to = 1 : si64} : (!torch.vtensor<[1,8,4096],f32>) -> !torch.vtensor<[1,8,4096],f32>
    %398 = torch.operator "onnx.Constant"() {torch.onnx.value = dense_resource<__model_layers.1_input_layernorm_Constant_attr__value> : tensor<f32>} : () -> !torch.vtensor<[],f32>
    %399 = torch.operator "onnx.Pow"(%397, %398) : (!torch.vtensor<[1,8,4096],f32>, !torch.vtensor<[],f32>) -> !torch.vtensor<[1,8,4096],f32>
    %400 = torch.operator "onnx.ReduceMean"(%399) {torch.onnx.axes = [-1 : si64], torch.onnx.keepdims = 1 : si64} : (!torch.vtensor<[1,8,4096],f32>) -> !torch.vtensor<[1,8,1],f32>
    %401 = torch.operator "onnx.Constant"() {torch.onnx.value = dense_resource<__model_layers.1_input_layernorm_Constant_1_attr__value> : tensor<f32>} : () -> !torch.vtensor<[],f32>
    %402 = torch.operator "onnx.Add"(%400, %401) : (!torch.vtensor<[1,8,1],f32>, !torch.vtensor<[],f32>) -> !torch.vtensor<[1,8,1],f32>
    %403 = torch.operator "onnx.Sqrt"(%402) : (!torch.vtensor<[1,8,1],f32>) -> !torch.vtensor<[1,8,1],f32>
    %404 = torch.operator "onnx.Constant"() {torch.onnx.value = dense_resource<__model_layers.1_input_layernorm_Constant_2_attr__value> : tensor<f32>} : () -> !torch.vtensor<[],f32>
    %405 = torch.operator "onnx.Div"(%404, %403) : (!torch.vtensor<[],f32>, !torch.vtensor<[1,8,1],f32>) -> !torch.vtensor<[1,8,1],f32>
    %406 = torch.operator "onnx.Mul"(%397, %405) : (!torch.vtensor<[1,8,4096],f32>, !torch.vtensor<[1,8,1],f32>) -> !torch.vtensor<[1,8,4096],f32>
    %407 = torch.operator "onnx.Cast"(%406) {torch.onnx.to = 1 : si64} : (!torch.vtensor<[1,8,4096],f32>) -> !torch.vtensor<[1,8,4096],f32>
    %408 = torch.operator "onnx.Mul"(%3, %407) : (!torch.vtensor<[4096],f32>, !torch.vtensor<[1,8,4096],f32>) -> !torch.vtensor<[1,8,4096],f32>
    %409 = torch.operator "onnx.MatMul"(%408, %73) : (!torch.vtensor<[1,8,4096],f32>, !torch.vtensor<[4096,4096],f32>) -> !torch.vtensor<[1,8,4096],f32>
    %410 = torch.operator "onnx.MatMul"(%408, %74) : (!torch.vtensor<[1,8,4096],f32>, !torch.vtensor<[4096,4096],f32>) -> !torch.vtensor<[1,8,4096],f32>
    %411 = torch.operator "onnx.MatMul"(%408, %75) : (!torch.vtensor<[1,8,4096],f32>, !torch.vtensor<[4096,4096],f32>) -> !torch.vtensor<[1,8,4096],f32>
    %412 = torch.operator "onnx.Constant"() {torch.onnx.value = dense_resource<__model_layers.1_self_attn_Constant_attr__value> : tensor<4xsi64>} : () -> !torch.vtensor<[4],si64>
    %413 = torch.operator "onnx.Constant"() {torch.onnx.value = dense_resource<__model_layers.1_self_attn_Constant_1_attr__value> : tensor<4xsi64>} : () -> !torch.vtensor<[4],si64>
    %414 = torch.operator "onnx.Constant"() {torch.onnx.value = dense_resource<__model_layers.1_self_attn_Constant_2_attr__value> : tensor<4xsi64>} : () -> !torch.vtensor<[4],si64>
    %415 = torch.operator "onnx.Reshape"(%409, %412) {torch.onnx.allowzero = 0 : si64} : (!torch.vtensor<[1,8,4096],f32>, !torch.vtensor<[4],si64>) -> !torch.vtensor<[1,8,32,128],f32>
    %416 = torch.operator "onnx.Transpose"(%415) {torch.onnx.perm = [0 : si64, 2 : si64, 1 : si64, 3 : si64]} : (!torch.vtensor<[1,8,32,128],f32>) -> !torch.vtensor<[1,32,8,128],f32>
    %417 = torch.operator "onnx.Reshape"(%410, %413) {torch.onnx.allowzero = 0 : si64} : (!torch.vtensor<[1,8,4096],f32>, !torch.vtensor<[4],si64>) -> !torch.vtensor<[1,8,32,128],f32>
    %418 = torch.operator "onnx.Transpose"(%417) {torch.onnx.perm = [0 : si64, 2 : si64, 1 : si64, 3 : si64]} : (!torch.vtensor<[1,8,32,128],f32>) -> !torch.vtensor<[1,32,8,128],f32>
    %419 = torch.operator "onnx.Reshape"(%411, %414) {torch.onnx.allowzero = 0 : si64} : (!torch.vtensor<[1,8,4096],f32>, !torch.vtensor<[4],si64>) -> !torch.vtensor<[1,8,32,128],f32>
    %420 = torch.operator "onnx.Transpose"(%419) {torch.onnx.perm = [0 : si64, 2 : si64, 1 : si64, 3 : si64]} : (!torch.vtensor<[1,8,32,128],f32>) -> !torch.vtensor<[1,32,8,128],f32>
    %421 = torch.operator "onnx.Constant"() {torch.onnx.value = dense_resource<__model_layers.1_self_attn_rotary_emb_Constant_attr__value> : tensor<8x128xf32>} : () -> !torch.vtensor<[8,128],f32>
    %422 = torch.operator "onnx.Constant"() {torch.onnx.value = dense_resource<__model_layers.1_self_attn_rotary_emb_Constant_1_attr__value> : tensor<8x128xf32>} : () -> !torch.vtensor<[8,128],f32>
    %423 = torch.operator "onnx.Gather"(%421, %291) {torch.onnx.axis = 0 : si64} : (!torch.vtensor<[8,128],f32>, !torch.vtensor<[1,8],si64>) -> !torch.vtensor<[1,8,128],f32>
    %424 = torch.operator "onnx.Constant"() {torch.onnx.value = dense_resource<__model_layers.1_self_attn_Constant_3_attr__value> : tensor<1xsi64>} : () -> !torch.vtensor<[1],si64>
    %425 = torch.operator "onnx.Unsqueeze"(%423, %424) : (!torch.vtensor<[1,8,128],f32>, !torch.vtensor<[1],si64>) -> !torch.vtensor<[1,1,8,128],f32>
    %426 = torch.operator "onnx.Gather"(%422, %291) {torch.onnx.axis = 0 : si64} : (!torch.vtensor<[8,128],f32>, !torch.vtensor<[1,8],si64>) -> !torch.vtensor<[1,8,128],f32>
    %427 = torch.operator "onnx.Constant"() {torch.onnx.value = dense_resource<__model_layers.1_self_attn_Constant_4_attr__value> : tensor<1xsi64>} : () -> !torch.vtensor<[1],si64>
    %428 = torch.operator "onnx.Unsqueeze"(%426, %427) : (!torch.vtensor<[1,8,128],f32>, !torch.vtensor<[1],si64>) -> !torch.vtensor<[1,1,8,128],f32>
    %429 = torch.operator "onnx.Mul"(%416, %425) : (!torch.vtensor<[1,32,8,128],f32>, !torch.vtensor<[1,1,8,128],f32>) -> !torch.vtensor<[1,32,8,128],f32>
    %430 = torch.operator "onnx.Constant"() {torch.onnx.value = dense_resource<__model_layers.1_self_attn_Constant_5_attr__value> : tensor<1xsi64>} : () -> !torch.vtensor<[1],si64>
    %431 = torch.operator "onnx.Constant"() {torch.onnx.value = dense_resource<__model_layers.1_self_attn_Constant_6_attr__value> : tensor<1xsi64>} : () -> !torch.vtensor<[1],si64>
    %432 = torch.operator "onnx.Constant"() {torch.onnx.value = dense_resource<__model_layers.1_self_attn_Constant_7_attr__value> : tensor<1xsi64>} : () -> !torch.vtensor<[1],si64>
    %433 = torch.operator "onnx.Constant"() {torch.onnx.value = dense_resource<__model_layers.1_self_attn_Constant_8_attr__value> : tensor<1xsi64>} : () -> !torch.vtensor<[1],si64>
    %434 = torch.operator "onnx.Slice"(%416, %431, %432, %430, %433) : (!torch.vtensor<[1,32,8,128],f32>, !torch.vtensor<[1],si64>, !torch.vtensor<[1],si64>, !torch.vtensor<[1],si64>, !torch.vtensor<[1],si64>) -> !torch.vtensor<[1,32,8,64],f32>
    %435 = torch.operator "onnx.Constant"() {torch.onnx.value = dense_resource<__model_layers.1_self_attn_Constant_9_attr__value> : tensor<1xsi64>} : () -> !torch.vtensor<[1],si64>
    %436 = torch.operator "onnx.Constant"() {torch.onnx.value = dense_resource<__model_layers.1_self_attn_Constant_10_attr__value> : tensor<1xsi64>} : () -> !torch.vtensor<[1],si64>
    %437 = torch.operator "onnx.Constant"() {torch.onnx.value = dense_resource<__model_layers.1_self_attn_Constant_11_attr__value> : tensor<1xsi64>} : () -> !torch.vtensor<[1],si64>
    %438 = torch.operator "onnx.Constant"() {torch.onnx.value = dense_resource<__model_layers.1_self_attn_Constant_12_attr__value> : tensor<1xsi64>} : () -> !torch.vtensor<[1],si64>
    %439 = torch.operator "onnx.Slice"(%416, %436, %437, %435, %438) : (!torch.vtensor<[1,32,8,128],f32>, !torch.vtensor<[1],si64>, !torch.vtensor<[1],si64>, !torch.vtensor<[1],si64>, !torch.vtensor<[1],si64>) -> !torch.vtensor<[1,32,8,64],f32>
    %440 = torch.operator "onnx.Neg"(%439) : (!torch.vtensor<[1,32,8,64],f32>) -> !torch.vtensor<[1,32,8,64],f32>
    %441 = torch.operator "onnx.Concat"(%440, %434) {torch.onnx.axis = -1 : si64} : (!torch.vtensor<[1,32,8,64],f32>, !torch.vtensor<[1,32,8,64],f32>) -> !torch.vtensor<[1,32,8,128],f32>
    %442 = torch.operator "onnx.Mul"(%441, %428) : (!torch.vtensor<[1,32,8,128],f32>, !torch.vtensor<[1,1,8,128],f32>) -> !torch.vtensor<[1,32,8,128],f32>
    %443 = torch.operator "onnx.Add"(%429, %442) : (!torch.vtensor<[1,32,8,128],f32>, !torch.vtensor<[1,32,8,128],f32>) -> !torch.vtensor<[1,32,8,128],f32>
    %444 = torch.operator "onnx.Mul"(%418, %425) : (!torch.vtensor<[1,32,8,128],f32>, !torch.vtensor<[1,1,8,128],f32>) -> !torch.vtensor<[1,32,8,128],f32>
    %445 = torch.operator "onnx.Constant"() {torch.onnx.value = dense_resource<__model_layers.1_self_attn_Constant_13_attr__value> : tensor<1xsi64>} : () -> !torch.vtensor<[1],si64>
    %446 = torch.operator "onnx.Constant"() {torch.onnx.value = dense_resource<__model_layers.1_self_attn_Constant_14_attr__value> : tensor<1xsi64>} : () -> !torch.vtensor<[1],si64>
    %447 = torch.operator "onnx.Constant"() {torch.onnx.value = dense_resource<__model_layers.1_self_attn_Constant_15_attr__value> : tensor<1xsi64>} : () -> !torch.vtensor<[1],si64>
    %448 = torch.operator "onnx.Constant"() {torch.onnx.value = dense_resource<__model_layers.1_self_attn_Constant_16_attr__value> : tensor<1xsi64>} : () -> !torch.vtensor<[1],si64>
    %449 = torch.operator "onnx.Slice"(%418, %446, %447, %445, %448) : (!torch.vtensor<[1,32,8,128],f32>, !torch.vtensor<[1],si64>, !torch.vtensor<[1],si64>, !torch.vtensor<[1],si64>, !torch.vtensor<[1],si64>) -> !torch.vtensor<[1,32,8,64],f32>
    %450 = torch.operator "onnx.Constant"() {torch.onnx.value = dense_resource<__model_layers.1_self_attn_Constant_17_attr__value> : tensor<1xsi64>} : () -> !torch.vtensor<[1],si64>
    %451 = torch.operator "onnx.Constant"() {torch.onnx.value = dense_resource<__model_layers.1_self_attn_Constant_18_attr__value> : tensor<1xsi64>} : () -> !torch.vtensor<[1],si64>
    %452 = torch.operator "onnx.Constant"() {torch.onnx.value = dense_resource<__model_layers.1_self_attn_Constant_19_attr__value> : tensor<1xsi64>} : () -> !torch.vtensor<[1],si64>
    %453 = torch.operator "onnx.Constant"() {torch.onnx.value = dense_resource<__model_layers.1_self_attn_Constant_20_attr__value> : tensor<1xsi64>} : () -> !torch.vtensor<[1],si64>
    %454 = torch.operator "onnx.Slice"(%418, %451, %452, %450, %453) : (!torch.vtensor<[1,32,8,128],f32>, !torch.vtensor<[1],si64>, !torch.vtensor<[1],si64>, !torch.vtensor<[1],si64>, !torch.vtensor<[1],si64>) -> !torch.vtensor<[1,32,8,64],f32>
    %455 = torch.operator "onnx.Neg"(%454) : (!torch.vtensor<[1,32,8,64],f32>) -> !torch.vtensor<[1,32,8,64],f32>
    %456 = torch.operator "onnx.Concat"(%455, %449) {torch.onnx.axis = -1 : si64} : (!torch.vtensor<[1,32,8,64],f32>, !torch.vtensor<[1,32,8,64],f32>) -> !torch.vtensor<[1,32,8,128],f32>
    %457 = torch.operator "onnx.Mul"(%456, %428) : (!torch.vtensor<[1,32,8,128],f32>, !torch.vtensor<[1,1,8,128],f32>) -> !torch.vtensor<[1,32,8,128],f32>
    %458 = torch.operator "onnx.Add"(%444, %457) : (!torch.vtensor<[1,32,8,128],f32>, !torch.vtensor<[1,32,8,128],f32>) -> !torch.vtensor<[1,32,8,128],f32>
    %459 = torch.operator "onnx.Transpose"(%458) {torch.onnx.perm = [0 : si64, 1 : si64, 3 : si64, 2 : si64]} : (!torch.vtensor<[1,32,8,128],f32>) -> !torch.vtensor<[1,32,128,8],f32>
    %460 = torch.operator "onnx.MatMul"(%443, %459) : (!torch.vtensor<[1,32,8,128],f32>, !torch.vtensor<[1,32,128,8],f32>) -> !torch.vtensor<[1,32,8,8],f32>
    %461 = torch.operator "onnx.Constant"() {torch.onnx.value = dense_resource<__model_layers.1_self_attn_Constant_21_attr__value> : tensor<f32>} : () -> !torch.vtensor<[],f32>
    %462 = torch.operator "onnx.Div"(%460, %461) : (!torch.vtensor<[1,32,8,8],f32>, !torch.vtensor<[],f32>) -> !torch.vtensor<[1,32,8,8],f32>
    %463 = torch.operator "onnx.Add"(%462, %301) : (!torch.vtensor<[1,32,8,8],f32>, !torch.vtensor<[?,?,8,8],f32>) -> !torch.vtensor<[?,32,8,8],f32>
    %464 = torch.operator "onnx.Softmax"(%463) {torch.onnx.axis = -1 : si64} : (!torch.vtensor<[?,32,8,8],f32>) -> !torch.vtensor<[?,32,8,8],f32>
    %465 = torch.operator "onnx.Cast"(%464) {torch.onnx.to = 1 : si64} : (!torch.vtensor<[?,32,8,8],f32>) -> !torch.vtensor<[?,32,8,8],f32>
    %466 = torch.operator "onnx.Cast"(%465) {torch.onnx.to = 1 : si64} : (!torch.vtensor<[?,32,8,8],f32>) -> !torch.vtensor<[?,32,8,8],f32>
    %467 = torch.operator "onnx.MatMul"(%466, %420) : (!torch.vtensor<[?,32,8,8],f32>, !torch.vtensor<[1,32,8,128],f32>) -> !torch.vtensor<[?,32,8,128],f32>
    %468 = torch.operator "onnx.Transpose"(%467) {torch.onnx.perm = [0 : si64, 2 : si64, 1 : si64, 3 : si64]} : (!torch.vtensor<[?,32,8,128],f32>) -> !torch.vtensor<[?,8,32,128],f32>
    %469 = torch.operator "onnx.Constant"() {torch.onnx.value = dense_resource<__model_layers.1_self_attn_Constant_22_attr__value> : tensor<3xsi64>} : () -> !torch.vtensor<[3],si64>
    %470 = torch.operator "onnx.Reshape"(%468, %469) {torch.onnx.allowzero = 0 : si64} : (!torch.vtensor<[?,8,32,128],f32>, !torch.vtensor<[3],si64>) -> !torch.vtensor<[1,8,4096],f32>
    %471 = torch.operator "onnx.MatMul"(%470, %76) : (!torch.vtensor<[1,8,4096],f32>, !torch.vtensor<[4096,4096],f32>) -> !torch.vtensor<[1,8,4096],f32>
    %472 = torch.operator "onnx.Add"(%397, %471) : (!torch.vtensor<[1,8,4096],f32>, !torch.vtensor<[1,8,4096],f32>) -> !torch.vtensor<[1,8,4096],f32>
    %473 = torch.operator "onnx.Cast"(%472) {torch.onnx.to = 1 : si64} : (!torch.vtensor<[1,8,4096],f32>) -> !torch.vtensor<[1,8,4096],f32>
    %474 = torch.operator "onnx.Constant"() {torch.onnx.value = dense_resource<__model_layers.1_post_attention_layernorm_Constant_attr__value> : tensor<f32>} : () -> !torch.vtensor<[],f32>
    %475 = torch.operator "onnx.Pow"(%473, %474) : (!torch.vtensor<[1,8,4096],f32>, !torch.vtensor<[],f32>) -> !torch.vtensor<[1,8,4096],f32>
    %476 = torch.operator "onnx.ReduceMean"(%475) {torch.onnx.axes = [-1 : si64], torch.onnx.keepdims = 1 : si64} : (!torch.vtensor<[1,8,4096],f32>) -> !torch.vtensor<[1,8,1],f32>
    %477 = torch.operator "onnx.Constant"() {torch.onnx.value = dense_resource<__model_layers.1_post_attention_layernorm_Constant_1_attr__value> : tensor<f32>} : () -> !torch.vtensor<[],f32>
    %478 = torch.operator "onnx.Add"(%476, %477) : (!torch.vtensor<[1,8,1],f32>, !torch.vtensor<[],f32>) -> !torch.vtensor<[1,8,1],f32>
    %479 = torch.operator "onnx.Sqrt"(%478) : (!torch.vtensor<[1,8,1],f32>) -> !torch.vtensor<[1,8,1],f32>
    %480 = torch.operator "onnx.Constant"() {torch.onnx.value = dense_resource<__model_layers.1_post_attention_layernorm_Constant_2_attr__value> : tensor<f32>} : () -> !torch.vtensor<[],f32>
    %481 = torch.operator "onnx.Div"(%480, %479) : (!torch.vtensor<[],f32>, !torch.vtensor<[1,8,1],f32>) -> !torch.vtensor<[1,8,1],f32>
    %482 = torch.operator "onnx.Mul"(%473, %481) : (!torch.vtensor<[1,8,4096],f32>, !torch.vtensor<[1,8,1],f32>) -> !torch.vtensor<[1,8,4096],f32>
    %483 = torch.operator "onnx.Cast"(%482) {torch.onnx.to = 1 : si64} : (!torch.vtensor<[1,8,4096],f32>) -> !torch.vtensor<[1,8,4096],f32>
    %484 = torch.operator "onnx.Mul"(%4, %483) : (!torch.vtensor<[4096],f32>, !torch.vtensor<[1,8,4096],f32>) -> !torch.vtensor<[1,8,4096],f32>
    %485 = torch.operator "onnx.MatMul"(%484, %77) : (!torch.vtensor<[1,8,4096],f32>, !torch.vtensor<[4096,11008],f32>) -> !torch.vtensor<[1,8,11008],f32>
    %486 = torch.operator "onnx.Sigmoid"(%485) : (!torch.vtensor<[1,8,11008],f32>) -> !torch.vtensor<[1,8,11008],f32>
    %487 = torch.operator "onnx.Mul"(%485, %486) : (!torch.vtensor<[1,8,11008],f32>, !torch.vtensor<[1,8,11008],f32>) -> !torch.vtensor<[1,8,11008],f32>
    %488 = torch.operator "onnx.MatMul"(%484, %78) : (!torch.vtensor<[1,8,4096],f32>, !torch.vtensor<[4096,11008],f32>) -> !torch.vtensor<[1,8,11008],f32>
    %489 = torch.operator "onnx.Mul"(%487, %488) : (!torch.vtensor<[1,8,11008],f32>, !torch.vtensor<[1,8,11008],f32>) -> !torch.vtensor<[1,8,11008],f32>
    %490 = torch.operator "onnx.MatMul"(%489, %79) : (!torch.vtensor<[1,8,11008],f32>, !torch.vtensor<[11008,4096],f32>) -> !torch.vtensor<[1,8,4096],f32>
    %491 = torch.operator "onnx.Add"(%473, %490) : (!torch.vtensor<[1,8,4096],f32>, !torch.vtensor<[1,8,4096],f32>) -> !torch.vtensor<[1,8,4096],f32>
    %492 = torch.operator "onnx.Cast"(%491) {torch.onnx.to = 1 : si64} : (!torch.vtensor<[1,8,4096],f32>) -> !torch.vtensor<[1,8,4096],f32>
    %493 = torch.operator "onnx.Constant"() {torch.onnx.value = dense_resource<__model_layers.2_input_layernorm_Constant_attr__value> : tensor<f32>} : () -> !torch.vtensor<[],f32>
    %494 = torch.operator "onnx.Pow"(%492, %493) : (!torch.vtensor<[1,8,4096],f32>, !torch.vtensor<[],f32>) -> !torch.vtensor<[1,8,4096],f32>
    %495 = torch.operator "onnx.ReduceMean"(%494) {torch.onnx.axes = [-1 : si64], torch.onnx.keepdims = 1 : si64} : (!torch.vtensor<[1,8,4096],f32>) -> !torch.vtensor<[1,8,1],f32>
    %496 = torch.operator "onnx.Constant"() {torch.onnx.value = dense_resource<__model_layers.2_input_layernorm_Constant_1_attr__value> : tensor<f32>} : () -> !torch.vtensor<[],f32>
    %497 = torch.operator "onnx.Add"(%495, %496) : (!torch.vtensor<[1,8,1],f32>, !torch.vtensor<[],f32>) -> !torch.vtensor<[1,8,1],f32>
    %498 = torch.operator "onnx.Sqrt"(%497) : (!torch.vtensor<[1,8,1],f32>) -> !torch.vtensor<[1,8,1],f32>
    %499 = torch.operator "onnx.Constant"() {torch.onnx.value = dense_resource<__model_layers.2_input_layernorm_Constant_2_attr__value> : tensor<f32>} : () -> !torch.vtensor<[],f32>
    %500 = torch.operator "onnx.Div"(%499, %498) : (!torch.vtensor<[],f32>, !torch.vtensor<[1,8,1],f32>) -> !torch.vtensor<[1,8,1],f32>
    %501 = torch.operator "onnx.Mul"(%492, %500) : (!torch.vtensor<[1,8,4096],f32>, !torch.vtensor<[1,8,1],f32>) -> !torch.vtensor<[1,8,4096],f32>
    %502 = torch.operator "onnx.Cast"(%501) {torch.onnx.to = 1 : si64} : (!torch.vtensor<[1,8,4096],f32>) -> !torch.vtensor<[1,8,4096],f32>
    %503 = torch.operator "onnx.Mul"(%5, %502) : (!torch.vtensor<[4096],f32>, !torch.vtensor<[1,8,4096],f32>) -> !torch.vtensor<[1,8,4096],f32>
    %504 = torch.operator "onnx.MatMul"(%503, %80) : (!torch.vtensor<[1,8,4096],f32>, !torch.vtensor<[4096,4096],f32>) -> !torch.vtensor<[1,8,4096],f32>
    %505 = torch.operator "onnx.MatMul"(%503, %81) : (!torch.vtensor<[1,8,4096],f32>, !torch.vtensor<[4096,4096],f32>) -> !torch.vtensor<[1,8,4096],f32>
    %506 = torch.operator "onnx.MatMul"(%503, %82) : (!torch.vtensor<[1,8,4096],f32>, !torch.vtensor<[4096,4096],f32>) -> !torch.vtensor<[1,8,4096],f32>
    %507 = torch.operator "onnx.Constant"() {torch.onnx.value = dense_resource<__model_layers.2_self_attn_Constant_attr__value> : tensor<4xsi64>} : () -> !torch.vtensor<[4],si64>
    %508 = torch.operator "onnx.Constant"() {torch.onnx.value = dense_resource<__model_layers.2_self_attn_Constant_1_attr__value> : tensor<4xsi64>} : () -> !torch.vtensor<[4],si64>
    %509 = torch.operator "onnx.Constant"() {torch.onnx.value = dense_resource<__model_layers.2_self_attn_Constant_2_attr__value> : tensor<4xsi64>} : () -> !torch.vtensor<[4],si64>
    %510 = torch.operator "onnx.Reshape"(%504, %507) {torch.onnx.allowzero = 0 : si64} : (!torch.vtensor<[1,8,4096],f32>, !torch.vtensor<[4],si64>) -> !torch.vtensor<[1,8,32,128],f32>
    %511 = torch.operator "onnx.Transpose"(%510) {torch.onnx.perm = [0 : si64, 2 : si64, 1 : si64, 3 : si64]} : (!torch.vtensor<[1,8,32,128],f32>) -> !torch.vtensor<[1,32,8,128],f32>
    %512 = torch.operator "onnx.Reshape"(%505, %508) {torch.onnx.allowzero = 0 : si64} : (!torch.vtensor<[1,8,4096],f32>, !torch.vtensor<[4],si64>) -> !torch.vtensor<[1,8,32,128],f32>
    %513 = torch.operator "onnx.Transpose"(%512) {torch.onnx.perm = [0 : si64, 2 : si64, 1 : si64, 3 : si64]} : (!torch.vtensor<[1,8,32,128],f32>) -> !torch.vtensor<[1,32,8,128],f32>
    %514 = torch.operator "onnx.Reshape"(%506, %509) {torch.onnx.allowzero = 0 : si64} : (!torch.vtensor<[1,8,4096],f32>, !torch.vtensor<[4],si64>) -> !torch.vtensor<[1,8,32,128],f32>
    %515 = torch.operator "onnx.Transpose"(%514) {torch.onnx.perm = [0 : si64, 2 : si64, 1 : si64, 3 : si64]} : (!torch.vtensor<[1,8,32,128],f32>) -> !torch.vtensor<[1,32,8,128],f32>
    %516 = torch.operator "onnx.Constant"() {torch.onnx.value = dense_resource<__model_layers.2_self_attn_rotary_emb_Constant_attr__value> : tensor<8x128xf32>} : () -> !torch.vtensor<[8,128],f32>
    %517 = torch.operator "onnx.Constant"() {torch.onnx.value = dense_resource<__model_layers.2_self_attn_rotary_emb_Constant_1_attr__value> : tensor<8x128xf32>} : () -> !torch.vtensor<[8,128],f32>
    %518 = torch.operator "onnx.Gather"(%516, %291) {torch.onnx.axis = 0 : si64} : (!torch.vtensor<[8,128],f32>, !torch.vtensor<[1,8],si64>) -> !torch.vtensor<[1,8,128],f32>
    %519 = torch.operator "onnx.Constant"() {torch.onnx.value = dense_resource<__model_layers.2_self_attn_Constant_3_attr__value> : tensor<1xsi64>} : () -> !torch.vtensor<[1],si64>
    %520 = torch.operator "onnx.Unsqueeze"(%518, %519) : (!torch.vtensor<[1,8,128],f32>, !torch.vtensor<[1],si64>) -> !torch.vtensor<[1,1,8,128],f32>
    %521 = torch.operator "onnx.Gather"(%517, %291) {torch.onnx.axis = 0 : si64} : (!torch.vtensor<[8,128],f32>, !torch.vtensor<[1,8],si64>) -> !torch.vtensor<[1,8,128],f32>
    %522 = torch.operator "onnx.Constant"() {torch.onnx.value = dense_resource<__model_layers.2_self_attn_Constant_4_attr__value> : tensor<1xsi64>} : () -> !torch.vtensor<[1],si64>
    %523 = torch.operator "onnx.Unsqueeze"(%521, %522) : (!torch.vtensor<[1,8,128],f32>, !torch.vtensor<[1],si64>) -> !torch.vtensor<[1,1,8,128],f32>
    %524 = torch.operator "onnx.Mul"(%511, %520) : (!torch.vtensor<[1,32,8,128],f32>, !torch.vtensor<[1,1,8,128],f32>) -> !torch.vtensor<[1,32,8,128],f32>
    %525 = torch.operator "onnx.Constant"() {torch.onnx.value = dense_resource<__model_layers.2_self_attn_Constant_5_attr__value> : tensor<1xsi64>} : () -> !torch.vtensor<[1],si64>
    %526 = torch.operator "onnx.Constant"() {torch.onnx.value = dense_resource<__model_layers.2_self_attn_Constant_6_attr__value> : tensor<1xsi64>} : () -> !torch.vtensor<[1],si64>
    %527 = torch.operator "onnx.Constant"() {torch.onnx.value = dense_resource<__model_layers.2_self_attn_Constant_7_attr__value> : tensor<1xsi64>} : () -> !torch.vtensor<[1],si64>
    %528 = torch.operator "onnx.Constant"() {torch.onnx.value = dense_resource<__model_layers.2_self_attn_Constant_8_attr__value> : tensor<1xsi64>} : () -> !torch.vtensor<[1],si64>
    %529 = torch.operator "onnx.Slice"(%511, %526, %527, %525, %528) : (!torch.vtensor<[1,32,8,128],f32>, !torch.vtensor<[1],si64>, !torch.vtensor<[1],si64>, !torch.vtensor<[1],si64>, !torch.vtensor<[1],si64>) -> !torch.vtensor<[1,32,8,64],f32>
    %530 = torch.operator "onnx.Constant"() {torch.onnx.value = dense_resource<__model_layers.2_self_attn_Constant_9_attr__value> : tensor<1xsi64>} : () -> !torch.vtensor<[1],si64>
    %531 = torch.operator "onnx.Constant"() {torch.onnx.value = dense_resource<__model_layers.2_self_attn_Constant_10_attr__value> : tensor<1xsi64>} : () -> !torch.vtensor<[1],si64>
    %532 = torch.operator "onnx.Constant"() {torch.onnx.value = dense_resource<__model_layers.2_self_attn_Constant_11_attr__value> : tensor<1xsi64>} : () -> !torch.vtensor<[1],si64>
    %533 = torch.operator "onnx.Constant"() {torch.onnx.value = dense_resource<__model_layers.2_self_attn_Constant_12_attr__value> : tensor<1xsi64>} : () -> !torch.vtensor<[1],si64>
    %534 = torch.operator "onnx.Slice"(%511, %531, %532, %530, %533) : (!torch.vtensor<[1,32,8,128],f32>, !torch.vtensor<[1],si64>, !torch.vtensor<[1],si64>, !torch.vtensor<[1],si64>, !torch.vtensor<[1],si64>) -> !torch.vtensor<[1,32,8,64],f32>
    %535 = torch.operator "onnx.Neg"(%534) : (!torch.vtensor<[1,32,8,64],f32>) -> !torch.vtensor<[1,32,8,64],f32>
    %536 = torch.operator "onnx.Concat"(%535, %529) {torch.onnx.axis = -1 : si64} : (!torch.vtensor<[1,32,8,64],f32>, !torch.vtensor<[1,32,8,64],f32>) -> !torch.vtensor<[1,32,8,128],f32>
    %537 = torch.operator "onnx.Mul"(%536, %523) : (!torch.vtensor<[1,32,8,128],f32>, !torch.vtensor<[1,1,8,128],f32>) -> !torch.vtensor<[1,32,8,128],f32>
    %538 = torch.operator "onnx.Add"(%524, %537) : (!torch.vtensor<[1,32,8,128],f32>, !torch.vtensor<[1,32,8,128],f32>) -> !torch.vtensor<[1,32,8,128],f32>
    %539 = torch.operator "onnx.Mul"(%513, %520) : (!torch.vtensor<[1,32,8,128],f32>, !torch.vtensor<[1,1,8,128],f32>) -> !torch.vtensor<[1,32,8,128],f32>
    %540 = torch.operator "onnx.Constant"() {torch.onnx.value = dense_resource<__model_layers.2_self_attn_Constant_13_attr__value> : tensor<1xsi64>} : () -> !torch.vtensor<[1],si64>
    %541 = torch.operator "onnx.Constant"() {torch.onnx.value = dense_resource<__model_layers.2_self_attn_Constant_14_attr__value> : tensor<1xsi64>} : () -> !torch.vtensor<[1],si64>
    %542 = torch.operator "onnx.Constant"() {torch.onnx.value = dense_resource<__model_layers.2_self_attn_Constant_15_attr__value> : tensor<1xsi64>} : () -> !torch.vtensor<[1],si64>
    %543 = torch.operator "onnx.Constant"() {torch.onnx.value = dense_resource<__model_layers.2_self_attn_Constant_16_attr__value> : tensor<1xsi64>} : () -> !torch.vtensor<[1],si64>
    %544 = torch.operator "onnx.Slice"(%513, %541, %542, %540, %543) : (!torch.vtensor<[1,32,8,128],f32>, !torch.vtensor<[1],si64>, !torch.vtensor<[1],si64>, !torch.vtensor<[1],si64>, !torch.vtensor<[1],si64>) -> !torch.vtensor<[1,32,8,64],f32>
    %545 = torch.operator "onnx.Constant"() {torch.onnx.value = dense_resource<__model_layers.2_self_attn_Constant_17_attr__value> : tensor<1xsi64>} : () -> !torch.vtensor<[1],si64>
    %546 = torch.operator "onnx.Constant"() {torch.onnx.value = dense_resource<__model_layers.2_self_attn_Constant_18_attr__value> : tensor<1xsi64>} : () -> !torch.vtensor<[1],si64>
    %547 = torch.operator "onnx.Constant"() {torch.onnx.value = dense_resource<__model_layers.2_self_attn_Constant_19_attr__value> : tensor<1xsi64>} : () -> !torch.vtensor<[1],si64>
    %548 = torch.operator "onnx.Constant"() {torch.onnx.value = dense_resource<__model_layers.2_self_attn_Constant_20_attr__value> : tensor<1xsi64>} : () -> !torch.vtensor<[1],si64>
    %549 = torch.operator "onnx.Slice"(%513, %546, %547, %545, %548) : (!torch.vtensor<[1,32,8,128],f32>, !torch.vtensor<[1],si64>, !torch.vtensor<[1],si64>, !torch.vtensor<[1],si64>, !torch.vtensor<[1],si64>) -> !torch.vtensor<[1,32,8,64],f32>
    %550 = torch.operator "onnx.Neg"(%549) : (!torch.vtensor<[1,32,8,64],f32>) -> !torch.vtensor<[1,32,8,64],f32>
    %551 = torch.operator "onnx.Concat"(%550, %544) {torch.onnx.axis = -1 : si64} : (!torch.vtensor<[1,32,8,64],f32>, !torch.vtensor<[1,32,8,64],f32>) -> !torch.vtensor<[1,32,8,128],f32>
    %552 = torch.operator "onnx.Mul"(%551, %523) : (!torch.vtensor<[1,32,8,128],f32>, !torch.vtensor<[1,1,8,128],f32>) -> !torch.vtensor<[1,32,8,128],f32>
    %553 = torch.operator "onnx.Add"(%539, %552) : (!torch.vtensor<[1,32,8,128],f32>, !torch.vtensor<[1,32,8,128],f32>) -> !torch.vtensor<[1,32,8,128],f32>
    %554 = torch.operator "onnx.Transpose"(%553) {torch.onnx.perm = [0 : si64, 1 : si64, 3 : si64, 2 : si64]} : (!torch.vtensor<[1,32,8,128],f32>) -> !torch.vtensor<[1,32,128,8],f32>
    %555 = torch.operator "onnx.MatMul"(%538, %554) : (!torch.vtensor<[1,32,8,128],f32>, !torch.vtensor<[1,32,128,8],f32>) -> !torch.vtensor<[1,32,8,8],f32>
    %556 = torch.operator "onnx.Constant"() {torch.onnx.value = dense_resource<__model_layers.2_self_attn_Constant_21_attr__value> : tensor<f32>} : () -> !torch.vtensor<[],f32>
    %557 = torch.operator "onnx.Div"(%555, %556) : (!torch.vtensor<[1,32,8,8],f32>, !torch.vtensor<[],f32>) -> !torch.vtensor<[1,32,8,8],f32>
    %558 = torch.operator "onnx.Add"(%557, %301) : (!torch.vtensor<[1,32,8,8],f32>, !torch.vtensor<[?,?,8,8],f32>) -> !torch.vtensor<[?,32,8,8],f32>
    %559 = torch.operator "onnx.Softmax"(%558) {torch.onnx.axis = -1 : si64} : (!torch.vtensor<[?,32,8,8],f32>) -> !torch.vtensor<[?,32,8,8],f32>
    %560 = torch.operator "onnx.Cast"(%559) {torch.onnx.to = 1 : si64} : (!torch.vtensor<[?,32,8,8],f32>) -> !torch.vtensor<[?,32,8,8],f32>
    %561 = torch.operator "onnx.Cast"(%560) {torch.onnx.to = 1 : si64} : (!torch.vtensor<[?,32,8,8],f32>) -> !torch.vtensor<[?,32,8,8],f32>
    %562 = torch.operator "onnx.MatMul"(%561, %515) : (!torch.vtensor<[?,32,8,8],f32>, !torch.vtensor<[1,32,8,128],f32>) -> !torch.vtensor<[?,32,8,128],f32>
    %563 = torch.operator "onnx.Transpose"(%562) {torch.onnx.perm = [0 : si64, 2 : si64, 1 : si64, 3 : si64]} : (!torch.vtensor<[?,32,8,128],f32>) -> !torch.vtensor<[?,8,32,128],f32>
    %564 = torch.operator "onnx.Constant"() {torch.onnx.value = dense_resource<__model_layers.2_self_attn_Constant_22_attr__value> : tensor<3xsi64>} : () -> !torch.vtensor<[3],si64>
    %565 = torch.operator "onnx.Reshape"(%563, %564) {torch.onnx.allowzero = 0 : si64} : (!torch.vtensor<[?,8,32,128],f32>, !torch.vtensor<[3],si64>) -> !torch.vtensor<[1,8,4096],f32>
    %566 = torch.operator "onnx.MatMul"(%565, %83) : (!torch.vtensor<[1,8,4096],f32>, !torch.vtensor<[4096,4096],f32>) -> !torch.vtensor<[1,8,4096],f32>
    %567 = torch.operator "onnx.Add"(%492, %566) : (!torch.vtensor<[1,8,4096],f32>, !torch.vtensor<[1,8,4096],f32>) -> !torch.vtensor<[1,8,4096],f32>
    %568 = torch.operator "onnx.Cast"(%567) {torch.onnx.to = 1 : si64} : (!torch.vtensor<[1,8,4096],f32>) -> !torch.vtensor<[1,8,4096],f32>
    %569 = torch.operator "onnx.Constant"() {torch.onnx.value = dense_resource<__model_layers.2_post_attention_layernorm_Constant_attr__value> : tensor<f32>} : () -> !torch.vtensor<[],f32>
    %570 = torch.operator "onnx.Pow"(%568, %569) : (!torch.vtensor<[1,8,4096],f32>, !torch.vtensor<[],f32>) -> !torch.vtensor<[1,8,4096],f32>
    %571 = torch.operator "onnx.ReduceMean"(%570) {torch.onnx.axes = [-1 : si64], torch.onnx.keepdims = 1 : si64} : (!torch.vtensor<[1,8,4096],f32>) -> !torch.vtensor<[1,8,1],f32>
    %572 = torch.operator "onnx.Constant"() {torch.onnx.value = dense_resource<__model_layers.2_post_attention_layernorm_Constant_1_attr__value> : tensor<f32>} : () -> !torch.vtensor<[],f32>
    %573 = torch.operator "onnx.Add"(%571, %572) : (!torch.vtensor<[1,8,1],f32>, !torch.vtensor<[],f32>) -> !torch.vtensor<[1,8,1],f32>
    %574 = torch.operator "onnx.Sqrt"(%573) : (!torch.vtensor<[1,8,1],f32>) -> !torch.vtensor<[1,8,1],f32>
    %575 = torch.operator "onnx.Constant"() {torch.onnx.value = dense_resource<__model_layers.2_post_attention_layernorm_Constant_2_attr__value> : tensor<f32>} : () -> !torch.vtensor<[],f32>
    %576 = torch.operator "onnx.Div"(%575, %574) : (!torch.vtensor<[],f32>, !torch.vtensor<[1,8,1],f32>) -> !torch.vtensor<[1,8,1],f32>
    %577 = torch.operator "onnx.Mul"(%568, %576) : (!torch.vtensor<[1,8,4096],f32>, !torch.vtensor<[1,8,1],f32>) -> !torch.vtensor<[1,8,4096],f32>
    %578 = torch.operator "onnx.Cast"(%577) {torch.onnx.to = 1 : si64} : (!torch.vtensor<[1,8,4096],f32>) -> !torch.vtensor<[1,8,4096],f32>
    %579 = torch.operator "onnx.Mul"(%6, %578) : (!torch.vtensor<[4096],f32>, !torch.vtensor<[1,8,4096],f32>) -> !torch.vtensor<[1,8,4096],f32>
    %580 = torch.operator "onnx.MatMul"(%579, %84) : (!torch.vtensor<[1,8,4096],f32>, !torch.vtensor<[4096,11008],f32>) -> !torch.vtensor<[1,8,11008],f32>
    %581 = torch.operator "onnx.Sigmoid"(%580) : (!torch.vtensor<[1,8,11008],f32>) -> !torch.vtensor<[1,8,11008],f32>
    %582 = torch.operator "onnx.Mul"(%580, %581) : (!torch.vtensor<[1,8,11008],f32>, !torch.vtensor<[1,8,11008],f32>) -> !torch.vtensor<[1,8,11008],f32>
    %583 = torch.operator "onnx.MatMul"(%579, %85) : (!torch.vtensor<[1,8,4096],f32>, !torch.vtensor<[4096,11008],f32>) -> !torch.vtensor<[1,8,11008],f32>
    %584 = torch.operator "onnx.Mul"(%582, %583) : (!torch.vtensor<[1,8,11008],f32>, !torch.vtensor<[1,8,11008],f32>) -> !torch.vtensor<[1,8,11008],f32>
    %585 = torch.operator "onnx.MatMul"(%584, %86) : (!torch.vtensor<[1,8,11008],f32>, !torch.vtensor<[11008,4096],f32>) -> !torch.vtensor<[1,8,4096],f32>
    %586 = torch.operator "onnx.Add"(%568, %585) : (!torch.vtensor<[1,8,4096],f32>, !torch.vtensor<[1,8,4096],f32>) -> !torch.vtensor<[1,8,4096],f32>
    %587 = torch.operator "onnx.Cast"(%586) {torch.onnx.to = 1 : si64} : (!torch.vtensor<[1,8,4096],f32>) -> !torch.vtensor<[1,8,4096],f32>
    %588 = torch.operator "onnx.Constant"() {torch.onnx.value = dense_resource<__model_layers.3_input_layernorm_Constant_attr__value> : tensor<f32>} : () -> !torch.vtensor<[],f32>
    %589 = torch.operator "onnx.Pow"(%587, %588) : (!torch.vtensor<[1,8,4096],f32>, !torch.vtensor<[],f32>) -> !torch.vtensor<[1,8,4096],f32>
    %590 = torch.operator "onnx.ReduceMean"(%589) {torch.onnx.axes = [-1 : si64], torch.onnx.keepdims = 1 : si64} : (!torch.vtensor<[1,8,4096],f32>) -> !torch.vtensor<[1,8,1],f32>
    %591 = torch.operator "onnx.Constant"() {torch.onnx.value = dense_resource<__model_layers.3_input_layernorm_Constant_1_attr__value> : tensor<f32>} : () -> !torch.vtensor<[],f32>
    %592 = torch.operator "onnx.Add"(%590, %591) : (!torch.vtensor<[1,8,1],f32>, !torch.vtensor<[],f32>) -> !torch.vtensor<[1,8,1],f32>
    %593 = torch.operator "onnx.Sqrt"(%592) : (!torch.vtensor<[1,8,1],f32>) -> !torch.vtensor<[1,8,1],f32>
    %594 = torch.operator "onnx.Constant"() {torch.onnx.value = dense_resource<__model_layers.3_input_layernorm_Constant_2_attr__value> : tensor<f32>} : () -> !torch.vtensor<[],f32>
    %595 = torch.operator "onnx.Div"(%594, %593) : (!torch.vtensor<[],f32>, !torch.vtensor<[1,8,1],f32>) -> !torch.vtensor<[1,8,1],f32>
    %596 = torch.operator "onnx.Mul"(%587, %595) : (!torch.vtensor<[1,8,4096],f32>, !torch.vtensor<[1,8,1],f32>) -> !torch.vtensor<[1,8,4096],f32>
    %597 = torch.operator "onnx.Cast"(%596) {torch.onnx.to = 1 : si64} : (!torch.vtensor<[1,8,4096],f32>) -> !torch.vtensor<[1,8,4096],f32>
    %598 = torch.operator "onnx.Mul"(%7, %597) : (!torch.vtensor<[4096],f32>, !torch.vtensor<[1,8,4096],f32>) -> !torch.vtensor<[1,8,4096],f32>
    %599 = torch.operator "onnx.MatMul"(%598, %87) : (!torch.vtensor<[1,8,4096],f32>, !torch.vtensor<[4096,4096],f32>) -> !torch.vtensor<[1,8,4096],f32>
    %600 = torch.operator "onnx.MatMul"(%598, %88) : (!torch.vtensor<[1,8,4096],f32>, !torch.vtensor<[4096,4096],f32>) -> !torch.vtensor<[1,8,4096],f32>
    %601 = torch.operator "onnx.MatMul"(%598, %89) : (!torch.vtensor<[1,8,4096],f32>, !torch.vtensor<[4096,4096],f32>) -> !torch.vtensor<[1,8,4096],f32>
    %602 = torch.operator "onnx.Constant"() {torch.onnx.value = dense_resource<__model_layers.3_self_attn_Constant_attr__value> : tensor<4xsi64>} : () -> !torch.vtensor<[4],si64>
    %603 = torch.operator "onnx.Constant"() {torch.onnx.value = dense_resource<__model_layers.3_self_attn_Constant_1_attr__value> : tensor<4xsi64>} : () -> !torch.vtensor<[4],si64>
    %604 = torch.operator "onnx.Constant"() {torch.onnx.value = dense_resource<__model_layers.3_self_attn_Constant_2_attr__value> : tensor<4xsi64>} : () -> !torch.vtensor<[4],si64>
    %605 = torch.operator "onnx.Reshape"(%599, %602) {torch.onnx.allowzero = 0 : si64} : (!torch.vtensor<[1,8,4096],f32>, !torch.vtensor<[4],si64>) -> !torch.vtensor<[1,8,32,128],f32>
    %606 = torch.operator "onnx.Transpose"(%605) {torch.onnx.perm = [0 : si64, 2 : si64, 1 : si64, 3 : si64]} : (!torch.vtensor<[1,8,32,128],f32>) -> !torch.vtensor<[1,32,8,128],f32>
    %607 = torch.operator "onnx.Reshape"(%600, %603) {torch.onnx.allowzero = 0 : si64} : (!torch.vtensor<[1,8,4096],f32>, !torch.vtensor<[4],si64>) -> !torch.vtensor<[1,8,32,128],f32>
    %608 = torch.operator "onnx.Transpose"(%607) {torch.onnx.perm = [0 : si64, 2 : si64, 1 : si64, 3 : si64]} : (!torch.vtensor<[1,8,32,128],f32>) -> !torch.vtensor<[1,32,8,128],f32>
    %609 = torch.operator "onnx.Reshape"(%601, %604) {torch.onnx.allowzero = 0 : si64} : (!torch.vtensor<[1,8,4096],f32>, !torch.vtensor<[4],si64>) -> !torch.vtensor<[1,8,32,128],f32>
    %610 = torch.operator "onnx.Transpose"(%609) {torch.onnx.perm = [0 : si64, 2 : si64, 1 : si64, 3 : si64]} : (!torch.vtensor<[1,8,32,128],f32>) -> !torch.vtensor<[1,32,8,128],f32>
    %611 = torch.operator "onnx.Constant"() {torch.onnx.value = dense_resource<__model_layers.3_self_attn_rotary_emb_Constant_attr__value> : tensor<8x128xf32>} : () -> !torch.vtensor<[8,128],f32>
    %612 = torch.operator "onnx.Constant"() {torch.onnx.value = dense_resource<__model_layers.3_self_attn_rotary_emb_Constant_1_attr__value> : tensor<8x128xf32>} : () -> !torch.vtensor<[8,128],f32>
    %613 = torch.operator "onnx.Gather"(%611, %291) {torch.onnx.axis = 0 : si64} : (!torch.vtensor<[8,128],f32>, !torch.vtensor<[1,8],si64>) -> !torch.vtensor<[1,8,128],f32>
    %614 = torch.operator "onnx.Constant"() {torch.onnx.value = dense_resource<__model_layers.3_self_attn_Constant_3_attr__value> : tensor<1xsi64>} : () -> !torch.vtensor<[1],si64>
    %615 = torch.operator "onnx.Unsqueeze"(%613, %614) : (!torch.vtensor<[1,8,128],f32>, !torch.vtensor<[1],si64>) -> !torch.vtensor<[1,1,8,128],f32>
    %616 = torch.operator "onnx.Gather"(%612, %291) {torch.onnx.axis = 0 : si64} : (!torch.vtensor<[8,128],f32>, !torch.vtensor<[1,8],si64>) -> !torch.vtensor<[1,8,128],f32>
    %617 = torch.operator "onnx.Constant"() {torch.onnx.value = dense_resource<__model_layers.3_self_attn_Constant_4_attr__value> : tensor<1xsi64>} : () -> !torch.vtensor<[1],si64>
    %618 = torch.operator "onnx.Unsqueeze"(%616, %617) : (!torch.vtensor<[1,8,128],f32>, !torch.vtensor<[1],si64>) -> !torch.vtensor<[1,1,8,128],f32>
    %619 = torch.operator "onnx.Mul"(%606, %615) : (!torch.vtensor<[1,32,8,128],f32>, !torch.vtensor<[1,1,8,128],f32>) -> !torch.vtensor<[1,32,8,128],f32>
    %620 = torch.operator "onnx.Constant"() {torch.onnx.value = dense_resource<__model_layers.3_self_attn_Constant_5_attr__value> : tensor<1xsi64>} : () -> !torch.vtensor<[1],si64>
    %621 = torch.operator "onnx.Constant"() {torch.onnx.value = dense_resource<__model_layers.3_self_attn_Constant_6_attr__value> : tensor<1xsi64>} : () -> !torch.vtensor<[1],si64>
    %622 = torch.operator "onnx.Constant"() {torch.onnx.value = dense_resource<__model_layers.3_self_attn_Constant_7_attr__value> : tensor<1xsi64>} : () -> !torch.vtensor<[1],si64>
    %623 = torch.operator "onnx.Constant"() {torch.onnx.value = dense_resource<__model_layers.3_self_attn_Constant_8_attr__value> : tensor<1xsi64>} : () -> !torch.vtensor<[1],si64>
    %624 = torch.operator "onnx.Slice"(%606, %621, %622, %620, %623) : (!torch.vtensor<[1,32,8,128],f32>, !torch.vtensor<[1],si64>, !torch.vtensor<[1],si64>, !torch.vtensor<[1],si64>, !torch.vtensor<[1],si64>) -> !torch.vtensor<[1,32,8,64],f32>
    %625 = torch.operator "onnx.Constant"() {torch.onnx.value = dense_resource<__model_layers.3_self_attn_Constant_9_attr__value> : tensor<1xsi64>} : () -> !torch.vtensor<[1],si64>
    %626 = torch.operator "onnx.Constant"() {torch.onnx.value = dense_resource<__model_layers.3_self_attn_Constant_10_attr__value> : tensor<1xsi64>} : () -> !torch.vtensor<[1],si64>
    %627 = torch.operator "onnx.Constant"() {torch.onnx.value = dense_resource<__model_layers.3_self_attn_Constant_11_attr__value> : tensor<1xsi64>} : () -> !torch.vtensor<[1],si64>
    %628 = torch.operator "onnx.Constant"() {torch.onnx.value = dense_resource<__model_layers.3_self_attn_Constant_12_attr__value> : tensor<1xsi64>} : () -> !torch.vtensor<[1],si64>
    %629 = torch.operator "onnx.Slice"(%606, %626, %627, %625, %628) : (!torch.vtensor<[1,32,8,128],f32>, !torch.vtensor<[1],si64>, !torch.vtensor<[1],si64>, !torch.vtensor<[1],si64>, !torch.vtensor<[1],si64>) -> !torch.vtensor<[1,32,8,64],f32>
    %630 = torch.operator "onnx.Neg"(%629) : (!torch.vtensor<[1,32,8,64],f32>) -> !torch.vtensor<[1,32,8,64],f32>
    %631 = torch.operator "onnx.Concat"(%630, %624) {torch.onnx.axis = -1 : si64} : (!torch.vtensor<[1,32,8,64],f32>, !torch.vtensor<[1,32,8,64],f32>) -> !torch.vtensor<[1,32,8,128],f32>
    %632 = torch.operator "onnx.Mul"(%631, %618) : (!torch.vtensor<[1,32,8,128],f32>, !torch.vtensor<[1,1,8,128],f32>) -> !torch.vtensor<[1,32,8,128],f32>
    %633 = torch.operator "onnx.Add"(%619, %632) : (!torch.vtensor<[1,32,8,128],f32>, !torch.vtensor<[1,32,8,128],f32>) -> !torch.vtensor<[1,32,8,128],f32>
    %634 = torch.operator "onnx.Mul"(%608, %615) : (!torch.vtensor<[1,32,8,128],f32>, !torch.vtensor<[1,1,8,128],f32>) -> !torch.vtensor<[1,32,8,128],f32>
    %635 = torch.operator "onnx.Constant"() {torch.onnx.value = dense_resource<__model_layers.3_self_attn_Constant_13_attr__value> : tensor<1xsi64>} : () -> !torch.vtensor<[1],si64>
    %636 = torch.operator "onnx.Constant"() {torch.onnx.value = dense_resource<__model_layers.3_self_attn_Constant_14_attr__value> : tensor<1xsi64>} : () -> !torch.vtensor<[1],si64>
    %637 = torch.operator "onnx.Constant"() {torch.onnx.value = dense_resource<__model_layers.3_self_attn_Constant_15_attr__value> : tensor<1xsi64>} : () -> !torch.vtensor<[1],si64>
    %638 = torch.operator "onnx.Constant"() {torch.onnx.value = dense_resource<__model_layers.3_self_attn_Constant_16_attr__value> : tensor<1xsi64>} : () -> !torch.vtensor<[1],si64>
    %639 = torch.operator "onnx.Slice"(%608, %636, %637, %635, %638) : (!torch.vtensor<[1,32,8,128],f32>, !torch.vtensor<[1],si64>, !torch.vtensor<[1],si64>, !torch.vtensor<[1],si64>, !torch.vtensor<[1],si64>) -> !torch.vtensor<[1,32,8,64],f32>
    %640 = torch.operator "onnx.Constant"() {torch.onnx.value = dense_resource<__model_layers.3_self_attn_Constant_17_attr__value> : tensor<1xsi64>} : () -> !torch.vtensor<[1],si64>
    %641 = torch.operator "onnx.Constant"() {torch.onnx.value = dense_resource<__model_layers.3_self_attn_Constant_18_attr__value> : tensor<1xsi64>} : () -> !torch.vtensor<[1],si64>
    %642 = torch.operator "onnx.Constant"() {torch.onnx.value = dense_resource<__model_layers.3_self_attn_Constant_19_attr__value> : tensor<1xsi64>} : () -> !torch.vtensor<[1],si64>
    %643 = torch.operator "onnx.Constant"() {torch.onnx.value = dense_resource<__model_layers.3_self_attn_Constant_20_attr__value> : tensor<1xsi64>} : () -> !torch.vtensor<[1],si64>
    %644 = torch.operator "onnx.Slice"(%608, %641, %642, %640, %643) : (!torch.vtensor<[1,32,8,128],f32>, !torch.vtensor<[1],si64>, !torch.vtensor<[1],si64>, !torch.vtensor<[1],si64>, !torch.vtensor<[1],si64>) -> !torch.vtensor<[1,32,8,64],f32>
    %645 = torch.operator "onnx.Neg"(%644) : (!torch.vtensor<[1,32,8,64],f32>) -> !torch.vtensor<[1,32,8,64],f32>
    %646 = torch.operator "onnx.Concat"(%645, %639) {torch.onnx.axis = -1 : si64} : (!torch.vtensor<[1,32,8,64],f32>, !torch.vtensor<[1,32,8,64],f32>) -> !torch.vtensor<[1,32,8,128],f32>
    %647 = torch.operator "onnx.Mul"(%646, %618) : (!torch.vtensor<[1,32,8,128],f32>, !torch.vtensor<[1,1,8,128],f32>) -> !torch.vtensor<[1,32,8,128],f32>
    %648 = torch.operator "onnx.Add"(%634, %647) : (!torch.vtensor<[1,32,8,128],f32>, !torch.vtensor<[1,32,8,128],f32>) -> !torch.vtensor<[1,32,8,128],f32>
    %649 = torch.operator "onnx.Transpose"(%648) {torch.onnx.perm = [0 : si64, 1 : si64, 3 : si64, 2 : si64]} : (!torch.vtensor<[1,32,8,128],f32>) -> !torch.vtensor<[1,32,128,8],f32>
    %650 = torch.operator "onnx.MatMul"(%633, %649) : (!torch.vtensor<[1,32,8,128],f32>, !torch.vtensor<[1,32,128,8],f32>) -> !torch.vtensor<[1,32,8,8],f32>
    %651 = torch.operator "onnx.Constant"() {torch.onnx.value = dense_resource<__model_layers.3_self_attn_Constant_21_attr__value> : tensor<f32>} : () -> !torch.vtensor<[],f32>
    %652 = torch.operator "onnx.Div"(%650, %651) : (!torch.vtensor<[1,32,8,8],f32>, !torch.vtensor<[],f32>) -> !torch.vtensor<[1,32,8,8],f32>
    %653 = torch.operator "onnx.Add"(%652, %301) : (!torch.vtensor<[1,32,8,8],f32>, !torch.vtensor<[?,?,8,8],f32>) -> !torch.vtensor<[?,32,8,8],f32>
    %654 = torch.operator "onnx.Softmax"(%653) {torch.onnx.axis = -1 : si64} : (!torch.vtensor<[?,32,8,8],f32>) -> !torch.vtensor<[?,32,8,8],f32>
    %655 = torch.operator "onnx.Cast"(%654) {torch.onnx.to = 1 : si64} : (!torch.vtensor<[?,32,8,8],f32>) -> !torch.vtensor<[?,32,8,8],f32>
    %656 = torch.operator "onnx.Cast"(%655) {torch.onnx.to = 1 : si64} : (!torch.vtensor<[?,32,8,8],f32>) -> !torch.vtensor<[?,32,8,8],f32>
    %657 = torch.operator "onnx.MatMul"(%656, %610) : (!torch.vtensor<[?,32,8,8],f32>, !torch.vtensor<[1,32,8,128],f32>) -> !torch.vtensor<[?,32,8,128],f32>
    %658 = torch.operator "onnx.Transpose"(%657) {torch.onnx.perm = [0 : si64, 2 : si64, 1 : si64, 3 : si64]} : (!torch.vtensor<[?,32,8,128],f32>) -> !torch.vtensor<[?,8,32,128],f32>
    %659 = torch.operator "onnx.Constant"() {torch.onnx.value = dense_resource<__model_layers.3_self_attn_Constant_22_attr__value> : tensor<3xsi64>} : () -> !torch.vtensor<[3],si64>
    %660 = torch.operator "onnx.Reshape"(%658, %659) {torch.onnx.allowzero = 0 : si64} : (!torch.vtensor<[?,8,32,128],f32>, !torch.vtensor<[3],si64>) -> !torch.vtensor<[1,8,4096],f32>
    %661 = torch.operator "onnx.MatMul"(%660, %90) : (!torch.vtensor<[1,8,4096],f32>, !torch.vtensor<[4096,4096],f32>) -> !torch.vtensor<[1,8,4096],f32>
    %662 = torch.operator "onnx.Add"(%587, %661) : (!torch.vtensor<[1,8,4096],f32>, !torch.vtensor<[1,8,4096],f32>) -> !torch.vtensor<[1,8,4096],f32>
    %663 = torch.operator "onnx.Cast"(%662) {torch.onnx.to = 1 : si64} : (!torch.vtensor<[1,8,4096],f32>) -> !torch.vtensor<[1,8,4096],f32>
    %664 = torch.operator "onnx.Constant"() {torch.onnx.value = dense_resource<__model_layers.3_post_attention_layernorm_Constant_attr__value> : tensor<f32>} : () -> !torch.vtensor<[],f32>
    %665 = torch.operator "onnx.Pow"(%663, %664) : (!torch.vtensor<[1,8,4096],f32>, !torch.vtensor<[],f32>) -> !torch.vtensor<[1,8,4096],f32>
    %666 = torch.operator "onnx.ReduceMean"(%665) {torch.onnx.axes = [-1 : si64], torch.onnx.keepdims = 1 : si64} : (!torch.vtensor<[1,8,4096],f32>) -> !torch.vtensor<[1,8,1],f32>
    %667 = torch.operator "onnx.Constant"() {torch.onnx.value = dense_resource<__model_layers.3_post_attention_layernorm_Constant_1_attr__value> : tensor<f32>} : () -> !torch.vtensor<[],f32>
    %668 = torch.operator "onnx.Add"(%666, %667) : (!torch.vtensor<[1,8,1],f32>, !torch.vtensor<[],f32>) -> !torch.vtensor<[1,8,1],f32>
    %669 = torch.operator "onnx.Sqrt"(%668) : (!torch.vtensor<[1,8,1],f32>) -> !torch.vtensor<[1,8,1],f32>
    %670 = torch.operator "onnx.Constant"() {torch.onnx.value = dense_resource<__model_layers.3_post_attention_layernorm_Constant_2_attr__value> : tensor<f32>} : () -> !torch.vtensor<[],f32>
    %671 = torch.operator "onnx.Div"(%670, %669) : (!torch.vtensor<[],f32>, !torch.vtensor<[1,8,1],f32>) -> !torch.vtensor<[1,8,1],f32>
    %672 = torch.operator "onnx.Mul"(%663, %671) : (!torch.vtensor<[1,8,4096],f32>, !torch.vtensor<[1,8,1],f32>) -> !torch.vtensor<[1,8,4096],f32>
    %673 = torch.operator "onnx.Cast"(%672) {torch.onnx.to = 1 : si64} : (!torch.vtensor<[1,8,4096],f32>) -> !torch.vtensor<[1,8,4096],f32>
    %674 = torch.operator "onnx.Mul"(%8, %673) : (!torch.vtensor<[4096],f32>, !torch.vtensor<[1,8,4096],f32>) -> !torch.vtensor<[1,8,4096],f32>
    %675 = torch.operator "onnx.MatMul"(%674, %91) : (!torch.vtensor<[1,8,4096],f32>, !torch.vtensor<[4096,11008],f32>) -> !torch.vtensor<[1,8,11008],f32>
    %676 = torch.operator "onnx.Sigmoid"(%675) : (!torch.vtensor<[1,8,11008],f32>) -> !torch.vtensor<[1,8,11008],f32>
    %677 = torch.operator "onnx.Mul"(%675, %676) : (!torch.vtensor<[1,8,11008],f32>, !torch.vtensor<[1,8,11008],f32>) -> !torch.vtensor<[1,8,11008],f32>
    %678 = torch.operator "onnx.MatMul"(%674, %92) : (!torch.vtensor<[1,8,4096],f32>, !torch.vtensor<[4096,11008],f32>) -> !torch.vtensor<[1,8,11008],f32>
    %679 = torch.operator "onnx.Mul"(%677, %678) : (!torch.vtensor<[1,8,11008],f32>, !torch.vtensor<[1,8,11008],f32>) -> !torch.vtensor<[1,8,11008],f32>
    %680 = torch.operator "onnx.MatMul"(%679, %93) : (!torch.vtensor<[1,8,11008],f32>, !torch.vtensor<[11008,4096],f32>) -> !torch.vtensor<[1,8,4096],f32>
    %681 = torch.operator "onnx.Add"(%663, %680) : (!torch.vtensor<[1,8,4096],f32>, !torch.vtensor<[1,8,4096],f32>) -> !torch.vtensor<[1,8,4096],f32>
    %682 = torch.operator "onnx.Cast"(%681) {torch.onnx.to = 1 : si64} : (!torch.vtensor<[1,8,4096],f32>) -> !torch.vtensor<[1,8,4096],f32>
    %683 = torch.operator "onnx.Constant"() {torch.onnx.value = dense_resource<__model_layers.4_input_layernorm_Constant_attr__value> : tensor<f32>} : () -> !torch.vtensor<[],f32>
    %684 = torch.operator "onnx.Pow"(%682, %683) : (!torch.vtensor<[1,8,4096],f32>, !torch.vtensor<[],f32>) -> !torch.vtensor<[1,8,4096],f32>
    %685 = torch.operator "onnx.ReduceMean"(%684) {torch.onnx.axes = [-1 : si64], torch.onnx.keepdims = 1 : si64} : (!torch.vtensor<[1,8,4096],f32>) -> !torch.vtensor<[1,8,1],f32>
    %686 = torch.operator "onnx.Constant"() {torch.onnx.value = dense_resource<__model_layers.4_input_layernorm_Constant_1_attr__value> : tensor<f32>} : () -> !torch.vtensor<[],f32>
    %687 = torch.operator "onnx.Add"(%685, %686) : (!torch.vtensor<[1,8,1],f32>, !torch.vtensor<[],f32>) -> !torch.vtensor<[1,8,1],f32>
    %688 = torch.operator "onnx.Sqrt"(%687) : (!torch.vtensor<[1,8,1],f32>) -> !torch.vtensor<[1,8,1],f32>
    %689 = torch.operator "onnx.Constant"() {torch.onnx.value = dense_resource<__model_layers.4_input_layernorm_Constant_2_attr__value> : tensor<f32>} : () -> !torch.vtensor<[],f32>
    %690 = torch.operator "onnx.Div"(%689, %688) : (!torch.vtensor<[],f32>, !torch.vtensor<[1,8,1],f32>) -> !torch.vtensor<[1,8,1],f32>
    %691 = torch.operator "onnx.Mul"(%682, %690) : (!torch.vtensor<[1,8,4096],f32>, !torch.vtensor<[1,8,1],f32>) -> !torch.vtensor<[1,8,4096],f32>
    %692 = torch.operator "onnx.Cast"(%691) {torch.onnx.to = 1 : si64} : (!torch.vtensor<[1,8,4096],f32>) -> !torch.vtensor<[1,8,4096],f32>
    %693 = torch.operator "onnx.Mul"(%9, %692) : (!torch.vtensor<[4096],f32>, !torch.vtensor<[1,8,4096],f32>) -> !torch.vtensor<[1,8,4096],f32>
    %694 = torch.operator "onnx.MatMul"(%693, %94) : (!torch.vtensor<[1,8,4096],f32>, !torch.vtensor<[4096,4096],f32>) -> !torch.vtensor<[1,8,4096],f32>
    %695 = torch.operator "onnx.MatMul"(%693, %95) : (!torch.vtensor<[1,8,4096],f32>, !torch.vtensor<[4096,4096],f32>) -> !torch.vtensor<[1,8,4096],f32>
    %696 = torch.operator "onnx.MatMul"(%693, %96) : (!torch.vtensor<[1,8,4096],f32>, !torch.vtensor<[4096,4096],f32>) -> !torch.vtensor<[1,8,4096],f32>
    %697 = torch.operator "onnx.Constant"() {torch.onnx.value = dense_resource<__model_layers.4_self_attn_Constant_attr__value> : tensor<4xsi64>} : () -> !torch.vtensor<[4],si64>
    %698 = torch.operator "onnx.Constant"() {torch.onnx.value = dense_resource<__model_layers.4_self_attn_Constant_1_attr__value> : tensor<4xsi64>} : () -> !torch.vtensor<[4],si64>
    %699 = torch.operator "onnx.Constant"() {torch.onnx.value = dense_resource<__model_layers.4_self_attn_Constant_2_attr__value> : tensor<4xsi64>} : () -> !torch.vtensor<[4],si64>
    %700 = torch.operator "onnx.Reshape"(%694, %697) {torch.onnx.allowzero = 0 : si64} : (!torch.vtensor<[1,8,4096],f32>, !torch.vtensor<[4],si64>) -> !torch.vtensor<[1,8,32,128],f32>
    %701 = torch.operator "onnx.Transpose"(%700) {torch.onnx.perm = [0 : si64, 2 : si64, 1 : si64, 3 : si64]} : (!torch.vtensor<[1,8,32,128],f32>) -> !torch.vtensor<[1,32,8,128],f32>
    %702 = torch.operator "onnx.Reshape"(%695, %698) {torch.onnx.allowzero = 0 : si64} : (!torch.vtensor<[1,8,4096],f32>, !torch.vtensor<[4],si64>) -> !torch.vtensor<[1,8,32,128],f32>
    %703 = torch.operator "onnx.Transpose"(%702) {torch.onnx.perm = [0 : si64, 2 : si64, 1 : si64, 3 : si64]} : (!torch.vtensor<[1,8,32,128],f32>) -> !torch.vtensor<[1,32,8,128],f32>
    %704 = torch.operator "onnx.Reshape"(%696, %699) {torch.onnx.allowzero = 0 : si64} : (!torch.vtensor<[1,8,4096],f32>, !torch.vtensor<[4],si64>) -> !torch.vtensor<[1,8,32,128],f32>
    %705 = torch.operator "onnx.Transpose"(%704) {torch.onnx.perm = [0 : si64, 2 : si64, 1 : si64, 3 : si64]} : (!torch.vtensor<[1,8,32,128],f32>) -> !torch.vtensor<[1,32,8,128],f32>
    %706 = torch.operator "onnx.Constant"() {torch.onnx.value = dense_resource<__model_layers.4_self_attn_rotary_emb_Constant_attr__value> : tensor<8x128xf32>} : () -> !torch.vtensor<[8,128],f32>
    %707 = torch.operator "onnx.Constant"() {torch.onnx.value = dense_resource<__model_layers.4_self_attn_rotary_emb_Constant_1_attr__value> : tensor<8x128xf32>} : () -> !torch.vtensor<[8,128],f32>
    %708 = torch.operator "onnx.Gather"(%706, %291) {torch.onnx.axis = 0 : si64} : (!torch.vtensor<[8,128],f32>, !torch.vtensor<[1,8],si64>) -> !torch.vtensor<[1,8,128],f32>
    %709 = torch.operator "onnx.Constant"() {torch.onnx.value = dense_resource<__model_layers.4_self_attn_Constant_3_attr__value> : tensor<1xsi64>} : () -> !torch.vtensor<[1],si64>
    %710 = torch.operator "onnx.Unsqueeze"(%708, %709) : (!torch.vtensor<[1,8,128],f32>, !torch.vtensor<[1],si64>) -> !torch.vtensor<[1,1,8,128],f32>
    %711 = torch.operator "onnx.Gather"(%707, %291) {torch.onnx.axis = 0 : si64} : (!torch.vtensor<[8,128],f32>, !torch.vtensor<[1,8],si64>) -> !torch.vtensor<[1,8,128],f32>
    %712 = torch.operator "onnx.Constant"() {torch.onnx.value = dense_resource<__model_layers.4_self_attn_Constant_4_attr__value> : tensor<1xsi64>} : () -> !torch.vtensor<[1],si64>
    %713 = torch.operator "onnx.Unsqueeze"(%711, %712) : (!torch.vtensor<[1,8,128],f32>, !torch.vtensor<[1],si64>) -> !torch.vtensor<[1,1,8,128],f32>
    %714 = torch.operator "onnx.Mul"(%701, %710) : (!torch.vtensor<[1,32,8,128],f32>, !torch.vtensor<[1,1,8,128],f32>) -> !torch.vtensor<[1,32,8,128],f32>
    %715 = torch.operator "onnx.Constant"() {torch.onnx.value = dense_resource<__model_layers.4_self_attn_Constant_5_attr__value> : tensor<1xsi64>} : () -> !torch.vtensor<[1],si64>
    %716 = torch.operator "onnx.Constant"() {torch.onnx.value = dense_resource<__model_layers.4_self_attn_Constant_6_attr__value> : tensor<1xsi64>} : () -> !torch.vtensor<[1],si64>
    %717 = torch.operator "onnx.Constant"() {torch.onnx.value = dense_resource<__model_layers.4_self_attn_Constant_7_attr__value> : tensor<1xsi64>} : () -> !torch.vtensor<[1],si64>
    %718 = torch.operator "onnx.Constant"() {torch.onnx.value = dense_resource<__model_layers.4_self_attn_Constant_8_attr__value> : tensor<1xsi64>} : () -> !torch.vtensor<[1],si64>
    %719 = torch.operator "onnx.Slice"(%701, %716, %717, %715, %718) : (!torch.vtensor<[1,32,8,128],f32>, !torch.vtensor<[1],si64>, !torch.vtensor<[1],si64>, !torch.vtensor<[1],si64>, !torch.vtensor<[1],si64>) -> !torch.vtensor<[1,32,8,64],f32>
    %720 = torch.operator "onnx.Constant"() {torch.onnx.value = dense_resource<__model_layers.4_self_attn_Constant_9_attr__value> : tensor<1xsi64>} : () -> !torch.vtensor<[1],si64>
    %721 = torch.operator "onnx.Constant"() {torch.onnx.value = dense_resource<__model_layers.4_self_attn_Constant_10_attr__value> : tensor<1xsi64>} : () -> !torch.vtensor<[1],si64>
    %722 = torch.operator "onnx.Constant"() {torch.onnx.value = dense_resource<__model_layers.4_self_attn_Constant_11_attr__value> : tensor<1xsi64>} : () -> !torch.vtensor<[1],si64>
    %723 = torch.operator "onnx.Constant"() {torch.onnx.value = dense_resource<__model_layers.4_self_attn_Constant_12_attr__value> : tensor<1xsi64>} : () -> !torch.vtensor<[1],si64>
    %724 = torch.operator "onnx.Slice"(%701, %721, %722, %720, %723) : (!torch.vtensor<[1,32,8,128],f32>, !torch.vtensor<[1],si64>, !torch.vtensor<[1],si64>, !torch.vtensor<[1],si64>, !torch.vtensor<[1],si64>) -> !torch.vtensor<[1,32,8,64],f32>
    %725 = torch.operator "onnx.Neg"(%724) : (!torch.vtensor<[1,32,8,64],f32>) -> !torch.vtensor<[1,32,8,64],f32>
    %726 = torch.operator "onnx.Concat"(%725, %719) {torch.onnx.axis = -1 : si64} : (!torch.vtensor<[1,32,8,64],f32>, !torch.vtensor<[1,32,8,64],f32>) -> !torch.vtensor<[1,32,8,128],f32>
    %727 = torch.operator "onnx.Mul"(%726, %713) : (!torch.vtensor<[1,32,8,128],f32>, !torch.vtensor<[1,1,8,128],f32>) -> !torch.vtensor<[1,32,8,128],f32>
    %728 = torch.operator "onnx.Add"(%714, %727) : (!torch.vtensor<[1,32,8,128],f32>, !torch.vtensor<[1,32,8,128],f32>) -> !torch.vtensor<[1,32,8,128],f32>
    %729 = torch.operator "onnx.Mul"(%703, %710) : (!torch.vtensor<[1,32,8,128],f32>, !torch.vtensor<[1,1,8,128],f32>) -> !torch.vtensor<[1,32,8,128],f32>
    %730 = torch.operator "onnx.Constant"() {torch.onnx.value = dense_resource<__model_layers.4_self_attn_Constant_13_attr__value> : tensor<1xsi64>} : () -> !torch.vtensor<[1],si64>
    %731 = torch.operator "onnx.Constant"() {torch.onnx.value = dense_resource<__model_layers.4_self_attn_Constant_14_attr__value> : tensor<1xsi64>} : () -> !torch.vtensor<[1],si64>
    %732 = torch.operator "onnx.Constant"() {torch.onnx.value = dense_resource<__model_layers.4_self_attn_Constant_15_attr__value> : tensor<1xsi64>} : () -> !torch.vtensor<[1],si64>
    %733 = torch.operator "onnx.Constant"() {torch.onnx.value = dense_resource<__model_layers.4_self_attn_Constant_16_attr__value> : tensor<1xsi64>} : () -> !torch.vtensor<[1],si64>
    %734 = torch.operator "onnx.Slice"(%703, %731, %732, %730, %733) : (!torch.vtensor<[1,32,8,128],f32>, !torch.vtensor<[1],si64>, !torch.vtensor<[1],si64>, !torch.vtensor<[1],si64>, !torch.vtensor<[1],si64>) -> !torch.vtensor<[1,32,8,64],f32>
    %735 = torch.operator "onnx.Constant"() {torch.onnx.value = dense_resource<__model_layers.4_self_attn_Constant_17_attr__value> : tensor<1xsi64>} : () -> !torch.vtensor<[1],si64>
    %736 = torch.operator "onnx.Constant"() {torch.onnx.value = dense_resource<__model_layers.4_self_attn_Constant_18_attr__value> : tensor<1xsi64>} : () -> !torch.vtensor<[1],si64>
    %737 = torch.operator "onnx.Constant"() {torch.onnx.value = dense_resource<__model_layers.4_self_attn_Constant_19_attr__value> : tensor<1xsi64>} : () -> !torch.vtensor<[1],si64>
    %738 = torch.operator "onnx.Constant"() {torch.onnx.value = dense_resource<__model_layers.4_self_attn_Constant_20_attr__value> : tensor<1xsi64>} : () -> !torch.vtensor<[1],si64>
    %739 = torch.operator "onnx.Slice"(%703, %736, %737, %735, %738) : (!torch.vtensor<[1,32,8,128],f32>, !torch.vtensor<[1],si64>, !torch.vtensor<[1],si64>, !torch.vtensor<[1],si64>, !torch.vtensor<[1],si64>) -> !torch.vtensor<[1,32,8,64],f32>
    %740 = torch.operator "onnx.Neg"(%739) : (!torch.vtensor<[1,32,8,64],f32>) -> !torch.vtensor<[1,32,8,64],f32>
    %741 = torch.operator "onnx.Concat"(%740, %734) {torch.onnx.axis = -1 : si64} : (!torch.vtensor<[1,32,8,64],f32>, !torch.vtensor<[1,32,8,64],f32>) -> !torch.vtensor<[1,32,8,128],f32>
    %742 = torch.operator "onnx.Mul"(%741, %713) : (!torch.vtensor<[1,32,8,128],f32>, !torch.vtensor<[1,1,8,128],f32>) -> !torch.vtensor<[1,32,8,128],f32>
    %743 = torch.operator "onnx.Add"(%729, %742) : (!torch.vtensor<[1,32,8,128],f32>, !torch.vtensor<[1,32,8,128],f32>) -> !torch.vtensor<[1,32,8,128],f32>
    %744 = torch.operator "onnx.Transpose"(%743) {torch.onnx.perm = [0 : si64, 1 : si64, 3 : si64, 2 : si64]} : (!torch.vtensor<[1,32,8,128],f32>) -> !torch.vtensor<[1,32,128,8],f32>
    %745 = torch.operator "onnx.MatMul"(%728, %744) : (!torch.vtensor<[1,32,8,128],f32>, !torch.vtensor<[1,32,128,8],f32>) -> !torch.vtensor<[1,32,8,8],f32>
    %746 = torch.operator "onnx.Constant"() {torch.onnx.value = dense_resource<__model_layers.4_self_attn_Constant_21_attr__value> : tensor<f32>} : () -> !torch.vtensor<[],f32>
    %747 = torch.operator "onnx.Div"(%745, %746) : (!torch.vtensor<[1,32,8,8],f32>, !torch.vtensor<[],f32>) -> !torch.vtensor<[1,32,8,8],f32>
    %748 = torch.operator "onnx.Add"(%747, %301) : (!torch.vtensor<[1,32,8,8],f32>, !torch.vtensor<[?,?,8,8],f32>) -> !torch.vtensor<[?,32,8,8],f32>
    %749 = torch.operator "onnx.Softmax"(%748) {torch.onnx.axis = -1 : si64} : (!torch.vtensor<[?,32,8,8],f32>) -> !torch.vtensor<[?,32,8,8],f32>
    %750 = torch.operator "onnx.Cast"(%749) {torch.onnx.to = 1 : si64} : (!torch.vtensor<[?,32,8,8],f32>) -> !torch.vtensor<[?,32,8,8],f32>
    %751 = torch.operator "onnx.Cast"(%750) {torch.onnx.to = 1 : si64} : (!torch.vtensor<[?,32,8,8],f32>) -> !torch.vtensor<[?,32,8,8],f32>
    %752 = torch.operator "onnx.MatMul"(%751, %705) : (!torch.vtensor<[?,32,8,8],f32>, !torch.vtensor<[1,32,8,128],f32>) -> !torch.vtensor<[?,32,8,128],f32>
    %753 = torch.operator "onnx.Transpose"(%752) {torch.onnx.perm = [0 : si64, 2 : si64, 1 : si64, 3 : si64]} : (!torch.vtensor<[?,32,8,128],f32>) -> !torch.vtensor<[?,8,32,128],f32>
    %754 = torch.operator "onnx.Constant"() {torch.onnx.value = dense_resource<__model_layers.4_self_attn_Constant_22_attr__value> : tensor<3xsi64>} : () -> !torch.vtensor<[3],si64>
    %755 = torch.operator "onnx.Reshape"(%753, %754) {torch.onnx.allowzero = 0 : si64} : (!torch.vtensor<[?,8,32,128],f32>, !torch.vtensor<[3],si64>) -> !torch.vtensor<[1,8,4096],f32>
    %756 = torch.operator "onnx.MatMul"(%755, %97) : (!torch.vtensor<[1,8,4096],f32>, !torch.vtensor<[4096,4096],f32>) -> !torch.vtensor<[1,8,4096],f32>
    %757 = torch.operator "onnx.Add"(%682, %756) : (!torch.vtensor<[1,8,4096],f32>, !torch.vtensor<[1,8,4096],f32>) -> !torch.vtensor<[1,8,4096],f32>
    %758 = torch.operator "onnx.Cast"(%757) {torch.onnx.to = 1 : si64} : (!torch.vtensor<[1,8,4096],f32>) -> !torch.vtensor<[1,8,4096],f32>
    %759 = torch.operator "onnx.Constant"() {torch.onnx.value = dense_resource<__model_layers.4_post_attention_layernorm_Constant_attr__value> : tensor<f32>} : () -> !torch.vtensor<[],f32>
    %760 = torch.operator "onnx.Pow"(%758, %759) : (!torch.vtensor<[1,8,4096],f32>, !torch.vtensor<[],f32>) -> !torch.vtensor<[1,8,4096],f32>
    %761 = torch.operator "onnx.ReduceMean"(%760) {torch.onnx.axes = [-1 : si64], torch.onnx.keepdims = 1 : si64} : (!torch.vtensor<[1,8,4096],f32>) -> !torch.vtensor<[1,8,1],f32>
    %762 = torch.operator "onnx.Constant"() {torch.onnx.value = dense_resource<__model_layers.4_post_attention_layernorm_Constant_1_attr__value> : tensor<f32>} : () -> !torch.vtensor<[],f32>
    %763 = torch.operator "onnx.Add"(%761, %762) : (!torch.vtensor<[1,8,1],f32>, !torch.vtensor<[],f32>) -> !torch.vtensor<[1,8,1],f32>
    %764 = torch.operator "onnx.Sqrt"(%763) : (!torch.vtensor<[1,8,1],f32>) -> !torch.vtensor<[1,8,1],f32>
    %765 = torch.operator "onnx.Constant"() {torch.onnx.value = dense_resource<__model_layers.4_post_attention_layernorm_Constant_2_attr__value> : tensor<f32>} : () -> !torch.vtensor<[],f32>
    %766 = torch.operator "onnx.Div"(%765, %764) : (!torch.vtensor<[],f32>, !torch.vtensor<[1,8,1],f32>) -> !torch.vtensor<[1,8,1],f32>
    %767 = torch.operator "onnx.Mul"(%758, %766) : (!torch.vtensor<[1,8,4096],f32>, !torch.vtensor<[1,8,1],f32>) -> !torch.vtensor<[1,8,4096],f32>
    %768 = torch.operator "onnx.Cast"(%767) {torch.onnx.to = 1 : si64} : (!torch.vtensor<[1,8,4096],f32>) -> !torch.vtensor<[1,8,4096],f32>
    %769 = torch.operator "onnx.Mul"(%10, %768) : (!torch.vtensor<[4096],f32>, !torch.vtensor<[1,8,4096],f32>) -> !torch.vtensor<[1,8,4096],f32>
    %770 = torch.operator "onnx.MatMul"(%769, %98) : (!torch.vtensor<[1,8,4096],f32>, !torch.vtensor<[4096,11008],f32>) -> !torch.vtensor<[1,8,11008],f32>
    %771 = torch.operator "onnx.Sigmoid"(%770) : (!torch.vtensor<[1,8,11008],f32>) -> !torch.vtensor<[1,8,11008],f32>
    %772 = torch.operator "onnx.Mul"(%770, %771) : (!torch.vtensor<[1,8,11008],f32>, !torch.vtensor<[1,8,11008],f32>) -> !torch.vtensor<[1,8,11008],f32>
    %773 = torch.operator "onnx.MatMul"(%769, %99) : (!torch.vtensor<[1,8,4096],f32>, !torch.vtensor<[4096,11008],f32>) -> !torch.vtensor<[1,8,11008],f32>
    %774 = torch.operator "onnx.Mul"(%772, %773) : (!torch.vtensor<[1,8,11008],f32>, !torch.vtensor<[1,8,11008],f32>) -> !torch.vtensor<[1,8,11008],f32>
    %775 = torch.operator "onnx.MatMul"(%774, %100) : (!torch.vtensor<[1,8,11008],f32>, !torch.vtensor<[11008,4096],f32>) -> !torch.vtensor<[1,8,4096],f32>
    %776 = torch.operator "onnx.Add"(%758, %775) : (!torch.vtensor<[1,8,4096],f32>, !torch.vtensor<[1,8,4096],f32>) -> !torch.vtensor<[1,8,4096],f32>
    %777 = torch.operator "onnx.Cast"(%776) {torch.onnx.to = 1 : si64} : (!torch.vtensor<[1,8,4096],f32>) -> !torch.vtensor<[1,8,4096],f32>
    %778 = torch.operator "onnx.Constant"() {torch.onnx.value = dense_resource<__model_layers.5_input_layernorm_Constant_attr__value> : tensor<f32>} : () -> !torch.vtensor<[],f32>
    %779 = torch.operator "onnx.Pow"(%777, %778) : (!torch.vtensor<[1,8,4096],f32>, !torch.vtensor<[],f32>) -> !torch.vtensor<[1,8,4096],f32>
    %780 = torch.operator "onnx.ReduceMean"(%779) {torch.onnx.axes = [-1 : si64], torch.onnx.keepdims = 1 : si64} : (!torch.vtensor<[1,8,4096],f32>) -> !torch.vtensor<[1,8,1],f32>
    %781 = torch.operator "onnx.Constant"() {torch.onnx.value = dense_resource<__model_layers.5_input_layernorm_Constant_1_attr__value> : tensor<f32>} : () -> !torch.vtensor<[],f32>
    %782 = torch.operator "onnx.Add"(%780, %781) : (!torch.vtensor<[1,8,1],f32>, !torch.vtensor<[],f32>) -> !torch.vtensor<[1,8,1],f32>
    %783 = torch.operator "onnx.Sqrt"(%782) : (!torch.vtensor<[1,8,1],f32>) -> !torch.vtensor<[1,8,1],f32>
    %784 = torch.operator "onnx.Constant"() {torch.onnx.value = dense_resource<__model_layers.5_input_layernorm_Constant_2_attr__value> : tensor<f32>} : () -> !torch.vtensor<[],f32>
    %785 = torch.operator "onnx.Div"(%784, %783) : (!torch.vtensor<[],f32>, !torch.vtensor<[1,8,1],f32>) -> !torch.vtensor<[1,8,1],f32>
    %786 = torch.operator "onnx.Mul"(%777, %785) : (!torch.vtensor<[1,8,4096],f32>, !torch.vtensor<[1,8,1],f32>) -> !torch.vtensor<[1,8,4096],f32>
    %787 = torch.operator "onnx.Cast"(%786) {torch.onnx.to = 1 : si64} : (!torch.vtensor<[1,8,4096],f32>) -> !torch.vtensor<[1,8,4096],f32>
    %788 = torch.operator "onnx.Mul"(%11, %787) : (!torch.vtensor<[4096],f32>, !torch.vtensor<[1,8,4096],f32>) -> !torch.vtensor<[1,8,4096],f32>
    %789 = torch.operator "onnx.MatMul"(%788, %101) : (!torch.vtensor<[1,8,4096],f32>, !torch.vtensor<[4096,4096],f32>) -> !torch.vtensor<[1,8,4096],f32>
    %790 = torch.operator "onnx.MatMul"(%788, %102) : (!torch.vtensor<[1,8,4096],f32>, !torch.vtensor<[4096,4096],f32>) -> !torch.vtensor<[1,8,4096],f32>
    %791 = torch.operator "onnx.MatMul"(%788, %103) : (!torch.vtensor<[1,8,4096],f32>, !torch.vtensor<[4096,4096],f32>) -> !torch.vtensor<[1,8,4096],f32>
    %792 = torch.operator "onnx.Constant"() {torch.onnx.value = dense_resource<__model_layers.5_self_attn_Constant_attr__value> : tensor<4xsi64>} : () -> !torch.vtensor<[4],si64>
    %793 = torch.operator "onnx.Constant"() {torch.onnx.value = dense_resource<__model_layers.5_self_attn_Constant_1_attr__value> : tensor<4xsi64>} : () -> !torch.vtensor<[4],si64>
    %794 = torch.operator "onnx.Constant"() {torch.onnx.value = dense_resource<__model_layers.5_self_attn_Constant_2_attr__value> : tensor<4xsi64>} : () -> !torch.vtensor<[4],si64>
    %795 = torch.operator "onnx.Reshape"(%789, %792) {torch.onnx.allowzero = 0 : si64} : (!torch.vtensor<[1,8,4096],f32>, !torch.vtensor<[4],si64>) -> !torch.vtensor<[1,8,32,128],f32>
    %796 = torch.operator "onnx.Transpose"(%795) {torch.onnx.perm = [0 : si64, 2 : si64, 1 : si64, 3 : si64]} : (!torch.vtensor<[1,8,32,128],f32>) -> !torch.vtensor<[1,32,8,128],f32>
    %797 = torch.operator "onnx.Reshape"(%790, %793) {torch.onnx.allowzero = 0 : si64} : (!torch.vtensor<[1,8,4096],f32>, !torch.vtensor<[4],si64>) -> !torch.vtensor<[1,8,32,128],f32>
    %798 = torch.operator "onnx.Transpose"(%797) {torch.onnx.perm = [0 : si64, 2 : si64, 1 : si64, 3 : si64]} : (!torch.vtensor<[1,8,32,128],f32>) -> !torch.vtensor<[1,32,8,128],f32>
    %799 = torch.operator "onnx.Reshape"(%791, %794) {torch.onnx.allowzero = 0 : si64} : (!torch.vtensor<[1,8,4096],f32>, !torch.vtensor<[4],si64>) -> !torch.vtensor<[1,8,32,128],f32>
    %800 = torch.operator "onnx.Transpose"(%799) {torch.onnx.perm = [0 : si64, 2 : si64, 1 : si64, 3 : si64]} : (!torch.vtensor<[1,8,32,128],f32>) -> !torch.vtensor<[1,32,8,128],f32>
    %801 = torch.operator "onnx.Constant"() {torch.onnx.value = dense_resource<__model_layers.5_self_attn_rotary_emb_Constant_attr__value> : tensor<8x128xf32>} : () -> !torch.vtensor<[8,128],f32>
    %802 = torch.operator "onnx.Constant"() {torch.onnx.value = dense_resource<__model_layers.5_self_attn_rotary_emb_Constant_1_attr__value> : tensor<8x128xf32>} : () -> !torch.vtensor<[8,128],f32>
    %803 = torch.operator "onnx.Gather"(%801, %291) {torch.onnx.axis = 0 : si64} : (!torch.vtensor<[8,128],f32>, !torch.vtensor<[1,8],si64>) -> !torch.vtensor<[1,8,128],f32>
    %804 = torch.operator "onnx.Constant"() {torch.onnx.value = dense_resource<__model_layers.5_self_attn_Constant_3_attr__value> : tensor<1xsi64>} : () -> !torch.vtensor<[1],si64>
    %805 = torch.operator "onnx.Unsqueeze"(%803, %804) : (!torch.vtensor<[1,8,128],f32>, !torch.vtensor<[1],si64>) -> !torch.vtensor<[1,1,8,128],f32>
    %806 = torch.operator "onnx.Gather"(%802, %291) {torch.onnx.axis = 0 : si64} : (!torch.vtensor<[8,128],f32>, !torch.vtensor<[1,8],si64>) -> !torch.vtensor<[1,8,128],f32>
    %807 = torch.operator "onnx.Constant"() {torch.onnx.value = dense_resource<__model_layers.5_self_attn_Constant_4_attr__value> : tensor<1xsi64>} : () -> !torch.vtensor<[1],si64>
    %808 = torch.operator "onnx.Unsqueeze"(%806, %807) : (!torch.vtensor<[1,8,128],f32>, !torch.vtensor<[1],si64>) -> !torch.vtensor<[1,1,8,128],f32>
    %809 = torch.operator "onnx.Mul"(%796, %805) : (!torch.vtensor<[1,32,8,128],f32>, !torch.vtensor<[1,1,8,128],f32>) -> !torch.vtensor<[1,32,8,128],f32>
    %810 = torch.operator "onnx.Constant"() {torch.onnx.value = dense_resource<__model_layers.5_self_attn_Constant_5_attr__value> : tensor<1xsi64>} : () -> !torch.vtensor<[1],si64>
    %811 = torch.operator "onnx.Constant"() {torch.onnx.value = dense_resource<__model_layers.5_self_attn_Constant_6_attr__value> : tensor<1xsi64>} : () -> !torch.vtensor<[1],si64>
    %812 = torch.operator "onnx.Constant"() {torch.onnx.value = dense_resource<__model_layers.5_self_attn_Constant_7_attr__value> : tensor<1xsi64>} : () -> !torch.vtensor<[1],si64>
    %813 = torch.operator "onnx.Constant"() {torch.onnx.value = dense_resource<__model_layers.5_self_attn_Constant_8_attr__value> : tensor<1xsi64>} : () -> !torch.vtensor<[1],si64>
    %814 = torch.operator "onnx.Slice"(%796, %811, %812, %810, %813) : (!torch.vtensor<[1,32,8,128],f32>, !torch.vtensor<[1],si64>, !torch.vtensor<[1],si64>, !torch.vtensor<[1],si64>, !torch.vtensor<[1],si64>) -> !torch.vtensor<[1,32,8,64],f32>
    %815 = torch.operator "onnx.Constant"() {torch.onnx.value = dense_resource<__model_layers.5_self_attn_Constant_9_attr__value> : tensor<1xsi64>} : () -> !torch.vtensor<[1],si64>
    %816 = torch.operator "onnx.Constant"() {torch.onnx.value = dense_resource<__model_layers.5_self_attn_Constant_10_attr__value> : tensor<1xsi64>} : () -> !torch.vtensor<[1],si64>
    %817 = torch.operator "onnx.Constant"() {torch.onnx.value = dense_resource<__model_layers.5_self_attn_Constant_11_attr__value> : tensor<1xsi64>} : () -> !torch.vtensor<[1],si64>
    %818 = torch.operator "onnx.Constant"() {torch.onnx.value = dense_resource<__model_layers.5_self_attn_Constant_12_attr__value> : tensor<1xsi64>} : () -> !torch.vtensor<[1],si64>
    %819 = torch.operator "onnx.Slice"(%796, %816, %817, %815, %818) : (!torch.vtensor<[1,32,8,128],f32>, !torch.vtensor<[1],si64>, !torch.vtensor<[1],si64>, !torch.vtensor<[1],si64>, !torch.vtensor<[1],si64>) -> !torch.vtensor<[1,32,8,64],f32>
    %820 = torch.operator "onnx.Neg"(%819) : (!torch.vtensor<[1,32,8,64],f32>) -> !torch.vtensor<[1,32,8,64],f32>
    %821 = torch.operator "onnx.Concat"(%820, %814) {torch.onnx.axis = -1 : si64} : (!torch.vtensor<[1,32,8,64],f32>, !torch.vtensor<[1,32,8,64],f32>) -> !torch.vtensor<[1,32,8,128],f32>
    %822 = torch.operator "onnx.Mul"(%821, %808) : (!torch.vtensor<[1,32,8,128],f32>, !torch.vtensor<[1,1,8,128],f32>) -> !torch.vtensor<[1,32,8,128],f32>
    %823 = torch.operator "onnx.Add"(%809, %822) : (!torch.vtensor<[1,32,8,128],f32>, !torch.vtensor<[1,32,8,128],f32>) -> !torch.vtensor<[1,32,8,128],f32>
    %824 = torch.operator "onnx.Mul"(%798, %805) : (!torch.vtensor<[1,32,8,128],f32>, !torch.vtensor<[1,1,8,128],f32>) -> !torch.vtensor<[1,32,8,128],f32>
    %825 = torch.operator "onnx.Constant"() {torch.onnx.value = dense_resource<__model_layers.5_self_attn_Constant_13_attr__value> : tensor<1xsi64>} : () -> !torch.vtensor<[1],si64>
    %826 = torch.operator "onnx.Constant"() {torch.onnx.value = dense_resource<__model_layers.5_self_attn_Constant_14_attr__value> : tensor<1xsi64>} : () -> !torch.vtensor<[1],si64>
    %827 = torch.operator "onnx.Constant"() {torch.onnx.value = dense_resource<__model_layers.5_self_attn_Constant_15_attr__value> : tensor<1xsi64>} : () -> !torch.vtensor<[1],si64>
    %828 = torch.operator "onnx.Constant"() {torch.onnx.value = dense_resource<__model_layers.5_self_attn_Constant_16_attr__value> : tensor<1xsi64>} : () -> !torch.vtensor<[1],si64>
    %829 = torch.operator "onnx.Slice"(%798, %826, %827, %825, %828) : (!torch.vtensor<[1,32,8,128],f32>, !torch.vtensor<[1],si64>, !torch.vtensor<[1],si64>, !torch.vtensor<[1],si64>, !torch.vtensor<[1],si64>) -> !torch.vtensor<[1,32,8,64],f32>
    %830 = torch.operator "onnx.Constant"() {torch.onnx.value = dense_resource<__model_layers.5_self_attn_Constant_17_attr__value> : tensor<1xsi64>} : () -> !torch.vtensor<[1],si64>
    %831 = torch.operator "onnx.Constant"() {torch.onnx.value = dense_resource<__model_layers.5_self_attn_Constant_18_attr__value> : tensor<1xsi64>} : () -> !torch.vtensor<[1],si64>
    %832 = torch.operator "onnx.Constant"() {torch.onnx.value = dense_resource<__model_layers.5_self_attn_Constant_19_attr__value> : tensor<1xsi64>} : () -> !torch.vtensor<[1],si64>
    %833 = torch.operator "onnx.Constant"() {torch.onnx.value = dense_resource<__model_layers.5_self_attn_Constant_20_attr__value> : tensor<1xsi64>} : () -> !torch.vtensor<[1],si64>
    %834 = torch.operator "onnx.Slice"(%798, %831, %832, %830, %833) : (!torch.vtensor<[1,32,8,128],f32>, !torch.vtensor<[1],si64>, !torch.vtensor<[1],si64>, !torch.vtensor<[1],si64>, !torch.vtensor<[1],si64>) -> !torch.vtensor<[1,32,8,64],f32>
    %835 = torch.operator "onnx.Neg"(%834) : (!torch.vtensor<[1,32,8,64],f32>) -> !torch.vtensor<[1,32,8,64],f32>
    %836 = torch.operator "onnx.Concat"(%835, %829) {torch.onnx.axis = -1 : si64} : (!torch.vtensor<[1,32,8,64],f32>, !torch.vtensor<[1,32,8,64],f32>) -> !torch.vtensor<[1,32,8,128],f32>
    %837 = torch.operator "onnx.Mul"(%836, %808) : (!torch.vtensor<[1,32,8,128],f32>, !torch.vtensor<[1,1,8,128],f32>) -> !torch.vtensor<[1,32,8,128],f32>
    %838 = torch.operator "onnx.Add"(%824, %837) : (!torch.vtensor<[1,32,8,128],f32>, !torch.vtensor<[1,32,8,128],f32>) -> !torch.vtensor<[1,32,8,128],f32>
    %839 = torch.operator "onnx.Transpose"(%838) {torch.onnx.perm = [0 : si64, 1 : si64, 3 : si64, 2 : si64]} : (!torch.vtensor<[1,32,8,128],f32>) -> !torch.vtensor<[1,32,128,8],f32>
    %840 = torch.operator "onnx.MatMul"(%823, %839) : (!torch.vtensor<[1,32,8,128],f32>, !torch.vtensor<[1,32,128,8],f32>) -> !torch.vtensor<[1,32,8,8],f32>
    %841 = torch.operator "onnx.Constant"() {torch.onnx.value = dense_resource<__model_layers.5_self_attn_Constant_21_attr__value> : tensor<f32>} : () -> !torch.vtensor<[],f32>
    %842 = torch.operator "onnx.Div"(%840, %841) : (!torch.vtensor<[1,32,8,8],f32>, !torch.vtensor<[],f32>) -> !torch.vtensor<[1,32,8,8],f32>
    %843 = torch.operator "onnx.Add"(%842, %301) : (!torch.vtensor<[1,32,8,8],f32>, !torch.vtensor<[?,?,8,8],f32>) -> !torch.vtensor<[?,32,8,8],f32>
    %844 = torch.operator "onnx.Softmax"(%843) {torch.onnx.axis = -1 : si64} : (!torch.vtensor<[?,32,8,8],f32>) -> !torch.vtensor<[?,32,8,8],f32>
    %845 = torch.operator "onnx.Cast"(%844) {torch.onnx.to = 1 : si64} : (!torch.vtensor<[?,32,8,8],f32>) -> !torch.vtensor<[?,32,8,8],f32>
    %846 = torch.operator "onnx.Cast"(%845) {torch.onnx.to = 1 : si64} : (!torch.vtensor<[?,32,8,8],f32>) -> !torch.vtensor<[?,32,8,8],f32>
    %847 = torch.operator "onnx.MatMul"(%846, %800) : (!torch.vtensor<[?,32,8,8],f32>, !torch.vtensor<[1,32,8,128],f32>) -> !torch.vtensor<[?,32,8,128],f32>
    %848 = torch.operator "onnx.Transpose"(%847) {torch.onnx.perm = [0 : si64, 2 : si64, 1 : si64, 3 : si64]} : (!torch.vtensor<[?,32,8,128],f32>) -> !torch.vtensor<[?,8,32,128],f32>
    %849 = torch.operator "onnx.Constant"() {torch.onnx.value = dense_resource<__model_layers.5_self_attn_Constant_22_attr__value> : tensor<3xsi64>} : () -> !torch.vtensor<[3],si64>
    %850 = torch.operator "onnx.Reshape"(%848, %849) {torch.onnx.allowzero = 0 : si64} : (!torch.vtensor<[?,8,32,128],f32>, !torch.vtensor<[3],si64>) -> !torch.vtensor<[1,8,4096],f32>
    %851 = torch.operator "onnx.MatMul"(%850, %104) : (!torch.vtensor<[1,8,4096],f32>, !torch.vtensor<[4096,4096],f32>) -> !torch.vtensor<[1,8,4096],f32>
    %852 = torch.operator "onnx.Add"(%777, %851) : (!torch.vtensor<[1,8,4096],f32>, !torch.vtensor<[1,8,4096],f32>) -> !torch.vtensor<[1,8,4096],f32>
    %853 = torch.operator "onnx.Cast"(%852) {torch.onnx.to = 1 : si64} : (!torch.vtensor<[1,8,4096],f32>) -> !torch.vtensor<[1,8,4096],f32>
    %854 = torch.operator "onnx.Constant"() {torch.onnx.value = dense_resource<__model_layers.5_post_attention_layernorm_Constant_attr__value> : tensor<f32>} : () -> !torch.vtensor<[],f32>
    %855 = torch.operator "onnx.Pow"(%853, %854) : (!torch.vtensor<[1,8,4096],f32>, !torch.vtensor<[],f32>) -> !torch.vtensor<[1,8,4096],f32>
    %856 = torch.operator "onnx.ReduceMean"(%855) {torch.onnx.axes = [-1 : si64], torch.onnx.keepdims = 1 : si64} : (!torch.vtensor<[1,8,4096],f32>) -> !torch.vtensor<[1,8,1],f32>
    %857 = torch.operator "onnx.Constant"() {torch.onnx.value = dense_resource<__model_layers.5_post_attention_layernorm_Constant_1_attr__value> : tensor<f32>} : () -> !torch.vtensor<[],f32>
    %858 = torch.operator "onnx.Add"(%856, %857) : (!torch.vtensor<[1,8,1],f32>, !torch.vtensor<[],f32>) -> !torch.vtensor<[1,8,1],f32>
    %859 = torch.operator "onnx.Sqrt"(%858) : (!torch.vtensor<[1,8,1],f32>) -> !torch.vtensor<[1,8,1],f32>
    %860 = torch.operator "onnx.Constant"() {torch.onnx.value = dense_resource<__model_layers.5_post_attention_layernorm_Constant_2_attr__value> : tensor<f32>} : () -> !torch.vtensor<[],f32>
    %861 = torch.operator "onnx.Div"(%860, %859) : (!torch.vtensor<[],f32>, !torch.vtensor<[1,8,1],f32>) -> !torch.vtensor<[1,8,1],f32>
    %862 = torch.operator "onnx.Mul"(%853, %861) : (!torch.vtensor<[1,8,4096],f32>, !torch.vtensor<[1,8,1],f32>) -> !torch.vtensor<[1,8,4096],f32>
    %863 = torch.operator "onnx.Cast"(%862) {torch.onnx.to = 1 : si64} : (!torch.vtensor<[1,8,4096],f32>) -> !torch.vtensor<[1,8,4096],f32>
    %864 = torch.operator "onnx.Mul"(%12, %863) : (!torch.vtensor<[4096],f32>, !torch.vtensor<[1,8,4096],f32>) -> !torch.vtensor<[1,8,4096],f32>
    %865 = torch.operator "onnx.MatMul"(%864, %105) : (!torch.vtensor<[1,8,4096],f32>, !torch.vtensor<[4096,11008],f32>) -> !torch.vtensor<[1,8,11008],f32>
    %866 = torch.operator "onnx.Sigmoid"(%865) : (!torch.vtensor<[1,8,11008],f32>) -> !torch.vtensor<[1,8,11008],f32>
    %867 = torch.operator "onnx.Mul"(%865, %866) : (!torch.vtensor<[1,8,11008],f32>, !torch.vtensor<[1,8,11008],f32>) -> !torch.vtensor<[1,8,11008],f32>
    %868 = torch.operator "onnx.MatMul"(%864, %106) : (!torch.vtensor<[1,8,4096],f32>, !torch.vtensor<[4096,11008],f32>) -> !torch.vtensor<[1,8,11008],f32>
    %869 = torch.operator "onnx.Mul"(%867, %868) : (!torch.vtensor<[1,8,11008],f32>, !torch.vtensor<[1,8,11008],f32>) -> !torch.vtensor<[1,8,11008],f32>
    %870 = torch.operator "onnx.MatMul"(%869, %107) : (!torch.vtensor<[1,8,11008],f32>, !torch.vtensor<[11008,4096],f32>) -> !torch.vtensor<[1,8,4096],f32>
    %871 = torch.operator "onnx.Add"(%853, %870) : (!torch.vtensor<[1,8,4096],f32>, !torch.vtensor<[1,8,4096],f32>) -> !torch.vtensor<[1,8,4096],f32>
    %872 = torch.operator "onnx.Cast"(%871) {torch.onnx.to = 1 : si64} : (!torch.vtensor<[1,8,4096],f32>) -> !torch.vtensor<[1,8,4096],f32>
    %873 = torch.operator "onnx.Constant"() {torch.onnx.value = dense_resource<__model_layers.6_input_layernorm_Constant_attr__value> : tensor<f32>} : () -> !torch.vtensor<[],f32>
    %874 = torch.operator "onnx.Pow"(%872, %873) : (!torch.vtensor<[1,8,4096],f32>, !torch.vtensor<[],f32>) -> !torch.vtensor<[1,8,4096],f32>
    %875 = torch.operator "onnx.ReduceMean"(%874) {torch.onnx.axes = [-1 : si64], torch.onnx.keepdims = 1 : si64} : (!torch.vtensor<[1,8,4096],f32>) -> !torch.vtensor<[1,8,1],f32>
    %876 = torch.operator "onnx.Constant"() {torch.onnx.value = dense_resource<__model_layers.6_input_layernorm_Constant_1_attr__value> : tensor<f32>} : () -> !torch.vtensor<[],f32>
    %877 = torch.operator "onnx.Add"(%875, %876) : (!torch.vtensor<[1,8,1],f32>, !torch.vtensor<[],f32>) -> !torch.vtensor<[1,8,1],f32>
    %878 = torch.operator "onnx.Sqrt"(%877) : (!torch.vtensor<[1,8,1],f32>) -> !torch.vtensor<[1,8,1],f32>
    %879 = torch.operator "onnx.Constant"() {torch.onnx.value = dense_resource<__model_layers.6_input_layernorm_Constant_2_attr__value> : tensor<f32>} : () -> !torch.vtensor<[],f32>
    %880 = torch.operator "onnx.Div"(%879, %878) : (!torch.vtensor<[],f32>, !torch.vtensor<[1,8,1],f32>) -> !torch.vtensor<[1,8,1],f32>
    %881 = torch.operator "onnx.Mul"(%872, %880) : (!torch.vtensor<[1,8,4096],f32>, !torch.vtensor<[1,8,1],f32>) -> !torch.vtensor<[1,8,4096],f32>
    %882 = torch.operator "onnx.Cast"(%881) {torch.onnx.to = 1 : si64} : (!torch.vtensor<[1,8,4096],f32>) -> !torch.vtensor<[1,8,4096],f32>
    %883 = torch.operator "onnx.Mul"(%13, %882) : (!torch.vtensor<[4096],f32>, !torch.vtensor<[1,8,4096],f32>) -> !torch.vtensor<[1,8,4096],f32>
…
      __model_layers.10_self_attn_Constant_18_attr__value: "0x080000004000000000000000",
      __model_layers.10_self_attn_Constant_19_attr__value: "0x08000000FFFFFFFFFFFFFF7F",
      __model_layers.10_self_attn_Constant_20_attr__value: "0x080000000100000000000000",
      __model_layers.10_self_attn_Constant_21_attr__value: "0x08000000F3043541",
      __model_layers.10_self_attn_Constant_22_attr__value: "0x08000000010000000000000008000000000000000010000000000000",
      __model_layers.10_post_attention_layernorm_Constant_attr__value: "0x0800000000000040",
      __model_layers.10_post_attention_layernorm_Constant_1_attr__value: "0x08000000ACC52737",
      __model_layers.10_post_attention_layernorm_Constant_2_attr__value: "0x080000000000803F",
      __model_layers.11_input_layernorm_Constant_attr__value: "0x0800000000000040",
      __model_layers.11_input_layernorm_Constant_1_attr__value: "0x08000000ACC52737",
      __model_layers.11_input_layernorm_Constant_2_attr__value: "0x080000000000803F",
      __model_layers.11_self_attn_Constant_3_attr__value: "0x080000000100000000000000",
      __model_layers.11_self_attn_Constant_4_attr__value: "0x080000000100000000000000",
      __model_layers.11_self_attn_Constant_5_attr__value: "0x080000000300000000000000",
      __model_layers.11_self_attn_Constant_6_attr__value: "0x080000000000000000000000",
      __model_layers.11_self_attn_Constant_7_attr__value: "0x080000004000000000000000",
      __model_layers.11_self_attn_Constant_8_attr__value: "0x080000000100000000000000",
      __model_layers.11_self_attn_Constant_9_attr__value: "0x080000000300000000000000",
      __model_layers.11_self_attn_Constant_10_attr__value: "0x080000004000000000000000",
      __model_layers.11_self_attn_Constant_11_attr__value: "0x08000000FFFFFFFFFFFFFF7F",
      __model_layers.11_self_attn_Constant_12_attr__value: "0x080000000100000000000000",
      __model_layers.11_self_attn_Constant_13_attr__value: "0x080000000300000000000000",
      __model_layers.11_self_attn_Constant_14_attr__value: "0x080000000000000000000000",
      __model_layers.11_self_attn_Constant_15_attr__value: "0x080000004000000000000000",
      __model_layers.11_self_attn_Constant_16_attr__value: "0x080000000100000000000000",
      __model_layers.11_self_attn_Constant_17_attr__value: "0x080000000300000000000000",
      __model_layers.11_self_attn_Constant_18_attr__value: "0x080000004000000000000000",
      __model_layers.11_self_attn_Constant_19_attr__value: "0x08000000FFFFFFFFFFFFFF7F",
      __model_layers.11_self_attn_Constant_20_attr__value: "0x080000000100000000000000",
      __model_layers.11_self_attn_Constant_21_attr__value: "0x08000000F3043541",
      __model_layers.11_self_attn_Constant_22_attr__value: "0x08000000010000000000000008000000000000000010000000000000",
      __model_layers.11_post_attention_layernorm_Constant_attr__value: "0x0800000000000040",
      __model_layers.11_post_attention_layernorm_Constant_1_attr__value: "0x08000000ACC52737",
      __model_layers.11_post_attention_layernorm_Constant_2_attr__value: "0x080000000000803F",
      __model_layers.12_input_layernorm_Constant_attr__value: "0x0800000000000040",
      __model_layers.12_input_layernorm_Constant_1_attr__value: "0x08000000ACC52737",
      __model_layers.12_input_layernorm_Constant_2_attr__value: "0x080000000000803F",
      __model_layers.12_self_attn_Constant_3_attr__value: "0x080000000100000000000000",
      __model_layers.12_self_attn_Constant_4_attr__value: "0x080000000100000000000000",
      __model_layers.12_self_attn_Constant_5_attr__value: "0x080000000300000000000000",
      __model_layers.12_self_attn_Constant_6_attr__value: "0x080000000000000000000000",
      __model_layers.12_self_attn_Constant_7_attr__value: "0x080000004000000000000000",
      __model_layers.12_self_attn_Constant_8_attr__value: "0x080000000100000000000000",
      __model_layers.12_self_attn_Constant_9_attr__value: "0x080000000300000000000000",
      __model_layers.12_self_attn_Constant_10_attr__value: "0x080000004000000000000000",
      __model_layers.12_self_attn_Constant_11_attr__value: "0x08000000FFFFFFFFFFFFFF7F",
      __model_layers.12_self_attn_Constant_12_attr__value: "0x080000000100000000000000",
      __model_layers.12_self_attn_Constant_13_attr__value: "0x080000000300000000000000",
      __model_layers.12_self_attn_Constant_14_attr__value: "0x080000000000000000000000",
      __model_layers.12_self_attn_Constant_15_attr__value: "0x080000004000000000000000",
      __model_layers.12_self_attn_Constant_16_attr__value: "0x080000000100000000000000",
      __model_layers.12_self_attn_Constant_17_attr__value: "0x080000000300000000000000",
      __model_layers.12_self_attn_Constant_18_attr__value: "0x080000004000000000000000",
      __model_layers.12_self_attn_Constant_19_attr__value: "0x08000000FFFFFFFFFFFFFF7F",
      __model_layers.12_self_attn_Constant_20_attr__value: "0x080000000100000000000000",
      __model_layers.12_self_attn_Constant_21_attr__value: "0x08000000F3043541",
      __model_layers.12_self_attn_Constant_22_attr__value: "0x08000000010000000000000008000000000000000010000000000000",
      __model_layers.12_post_attention_layernorm_Constant_attr__value: "0x0800000000000040",
      __model_layers.12_post_attention_layernorm_Constant_1_attr__value: "0x08000000ACC52737",
      __model_layers.12_post_attention_layernorm_Constant_2_attr__value: "0x080000000000803F",
      __model_layers.13_input_layernorm_Constant_attr__value: "0x0800000000000040",
      __model_layers.13_input_layernorm_Constant_1_attr__value: "0x08000000ACC52737",
      __model_layers.13_input_layernorm_Constant_2_attr__value: "0x080000000000803F",
      __model_layers.13_self_attn_Constant_3_attr__value: "0x080000000100000000000000",
      __model_layers.13_self_attn_Constant_4_attr__value: "0x080000000100000000000000",
      __model_layers.13_self_attn_Constant_5_attr__value: "0x080000000300000000000000",
      __model_layers.13_self_attn_Constant_6_attr__value: "0x080000000000000000000000",
      __model_layers.13_self_attn_Constant_7_attr__value: "0x080000004000000000000000",
      __model_layers.13_self_attn_Constant_8_attr__value: "0x080000000100000000000000",
      __model_layers.13_self_attn_Constant_9_attr__value: "0x080000000300000000000000",
      __model_layers.13_self_attn_Constant_10_attr__value: "0x080000004000000000000000",
      __model_layers.13_self_attn_Constant_11_attr__value: "0x08000000FFFFFFFFFFFFFF7F",
      __model_layers.13_self_attn_Constant_12_attr__value: "0x080000000100000000000000",
      __model_layers.13_self_attn_Constant_13_attr__value: "0x080000000300000000000000",
      __model_layers.13_self_attn_Constant_14_attr__value: "0x080000000000000000000000",
      __model_layers.13_self_attn_Constant_15_attr__value: "0x080000004000000000000000",
      __model_layers.13_self_attn_Constant_16_attr__value: "0x080000000100000000000000",
      __model_layers.13_self_attn_Constant_17_attr__value: "0x080000000300000000000000",
      __model_layers.13_self_attn_Constant_18_attr__value: "0x080000004000000000000000",
      __model_layers.13_self_attn_Constant_19_attr__value: "0x08000000FFFFFFFFFFFFFF7F",
      __model_layers.13_self_attn_Constant_20_attr__value: "0x080000000100000000000000",
      __model_layers.13_self_attn_Constant_21_attr__value: "0x08000000F3043541",
      __model_layers.13_self_attn_Constant_22_attr__value: "0x08000000010000000000000008000000000000000010000000000000",
      __model_layers.13_post_attention_layernorm_Constant_attr__value: "0x0800000000000040",
      __model_layers.13_post_attention_layernorm_Constant_1_attr__value: "0x08000000ACC52737",
      __model_layers.13_post_attention_layernorm_Constant_2_attr__value: "0x080000000000803F",
      __model_layers.14_input_layernorm_Constant_attr__value: "0x0800000000000040",
      __model_layers.14_input_layernorm_Constant_1_attr__value: "0x08000000ACC52737",
      __model_layers.14_input_layernorm_Constant_2_attr__value: "0x080000000000803F",
      __model_layers.14_self_attn_Constant_3_attr__value: "0x080000000100000000000000",
      __model_layers.14_self_attn_Constant_4_attr__value: "0x080000000100000000000000",
      __model_layers.14_self_attn_Constant_5_attr__value: "0x080000000300000000000000",
      __model_layers.14_self_attn_Constant_6_attr__value: "0x080000000000000000000000",
      __model_layers.14_self_attn_Constant_7_attr__value: "0x080000004000000000000000",
      __model_layers.14_self_attn_Constant_8_attr__value: "0x080000000100000000000000",
      __model_layers.14_self_attn_Constant_9_attr__value: "0x080000000300000000000000",
      __model_layers.14_self_attn_Constant_10_attr__value: "0x080000004000000000000000",
      __model_layers.14_self_attn_Constant_11_attr__value: "0x08000000FFFFFFFFFFFFFF7F",
      __model_layers.14_self_attn_Constant_12_attr__value: "0x080000000100000000000000",
      __model_layers.14_self_attn_Constant_13_attr__value: "0x080000000300000000000000",
      __model_layers.14_self_attn_Constant_14_attr__value: "0x080000000000000000000000",
      __model_layers.14_self_attn_Constant_15_attr__value: "0x080000004000000000000000",
      __model_layers.14_self_attn_Constant_16_attr__value: "0x080000000100000000000000",
      __model_layers.14_self_attn_Constant_17_attr__value: "0x080000000300000000000000",
      __model_layers.14_self_attn_Constant_18_attr__value: "0x080000004000000000000000",
      __model_layers.14_self_attn_Constant_19_attr__value: "0x08000000FFFFFFFFFFFFFF7F",
      __model_layers.14_self_attn_Constant_20_attr__value: "0x080000000100000000000000",
      __model_layers.14_self_attn_Constant_21_attr__value: "0x08000000F3043541",
      __model_layers.14_self_attn_Constant_22_attr__value: "0x08000000010000000000000008000000000000000010000000000000",
      __model_layers.14_post_attention_layernorm_Constant_attr__value: "0x0800000000000040",
      __model_layers.14_post_attention_layernorm_Constant_1_attr__value: "0x08000000ACC52737",
      __model_layers.14_post_attention_layernorm_Constant_2_attr__value: "0x080000000000803F",
      __model_layers.15_input_layernorm_Constant_attr__value: "0x0800000000000040",
      __model_layers.15_input_layernorm_Constant_1_attr__value: "0x08000000ACC52737",
      __model_layers.15_input_layernorm_Constant_2_attr__value: "0x080000000000803F",
      __model_layers.15_self_attn_Constant_3_attr__value: "0x080000000100000000000000",
      __model_layers.15_self_attn_Constant_4_attr__value: "0x080000000100000000000000",
      __model_layers.15_self_attn_Constant_5_attr__value: "0x080000000300000000000000",
      __model_layers.15_self_attn_Constant_6_attr__value: "0x080000000000000000000000",
      __model_layers.15_self_attn_Constant_7_attr__value: "0x080000004000000000000000",
      __model_layers.15_self_attn_Constant_8_attr__value: "0x080000000100000000000000",
      __model_layers.15_self_attn_Constant_9_attr__value: "0x080000000300000000000000",
      __model_layers.15_self_attn_Constant_10_attr__value: "0x080000004000000000000000",
      __model_layers.15_self_attn_Constant_11_attr__value: "0x08000000FFFFFFFFFFFFFF7F",
      __model_layers.15_self_attn_Constant_12_attr__value: "0x080000000100000000000000",
      __model_layers.15_self_attn_Constant_13_attr__value: "0x080000000300000000000000",
      __model_layers.15_self_attn_Constant_14_attr__value: "0x080000000000000000000000",
      __model_layers.15_self_attn_Constant_15_attr__value: "0x080000004000000000000000",
      __model_layers.15_self_attn_Constant_16_attr__value: "0x080000000100000000000000",
      __model_layers.15_self_attn_Constant_17_attr__value: "0x080000000300000000000000",
      __model_layers.15_self_attn_Constant_18_attr__value: "0x080000004000000000000000",
      __model_layers.15_self_attn_Constant_19_attr__value: "0x08000000FFFFFFFFFFFFFF7F",
      __model_layers.15_self_attn_Constant_20_attr__value: "0x080000000100000000000000",
      __model_layers.15_self_attn_Constant_21_attr__value: "0x08000000F3043541",
      __model_layers.15_self_attn_Constant_22_attr__value: "0x08000000010000000000000008000000000000000010000000000000",
      __model_layers.15_post_attention_layernorm_Constant_attr__value: "0x0800000000000040",
      __model_layers.15_post_attention_layernorm_Constant_1_attr__value: "0x08000000ACC52737",
      __model_layers.15_post_attention_layernorm_Constant_2_attr__value: "0x080000000000803F",
      __model_layers.16_input_layernorm_Constant_attr__value: "0x0800000000000040",
      __model_layers.16_input_layernorm_Constant_1_attr__value: "0x08000000ACC52737",
      __model_layers.16_input_layernorm_Constant_2_attr__value: "0x080000000000803F",
      __model_layers.16_self_attn_Constant_3_attr__value: "0x080000000100000000000000",
      __model_layers.16_self_attn_Constant_4_attr__value: "0x080000000100000000000000",
      __model_layers.16_self_attn_Constant_5_attr__value: "0x080000000300000000000000",
      __model_layers.16_self_attn_Constant_6_attr__value: "0x080000000000000000000000",
      __model_layers.16_self_attn_Constant_7_attr__value: "0x080000004000000000000000",
      __model_layers.16_self_attn_Constant_8_attr__value: "0x080000000100000000000000",
      __model_layers.16_self_attn_Constant_9_attr__value: "0x080000000300000000000000",
      __model_layers.16_self_attn_Constant_10_attr__value: "0x080000004000000000000000",
      __model_layers.16_self_attn_Constant_11_attr__value: "0x08000000FFFFFFFFFFFFFF7F",
      __model_layers.16_self_attn_Constant_12_attr__value: "0x080000000100000000000000",
      __model_layers.16_self_attn_Constant_13_attr__value: "0x080000000300000000000000",
      __model_layers.16_self_attn_Constant_14_attr__value: "0x080000000000000000000000",
      __model_layers.16_self_attn_Constant_15_attr__value: "0x080000004000000000000000",
      __model_layers.16_self_attn_Constant_16_attr__value: "0x080000000100000000000000",
      __model_layers.16_self_attn_Constant_17_attr__value: "0x080000000300000000000000",
      __model_layers.16_self_attn_Constant_18_attr__value: "0x080000004000000000000000",
      __model_layers.16_self_attn_Constant_19_attr__value: "0x08000000FFFFFFFFFFFFFF7F",
      __model_layers.16_self_attn_Constant_20_attr__value: "0x080000000100000000000000",
      __model_layers.16_self_attn_Constant_21_attr__value: "0x08000000F3043541",
      __model_layers.16_self_attn_Constant_22_attr__value: "0x08000000010000000000000008000000000000000010000000000000",
      __model_layers.16_post_attention_layernorm_Constant_attr__value: "0x0800000000000040",
      __model_layers.16_post_attention_layernorm_Constant_1_attr__value: "0x08000000ACC52737",
      __model_layers.16_post_attention_layernorm_Constant_2_attr__value: "0x080000000000803F",
      __model_layers.17_input_layernorm_Constant_attr__value: "0x0800000000000040",
      __model_layers.17_input_layernorm_Constant_1_attr__value: "0x08000000ACC52737",
      __model_layers.17_input_layernorm_Constant_2_attr__value: "0x080000000000803F",
      __model_layers.17_self_attn_Constant_3_attr__value: "0x080000000100000000000000",
      __model_layers.17_self_attn_Constant_4_attr__value: "0x080000000100000000000000",
      __model_layers.17_self_attn_Constant_5_attr__value: "0x080000000300000000000000",
      __model_layers.17_self_attn_Constant_6_attr__value: "0x080000000000000000000000",
      __model_layers.17_self_attn_Constant_7_attr__value: "0x080000004000000000000000",
      __model_layers.17_self_attn_Constant_8_attr__value: "0x080000000100000000000000",
      __model_layers.17_self_attn_Constant_9_attr__value: "0x080000000300000000000000",
      __model_layers.17_self_attn_Constant_10_attr__value: "0x080000004000000000000000",
      __model_layers.17_self_attn_Constant_11_attr__value: "0x08000000FFFFFFFFFFFFFF7F",
      __model_layers.17_self_attn_Constant_12_attr__value: "0x080000000100000000000000",
      __model_layers.17_self_attn_Constant_13_attr__value: "0x080000000300000000000000",
      __model_layers.17_self_attn_Constant_14_attr__value: "0x080000000000000000000000",
      __model_layers.17_self_attn_Constant_15_attr__value: "0x080000004000000000000000",
      __model_layers.17_self_attn_Constant_16_attr__value: "0x080000000100000000000000",
      __model_layers.17_self_attn_Constant_17_attr__value: "0x080000000300000000000000",
      __model_layers.17_self_attn_Constant_18_attr__value: "0x080000004000000000000000",
      __model_layers.17_self_attn_Constant_19_attr__value: "0x08000000FFFFFFFFFFFFFF7F",
      __model_layers.17_self_attn_Constant_20_attr__value: "0x080000000100000000000000",
      __model_layers.17_self_attn_Constant_21_attr__value: "0x08000000F3043541",
      __model_layers.17_self_attn_Constant_22_attr__value: "0x08000000010000000000000008000000000000000010000000000000",
      __model_layers.17_post_attention_layernorm_Constant_attr__value: "0x0800000000000040",
      __model_layers.17_post_attention_layernorm_Constant_1_attr__value: "0x08000000ACC52737",
      __model_layers.17_post_attention_layernorm_Constant_2_attr__value: "0x080000000000803F",
      __model_layers.18_input_layernorm_Constant_attr__value: "0x0800000000000040",
      __model_layers.18_input_layernorm_Constant_1_attr__value: "0x08000000ACC52737",
      __model_layers.18_input_layernorm_Constant_2_attr__value: "0x080000000000803F",
      __model_layers.18_self_attn_Constant_3_attr__value: "0x080000000100000000000000",
      __model_layers.18_self_attn_Constant_4_attr__value: "0x080000000100000000000000",
      __model_layers.18_self_attn_Constant_5_attr__value: "0x080000000300000000000000",
      __model_layers.18_self_attn_Constant_6_attr__value: "0x080000000000000000000000",
      __model_layers.18_self_attn_Constant_7_attr__value: "0x080000004000000000000000",
      __model_layers.18_self_attn_Constant_8_attr__value: "0x080000000100000000000000",
      __model_layers.18_self_attn_Constant_9_attr__value: "0x080000000300000000000000",
      __model_layers.18_self_attn_Constant_10_attr__value: "0x080000004000000000000000",
      __model_layers.18_self_attn_Constant_11_attr__value: "0x08000000FFFFFFFFFFFFFF7F",
      __model_layers.18_self_attn_Constant_12_attr__value: "0x080000000100000000000000",
      __model_layers.18_self_attn_Constant_13_attr__value: "0x080000000300000000000000",
      __model_layers.18_self_attn_Constant_14_attr__value: "0x080000000000000000000000",
      __model_layers.18_self_attn_Constant_15_attr__value: "0x080000004000000000000000",
      __model_layers.18_self_attn_Constant_16_attr__value: "0x080000000100000000000000",
      __model_layers.18_self_attn_Constant_17_attr__value: "0x080000000300000000000000",
      __model_layers.18_self_attn_Constant_18_attr__value: "0x080000004000000000000000",
      __model_layers.18_self_attn_Constant_19_attr__value: "0x08000000FFFFFFFFFFFFFF7F",
      __model_layers.18_self_attn_Constant_20_attr__value: "0x080000000100000000000000",
      __model_layers.18_self_attn_Constant_21_attr__value: "0x08000000F3043541",
      __model_layers.18_self_attn_Constant_22_attr__value: "0x08000000010000000000000008000000000000000010000000000000",
      __model_layers.18_post_attention_layernorm_Constant_attr__value: "0x0800000000000040",
      __model_layers.18_post_attention_layernorm_Constant_1_attr__value: "0x08000000ACC52737",
      __model_layers.18_post_attention_layernorm_Constant_2_attr__value: "0x080000000000803F",
      __model_layers.19_input_layernorm_Constant_attr__value: "0x0800000000000040",
      __model_layers.19_input_layernorm_Constant_1_attr__value: "0x08000000ACC52737",
      __model_layers.19_input_layernorm_Constant_2_attr__value: "0x080000000000803F",
      __model_layers.19_self_attn_Constant_3_attr__value: "0x080000000100000000000000",
      __model_layers.19_self_attn_Constant_4_attr__value: "0x080000000100000000000000",
      __model_layers.19_self_attn_Constant_5_attr__value: "0x080000000300000000000000",
      __model_layers.19_self_attn_Constant_6_attr__value: "0x080000000000000000000000",
      __model_layers.19_self_attn_Constant_7_attr__value: "0x080000004000000000000000",
      __model_layers.19_self_attn_Constant_8_attr__value: "0x080000000100000000000000",
      __model_layers.19_self_attn_Constant_9_attr__value: "0x080000000300000000000000",
      __model_layers.19_self_attn_Constant_10_attr__value: "0x080000004000000000000000",
      __model_layers.19_self_attn_Constant_11_attr__value: "0x08000000FFFFFFFFFFFFFF7F",
      __model_layers.19_self_attn_Constant_12_attr__value: "0x080000000100000000000000",
      __model_layers.19_self_attn_Constant_13_attr__value: "0x080000000300000000000000",
      __model_layers.19_self_attn_Constant_14_attr__value: "0x080000000000000000000000",
      __model_layers.19_self_attn_Constant_15_attr__value: "0x080000004000000000000000",
      __model_layers.19_self_attn_Constant_16_attr__value: "0x080000000100000000000000",
      __model_layers.19_self_attn_Constant_17_attr__value: "0x080000000300000000000000",
      __model_layers.19_self_attn_Constant_18_attr__value: "0x080000004000000000000000",
      __model_layers.19_self_attn_Constant_19_attr__value: "0x08000000FFFFFFFFFFFFFF7F",
      __model_layers.19_self_attn_Constant_20_attr__value: "0x080000000100000000000000",
      __model_layers.19_self_attn_Constant_21_attr__value: "0x08000000F3043541",
      __model_layers.19_self_attn_Constant_22_attr__value: "0x08000000010000000000000008000000000000000010000000000000",
      __model_layers.19_post_attention_layernorm_Constant_attr__value: "0x0800000000000040",
      __model_layers.19_post_attention_layernorm_Constant_1_attr__value: "0x08000000ACC52737",
      __model_layers.19_post_attention_layernorm_Constant_2_attr__value: "0x080000000000803F",
      __model_layers.20_input_layernorm_Constant_attr__value: "0x0800000000000040",
      __model_layers.20_input_layernorm_Constant_1_attr__value: "0x08000000ACC52737",
      __model_layers.20_input_layernorm_Constant_2_attr__value: "0x080000000000803F",
      __model_layers.20_self_attn_Constant_3_attr__value: "0x080000000100000000000000",
      __model_layers.20_self_attn_Constant_4_attr__value: "0x080000000100000000000000",
      __model_layers.20_self_attn_Constant_5_attr__value: "0x080000000300000000000000",
      __model_layers.20_self_attn_Constant_6_attr__value: "0x080000000000000000000000",
      __model_layers.20_self_attn_Constant_7_attr__value: "0x080000004000000000000000",
      __model_layers.20_self_attn_Constant_8_attr__value: "0x080000000100000000000000",
      __model_layers.20_self_attn_Constant_9_attr__value: "0x080000000300000000000000",
      __model_layers.20_self_attn_Constant_10_attr__value: "0x080000004000000000000000",
      __model_layers.20_self_attn_Constant_11_attr__value: "0x08000000FFFFFFFFFFFFFF7F",
      __model_layers.20_self_attn_Constant_12_attr__value: "0x080000000100000000000000",
      __model_layers.20_self_attn_Constant_13_attr__value: "0x080000000300000000000000",
      __model_layers.20_self_attn_Constant_14_attr__value: "0x080000000000000000000000",
      __model_layers.20_self_attn_Constant_15_attr__value: "0x080000004000000000000000",
      __model_layers.20_self_attn_Constant_16_attr__value: "0x080000000100000000000000",
      __model_layers.20_self_attn_Constant_17_attr__value: "0x080000000300000000000000",
      __model_layers.20_self_attn_Constant_18_attr__value: "0x080000004000000000000000",
      __model_layers.20_self_attn_Constant_19_attr__value: "0x08000000FFFFFFFFFFFFFF7F",
      __model_layers.20_self_attn_Constant_20_attr__value: "0x080000000100000000000000",
      __model_layers.20_self_attn_Constant_21_attr__value: "0x08000000F3043541",
      __model_layers.20_self_attn_Constant_22_attr__value: "0x08000000010000000000000008000000000000000010000000000000",
      __model_layers.20_post_attention_layernorm_Constant_attr__value: "0x0800000000000040",
      __model_layers.20_post_attention_layernorm_Constant_1_attr__value: "0x08000000ACC52737",
      __model_layers.20_post_attention_layernorm_Constant_2_attr__value: "0x080000000000803F",
      __model_layers.21_input_layernorm_Constant_attr__value: "0x0800000000000040",
      __model_layers.21_input_layernorm_Constant_1_attr__value: "0x08000000ACC52737",
      __model_layers.21_input_layernorm_Constant_2_attr__value: "0x080000000000803F",
      __model_layers.21_self_attn_Constant_3_attr__value: "0x080000000100000000000000",
      __model_layers.21_self_attn_Constant_4_attr__value: "0x080000000100000000000000",
      __model_layers.21_self_attn_Constant_5_attr__value: "0x080000000300000000000000",
      __model_layers.21_self_attn_Constant_6_attr__value: "0x080000000000000000000000",
      __model_layers.21_self_attn_Constant_7_attr__value: "0x080000004000000000000000",
      __model_layers.21_self_attn_Constant_8_attr__value: "0x080000000100000000000000",
      __model_layers.21_self_attn_Constant_9_attr__value: "0x080000000300000000000000",
      __model_layers.21_self_attn_Constant_10_attr__value: "0x080000004000000000000000",
      __model_layers.21_self_attn_Constant_11_attr__value: "0x08000000FFFFFFFFFFFFFF7F",
      __model_layers.21_self_attn_Constant_12_attr__value: "0x080000000100000000000000",
      __model_layers.21_self_attn_Constant_13_attr__value: "0x080000000300000000000000",
      __model_layers.21_self_attn_Constant_14_attr__value: "0x080000000000000000000000",
      __model_layers.21_self_attn_Constant_15_attr__value: "0x080000004000000000000000",
      __model_layers.21_self_attn_Constant_16_attr__value: "0x080000000100000000000000",
      __model_layers.21_self_attn_Constant_17_attr__value: "0x080000000300000000000000",
      __model_layers.21_self_attn_Constant_18_attr__value: "0x080000004000000000000000",
      __model_layers.21_self_attn_Constant_19_attr__value: "0x08000000FFFFFFFFFFFFFF7F",
      __model_layers.21_self_attn_Constant_20_attr__value: "0x080000000100000000000000",
      __model_layers.21_self_attn_Constant_21_attr__value: "0x08000000F3043541",
      __model_layers.21_self_attn_Constant_22_attr__value: "0x08000000010000000000000008000000000000000010000000000000",
      __model_layers.21_post_attention_layernorm_Constant_attr__value: "0x0800000000000040",
      __model_layers.21_post_attention_layernorm_Constant_1_attr__value: "0x08000000ACC52737",
      __model_layers.21_post_attention_layernorm_Constant_2_attr__value: "0x080000000000803F",
      __model_layers.22_input_layernorm_Constant_attr__value: "0x0800000000000040",
      __model_layers.22_input_layernorm_Constant_1_attr__value: "0x08000000ACC52737",
      __model_layers.22_input_layernorm_Constant_2_attr__value: "0x080000000000803F",
      __model_layers.22_self_attn_Constant_3_attr__value: "0x080000000100000000000000",
      __model_layers.22_self_attn_Constant_4_attr__value: "0x080000000100000000000000",
      __model_layers.22_self_attn_Constant_5_attr__value: "0x080000000300000000000000",
      __model_layers.22_self_attn_Constant_6_attr__value: "0x080000000000000000000000",
      __model_layers.22_self_attn_Constant_7_attr__value: "0x080000004000000000000000",
      __model_layers.22_self_attn_Constant_8_attr__value: "0x080000000100000000000000",
      __model_layers.22_self_attn_Constant_9_attr__value: "0x080000000300000000000000",
      __model_layers.22_self_attn_Constant_10_attr__value: "0x080000004000000000000000",
      __model_layers.22_self_attn_Constant_11_attr__value: "0x08000000FFFFFFFFFFFFFF7F",
      __model_layers.22_self_attn_Constant_12_attr__value: "0x080000000100000000000000",
      __model_layers.22_self_attn_Constant_13_attr__value: "0x080000000300000000000000",
      __model_layers.22_self_attn_Constant_14_attr__value: "0x080000000000000000000000",
      __model_layers.22_self_attn_Constant_15_attr__value: "0x080000004000000000000000",
      __model_layers.22_self_attn_Constant_16_attr__value: "0x080000000100000000000000",
      __model_layers.22_self_attn_Constant_17_attr__value: "0x080000000300000000000000",
      __model_layers.22_self_attn_Constant_18_attr__value: "0x080000004000000000000000",
      __model_layers.22_self_attn_Constant_19_attr__value: "0x08000000FFFFFFFFFFFFFF7F",
      __model_layers.22_self_attn_Constant_20_attr__value: "0x080000000100000000000000",
      __model_layers.22_self_attn_Constant_21_attr__value: "0x08000000F3043541",
      __model_layers.22_self_attn_Constant_22_attr__value: "0x08000000010000000000000008000000000000000010000000000000",
      __model_layers.22_post_attention_layernorm_Constant_attr__value: "0x0800000000000040",
      __model_layers.22_post_attention_layernorm_Constant_1_attr__value: "0x08000000ACC52737",
      __model_layers.22_post_attention_layernorm_Constant_2_attr__value: "0x080000000000803F",
      __model_layers.23_input_layernorm_Constant_attr__value: "0x0800000000000040",
      __model_layers.23_input_layernorm_Constant_1_attr__value: "0x08000000ACC52737",
      __model_layers.23_input_layernorm_Constant_2_attr__value: "0x080000000000803F",
      __model_layers.23_self_attn_Constant_3_attr__value: "0x080000000100000000000000",
      __model_layers.23_self_attn_Constant_4_attr__value: "0x080000000100000000000000",
      __model_layers.23_self_attn_Constant_5_attr__value: "0x080000000300000000000000",
      __model_layers.23_self_attn_Constant_6_attr__value: "0x080000000000000000000000",
      __model_layers.23_self_attn_Constant_7_attr__value: "0x080000004000000000000000",
      __model_layers.23_self_attn_Constant_8_attr__value: "0x080000000100000000000000",
      __model_layers.23_self_attn_Constant_9_attr__value: "0x080000000300000000000000",
      __model_layers.23_self_attn_Constant_10_attr__value: "0x080000004000000000000000",
      __model_layers.23_self_attn_Constant_11_attr__value: "0x08000000FFFFFFFFFFFFFF7F",
      __model_layers.23_self_attn_Constant_12_attr__value: "0x080000000100000000000000",
      __model_layers.23_self_attn_Constant_13_attr__value: "0x080000000300000000000000",
      __model_layers.23_self_attn_Constant_14_attr__value: "0x080000000000000000000000",
      __model_layers.23_self_attn_Constant_15_attr__value: "0x080000004000000000000000",
      __model_layers.23_self_attn_Constant_16_attr__value: "0x080000000100000000000000",
      __model_layers.23_self_attn_Constant_17_attr__value: "0x080000000300000000000000",
      __model_layers.23_self_attn_Constant_18_attr__value: "0x080000004000000000000000",
      __model_layers.23_self_attn_Constant_19_attr__value: "0x08000000FFFFFFFFFFFFFF7F",
      __model_layers.23_self_attn_Constant_20_attr__value: "0x080000000100000000000000",
      __model_layers.23_self_attn_Constant_21_attr__value: "0x08000000F3043541",
      __model_layers.23_self_attn_Constant_22_attr__value: "0x08000000010000000000000008000000000000000010000000000000",
      __model_layers.23_post_attention_layernorm_Constant_attr__value: "0x0800000000000040",
      __model_layers.23_post_attention_layernorm_Constant_1_attr__value: "0x08000000ACC52737",
      __model_layers.23_post_attention_layernorm_Constant_2_attr__value: "0x080000000000803F",
      __model_layers.24_input_layernorm_Constant_attr__value: "0x0800000000000040",
      __model_layers.24_input_layernorm_Constant_1_attr__value: "0x08000000ACC52737",
      __model_layers.24_input_layernorm_Constant_2_attr__value: "0x080000000000803F",
      __model_layers.24_self_attn_Constant_3_attr__value: "0x080000000100000000000000",
      __model_layers.24_self_attn_Constant_4_attr__value: "0x080000000100000000000000",
      __model_layers.24_self_attn_Constant_5_attr__value: "0x080000000300000000000000",
      __model_layers.24_self_attn_Constant_6_attr__value: "0x080000000000000000000000",
      __model_layers.24_self_attn_Constant_7_attr__value: "0x080000004000000000000000",
      __model_layers.24_self_attn_Constant_8_attr__value: "0x080000000100000000000000",
      __model_layers.24_self_attn_Constant_9_attr__value: "0x080000000300000000000000",
      __model_layers.24_self_attn_Constant_10_attr__value: "0x080000004000000000000000",
      __model_layers.24_self_attn_Constant_11_attr__value: "0x08000000FFFFFFFFFFFFFF7F",
      __model_layers.24_self_attn_Constant_12_attr__value: "0x080000000100000000000000",
      __model_layers.24_self_attn_Constant_13_attr__value: "0x080000000300000000000000",
      __model_layers.24_self_attn_Constant_14_attr__value: "0x080000000000000000000000",
      __model_layers.24_self_attn_Constant_15_attr__value: "0x080000004000000000000000",
      __model_layers.24_self_attn_Constant_16_attr__value: "0x080000000100000000000000",
      __model_layers.24_self_attn_Constant_17_attr__value: "0x080000000300000000000000",
      __model_layers.24_self_attn_Constant_18_attr__value: "0x080000004000000000000000",
      __model_layers.24_self_attn_Constant_19_attr__value: "0x08000000FFFFFFFFFFFFFF7F",
      __model_layers.24_self_attn_Constant_20_attr__value: "0x080000000100000000000000",
      __model_layers.24_self_attn_Constant_21_attr__value: "0x08000000F3043541",
      __model_layers.24_self_attn_Constant_22_attr__value: "0x08000000010000000000000008000000000000000010000000000000",
      __model_layers.24_post_attention_layernorm_Constant_attr__value: "0x0800000000000040",
      __model_layers.24_post_attention_layernorm_Constant_1_attr__value: "0x08000000ACC52737",
      __model_layers.24_post_attention_layernorm_Constant_2_attr__value: "0x080000000000803F",
      __model_layers.25_input_layernorm_Constant_attr__value: "0x0800000000000040",
      __model_layers.25_input_layernorm_Constant_1_attr__value: "0x08000000ACC52737",
      __model_layers.25_input_layernorm_Constant_2_attr__value: "0x080000000000803F",
      __model_layers.25_self_attn_Constant_3_attr__value: "0x080000000100000000000000",
      __model_layers.25_self_attn_Constant_4_attr__value: "0x080000000100000000000000",
      __model_layers.25_self_attn_Constant_5_attr__value: "0x080000000300000000000000",
      __model_layers.25_self_attn_Constant_6_attr__value: "0x080000000000000000000000",
      __model_layers.25_self_attn_Constant_7_attr__value: "0x080000004000000000000000",
      __model_layers.25_self_attn_Constant_8_attr__value: "0x080000000100000000000000",
      __model_layers.25_self_attn_Constant_9_attr__value: "0x080000000300000000000000",
      __model_layers.25_self_attn_Constant_10_attr__value: "0x080000004000000000000000",
      __model_layers.25_self_attn_Constant_11_attr__value: "0x08000000FFFFFFFFFFFFFF7F",
      __model_layers.25_self_attn_Constant_12_attr__value: "0x080000000100000000000000",
      __model_layers.25_self_attn_Constant_13_attr__value: "0x080000000300000000000000",
      __model_layers.25_self_attn_Constant_14_attr__value: "0x080000000000000000000000",
      __model_layers.25_self_attn_Constant_15_attr__value: "0x080000004000000000000000",
      __model_layers.25_self_attn_Constant_16_attr__value: "0x080000000100000000000000",
      __model_layers.25_self_attn_Constant_17_attr__value: "0x080000000300000000000000",
      __model_layers.25_self_attn_Constant_18_attr__value: "0x080000004000000000000000",
      __model_layers.25_self_attn_Constant_19_attr__value: "0x08000000FFFFFFFFFFFFFF7F",
      __model_layers.25_self_attn_Constant_20_attr__value: "0x080000000100000000000000",
      __model_layers.25_self_attn_Constant_21_attr__value: "0x08000000F3043541",
      __model_layers.25_self_attn_Constant_22_attr__value: "0x08000000010000000000000008000000000000000010000000000000",
      __model_layers.25_post_attention_layernorm_Constant_attr__value: "0x0800000000000040",
      __model_layers.25_post_attention_layernorm_Constant_1_attr__value: "0x08000000ACC52737",
      __model_layers.25_post_attention_layernorm_Constant_2_attr__value: "0x080000000000803F",
      __model_layers.26_input_layernorm_Constant_attr__value: "0x0800000000000040",
      __model_layers.26_input_layernorm_Constant_1_attr__value: "0x08000000ACC52737",
      __model_layers.26_input_layernorm_Constant_2_attr__value: "0x080000000000803F",
      __model_layers.26_self_attn_Constant_3_attr__value: "0x080000000100000000000000",
      __model_layers.26_self_attn_Constant_4_attr__value: "0x080000000100000000000000",
      __model_layers.26_self_attn_Constant_5_attr__value: "0x080000000300000000000000",
      __model_layers.26_self_attn_Constant_6_attr__value: "0x080000000000000000000000",
      __model_layers.26_self_attn_Constant_7_attr__value: "0x080000004000000000000000",
      __model_layers.26_self_attn_Constant_8_attr__value: "0x080000000100000000000000",
      __model_layers.26_self_attn_Constant_9_attr__value: "0x080000000300000000000000",
      __model_layers.26_self_attn_Constant_10_attr__value: "0x080000004000000000000000",
      __model_layers.26_self_attn_Constant_11_attr__value: "0x08000000FFFFFFFFFFFFFF7F",
      __model_layers.26_self_attn_Constant_12_attr__value: "0x080000000100000000000000",
      __model_layers.26_self_attn_Constant_13_attr__value: "0x080000000300000000000000",
      __model_layers.26_self_attn_Constant_14_attr__value: "0x080000000000000000000000",
      __model_layers.26_self_attn_Constant_15_attr__value: "0x080000004000000000000000",
      __model_layers.26_self_attn_Constant_16_attr__value: "0x080000000100000000000000",
      __model_layers.26_self_attn_Constant_17_attr__value: "0x080000000300000000000000",
      __model_layers.26_self_attn_Constant_18_attr__value: "0x080000004000000000000000",
      __model_layers.26_self_attn_Constant_19_attr__value: "0x08000000FFFFFFFFFFFFFF7F",
      __model_layers.26_self_attn_Constant_20_attr__value: "0x080000000100000000000000",
      __model_layers.26_self_attn_Constant_21_attr__value: "0x08000000F3043541",
      __model_layers.26_self_attn_Constant_22_attr__value: "0x08000000010000000000000008000000000000000010000000000000",
      __model_layers.26_post_attention_layernorm_Constant_attr__value: "0x0800000000000040",
      __model_layers.26_post_attention_layernorm_Constant_1_attr__value: "0x08000000ACC52737",
      __model_layers.26_post_attention_layernorm_Constant_2_attr__value: "0x080000000000803F",
      __model_layers.27_input_layernorm_Constant_attr__value: "0x0800000000000040",
      __model_layers.27_input_layernorm_Constant_1_attr__value: "0x08000000ACC52737",
      __model_layers.27_input_layernorm_Constant_2_attr__value: "0x080000000000803F",
      __model_layers.27_self_attn_Constant_3_attr__value: "0x080000000100000000000000",
      __model_layers.27_self_attn_Constant_4_attr__value: "0x080000000100000000000000",
      __model_layers.27_self_attn_Constant_5_attr__value: "0x080000000300000000000000",
      __model_layers.27_self_attn_Constant_6_attr__value: "0x080000000000000000000000",
      __model_layers.27_self_attn_Constant_7_attr__value: "0x080000004000000000000000",
      __model_layers.27_self_attn_Constant_8_attr__value: "0x080000000100000000000000",
      __model_layers.27_self_attn_Constant_9_attr__value: "0x080000000300000000000000",
      __model_layers.27_self_attn_Constant_10_attr__value: "0x080000004000000000000000",
      __model_layers.27_self_attn_Constant_11_attr__value: "0x08000000FFFFFFFFFFFFFF7F",
      __model_layers.27_self_attn_Constant_12_attr__value: "0x080000000100000000000000",
      __model_layers.27_self_attn_Constant_13_attr__value: "0x080000000300000000000000",
      __model_layers.27_self_attn_Constant_14_attr__value: "0x080000000000000000000000",
      __model_layers.27_self_attn_Constant_15_attr__value: "0x080000004000000000000000",
      __model_layers.27_self_attn_Constant_16_attr__value: "0x080000000100000000000000",
      __model_layers.27_self_attn_Constant_17_attr__value: "0x080000000300000000000000",
      __model_layers.27_self_attn_Constant_18_attr__value: "0x080000004000000000000000",
      __model_layers.27_self_attn_Constant_19_attr__value: "0x08000000FFFFFFFFFFFFFF7F",
      __model_layers.27_self_attn_Constant_20_attr__value: "0x080000000100000000000000",
      __model_layers.27_self_attn_Constant_21_attr__value: "0x08000000F3043541",
      __model_layers.27_self_attn_Constant_22_attr__value: "0x08000000010000000000000008000000000000000010000000000000",
      __model_layers.27_post_attention_layernorm_Constant_attr__value: "0x0800000000000040",
      __model_layers.27_post_attention_layernorm_Constant_1_attr__value: "0x08000000ACC52737",
      __model_layers.27_post_attention_layernorm_Constant_2_attr__value: "0x080000000000803F",
      __model_layers.28_input_layernorm_Constant_attr__value: "0x0800000000000040",
      __model_layers.28_input_layernorm_Constant_1_attr__value: "0x08000000ACC52737",
      __model_layers.28_input_layernorm_Constant_2_attr__value: "0x080000000000803F",
      __model_layers.28_self_attn_Constant_3_attr__value: "0x080000000100000000000000",
      __model_layers.28_self_attn_Constant_4_attr__value: "0x080000000100000000000000",
      __model_layers.28_self_attn_Constant_5_attr__value: "0x080000000300000000000000",
      __model_layers.28_self_attn_Constant_6_attr__value: "0x080000000000000000000000",
      __model_layers.28_self_attn_Constant_7_attr__value: "0x080000004000000000000000",
      __model_layers.28_self_attn_Constant_8_attr__value: "0x080000000100000000000000",
      __model_layers.28_self_attn_Constant_9_attr__value: "0x080000000300000000000000",
      __model_layers.28_self_attn_Constant_10_attr__value: "0x080000004000000000000000",
      __model_layers.28_self_attn_Constant_11_attr__value: "0x08000000FFFFFFFFFFFFFF7F",
      __model_layers.28_self_attn_Constant_12_attr__value: "0x080000000100000000000000",
      __model_layers.28_self_attn_Constant_13_attr__value: "0x080000000300000000000000",
      __model_layers.28_self_attn_Constant_14_attr__value: "0x080000000000000000000000",
      __model_layers.28_self_attn_Constant_15_attr__value: "0x080000004000000000000000",
      __model_layers.28_self_attn_Constant_16_attr__value: "0x080000000100000000000000",
      __model_layers.28_self_attn_Constant_17_attr__value: "0x080000000300000000000000",
      __model_layers.28_self_attn_Constant_18_attr__value: "0x080000004000000000000000",
      __model_layers.28_self_attn_Constant_19_attr__value: "0x08000000FFFFFFFFFFFFFF7F",
      __model_layers.28_self_attn_Constant_20_attr__value: "0x080000000100000000000000",
      __model_layers.28_self_attn_Constant_21_attr__value: "0x08000000F3043541",
      __model_layers.28_self_attn_Constant_22_attr__value: "0x08000000010000000000000008000000000000000010000000000000",
      __model_layers.28_post_attention_layernorm_Constant_attr__value: "0x0800000000000040",
      __model_layers.28_post_attention_layernorm_Constant_1_attr__value: "0x08000000ACC52737",
      __model_layers.28_post_attention_layernorm_Constant_2_attr__value: "0x080000000000803F",
      __model_layers.29_input_layernorm_Constant_attr__value: "0x0800000000000040",
      __model_layers.29_input_layernorm_Constant_1_attr__value: "0x08000000ACC52737",
      __model_layers.29_input_layernorm_Constant_2_attr__value: "0x080000000000803F",
      __model_layers.29_self_attn_Constant_3_attr__value: "0x080000000100000000000000",
      __model_layers.29_self_attn_Constant_4_attr__value: "0x080000000100000000000000",
      __model_layers.29_self_attn_Constant_5_attr__value: "0x080000000300000000000000",
      __model_layers.29_self_attn_Constant_6_attr__value: "0x080000000000000000000000",
      __model_layers.29_self_attn_Constant_7_attr__value: "0x080000004000000000000000",
      __model_layers.29_self_attn_Constant_8_attr__value: "0x080000000100000000000000",
      __model_layers.29_self_attn_Constant_9_attr__value: "0x080000000300000000000000",
      __model_layers.29_self_attn_Constant_10_attr__value: "0x080000004000000000000000",
      __model_layers.29_self_attn_Constant_11_attr__value: "0x08000000FFFFFFFFFFFFFF7F",
      __model_layers.29_self_attn_Constant_12_attr__value: "0x080000000100000000000000",
      __model_layers.29_self_attn_Constant_13_attr__value: "0x080000000300000000000000",
      __model_layers.29_self_attn_Constant_14_attr__value: "0x080000000000000000000000",
      __model_layers.29_self_attn_Constant_15_attr__value: "0x080000004000000000000000",
      __model_layers.29_self_attn_Constant_16_attr__value: "0x080000000100000000000000",
      __model_layers.29_self_attn_Constant_17_attr__value: "0x080000000300000000000000",
      __model_layers.29_self_attn_Constant_18_attr__value: "0x080000004000000000000000",
      __model_layers.29_self_attn_Constant_19_attr__value: "0x08000000FFFFFFFFFFFFFF7F",
      __model_layers.29_self_attn_Constant_20_attr__value: "0x080000000100000000000000",
      __model_layers.29_self_attn_Constant_21_attr__value: "0x08000000F3043541",
      __model_layers.29_self_attn_Constant_22_attr__value: "0x08000000010000000000000008000000000000000010000000000000",
      __model_layers.29_post_attention_layernorm_Constant_attr__value: "0x0800000000000040",
      __model_layers.29_post_attention_layernorm_Constant_1_attr__value: "0x08000000ACC52737",
      __model_layers.29_post_attention_layernorm_Constant_2_attr__value: "0x080000000000803F",
      __model_layers.30_input_layernorm_Constant_attr__value: "0x0800000000000040",
      __model_layers.30_input_layernorm_Constant_1_attr__value: "0x08000000ACC52737",
      __model_layers.30_input_layernorm_Constant_2_attr__value: "0x080000000000803F",
      __model_layers.30_self_attn_Constant_3_attr__value: "0x080000000100000000000000",
      __model_layers.30_self_attn_Constant_4_attr__value: "0x080000000100000000000000",
      __model_layers.30_self_attn_Constant_5_attr__value: "0x080000000300000000000000",
      __model_layers.30_self_attn_Constant_6_attr__value: "0x080000000000000000000000",
      __model_layers.30_self_attn_Constant_7_attr__value: "0x080000004000000000000000",
      __model_layers.30_self_attn_Constant_8_attr__value: "0x080000000100000000000000",
      __model_layers.30_self_attn_Constant_9_attr__value: "0x080000000300000000000000",
      __model_layers.30_self_attn_Constant_10_attr__value: "0x080000004000000000000000",
      __model_layers.30_self_attn_Constant_11_attr__value: "0x08000000FFFFFFFFFFFFFF7F",
      __model_layers.30_self_attn_Constant_12_attr__value: "0x080000000100000000000000",
      __model_layers.30_self_attn_Constant_13_attr__value: "0x080000000300000000000000",
      __model_layers.30_self_attn_Constant_14_attr__value: "0x080000000000000000000000",
      __model_layers.30_self_attn_Constant_15_attr__value: "0x080000004000000000000000",
      __model_layers.30_self_attn_Constant_16_attr__value: "0x080000000100000000000000",
      __model_layers.30_self_attn_Constant_17_attr__value: "0x080000000300000000000000",
      __model_layers.30_self_attn_Constant_18_attr__value: "0x080000004000000000000000",
      __model_layers.30_self_attn_Constant_19_attr__value: "0x08000000FFFFFFFFFFFFFF7F",
      __model_layers.30_self_attn_Constant_20_attr__value: "0x080000000100000000000000",
      __model_layers.30_self_attn_Constant_21_attr__value: "0x08000000F3043541",
      __model_layers.30_self_attn_Constant_22_attr__value: "0x08000000010000000000000008000000000000000010000000000000",
      __model_layers.30_post_attention_layernorm_Constant_attr__value: "0x0800000000000040",
      __model_layers.30_post_attention_layernorm_Constant_1_attr__value: "0x08000000ACC52737",
      __model_layers.30_post_attention_layernorm_Constant_2_attr__value: "0x080000000000803F",
      __model_layers.31_input_layernorm_Constant_attr__value: "0x0800000000000040",
      __model_layers.31_input_layernorm_Constant_1_attr__value: "0x08000000ACC52737",
      __model_layers.31_input_layernorm_Constant_2_attr__value: "0x080000000000803F",
      __model_layers.31_self_attn_Constant_3_attr__value: "0x080000000100000000000000",
      __model_layers.31_self_attn_Constant_4_attr__value: "0x080000000100000000000000",
      __model_layers.31_self_attn_Constant_5_attr__value: "0x080000000300000000000000",
      __model_layers.31_self_attn_Constant_6_attr__value: "0x080000000000000000000000",
      __model_layers.31_self_attn_Constant_7_attr__value: "0x080000004000000000000000",
      __model_layers.31_self_attn_Constant_8_attr__value: "0x080000000100000000000000",
      __model_layers.31_self_attn_Constant_9_attr__value: "0x080000000300000000000000",
      __model_layers.31_self_attn_Constant_10_attr__value: "0x080000004000000000000000",
      __model_layers.31_self_attn_Constant_11_attr__value: "0x08000000FFFFFFFFFFFFFF7F",
      __model_layers.31_self_attn_Constant_12_attr__value: "0x080000000100000000000000",
      __model_layers.31_self_attn_Constant_13_attr__value: "0x080000000300000000000000",
      __model_layers.31_self_attn_Constant_14_attr__value: "0x080000000000000000000000",
      __model_layers.31_self_attn_Constant_15_attr__value: "0x080000004000000000000000",
      __model_layers.31_self_attn_Constant_16_attr__value: "0x080000000100000000000000",
      __model_layers.31_self_attn_Constant_17_attr__value: "0x080000000300000000000000",
      __model_layers.31_self_attn_Constant_18_attr__value: "0x080000004000000000000000",
      __model_layers.31_self_attn_Constant_19_attr__value: "0x08000000FFFFFFFFFFFFFF7F",
      __model_layers.31_self_attn_Constant_20_attr__value: "0x080000000100000000000000",
      __model_layers.31_self_attn_Constant_21_attr__value: "0x08000000F3043541",
      __model_layers.31_self_attn_Constant_22_attr__value: "0x08000000010000000000000008000000000000000010000000000000",
      __model_layers.31_post_attention_layernorm_Constant_attr__value: "0x0800000000000040",
      __model_layers.31_post_attention_layernorm_Constant_1_attr__value: "0x08000000ACC52737",
      __model_layers.31_post_attention_layernorm_Constant_2_attr__value: "0x080000000000803F",
      __model_norm_Constant_attr__value: "0x0800000000000040",
      __model_norm_Constant_1_attr__value: "0x08000000ACC52737",
      __model_norm_Constant_2_attr__value: "0x080000000000803F"
    }
  }
#-}

